checkpoint/current_checkpoint.pt (torch, 361193 bytes, 20 tensors)

0.weight f4 [6, 1, 5, 5]
000000 52 31 85 bd cd 7d 58 be f3 5a 80 bd 9d ef 1f 3b
       -0.06503548 -0.21141739 -0.06267347 0.0024404295
000010 03 63 93 3c fb 92 9d bd ac 6b 0e be 4c 0b f4 bd
       0.017991548 -0.0769405 -0.13908261 -0.11916217
000020 16 d9 df b9 e3 1f 02 be c8 40 0e 3e d9 79 ca 3e
       -0.00042695616 -0.12707476 0.138919 0.39546087
000030 15 43 50 3e 47 57 d3 3d a1 37 4a 3e fe 9e 91 3e
       0.2033809 0.10319381 0.19747783 0.28441614
000040 62 dd e7 3e 75 4d 0e 3f 6e 59 61 3e eb 2f 38 3e
       0.4528609 0.5558694 0.22006771 0.17987029
000050 e5 f1 79 3d d7 3f ad 3e 92 6c 9b 3e 4f 6b f7 bd
       0.061021704 0.33837768 0.3035627 -0.12081014
000060 be 20 90 bd 2c 29 bc bd 1c c7 a7 be e0 49 35 be
       -0.07037495 -0.091875404 -0.32769096 -0.17703962
000070 f8 77 8f 3c 0f 58 b3 3e fd 9f 39 be f2 26 a8 be
       0.01751326 0.3502812 -0.18127437 -0.32842213
000080 7a c3 d1 bd ce b9 21 3d 95 7c 1a 3f cc 80 0b be
       -0.10242362 0.039483838 0.6034635 -0.13623351
000090 a8 4a d0 be 02 f2 7d be 0f ec 86 3e 38 e0 1d 3f
       -0.40681958 -0.2479935 0.26351973 0.61670256
0000a0 97 43 23 be ba 5f e5 be c2 9d 42 be b7 5d 80 3e
       -0.15943752 -0.44799596 -0.19005492 0.250715
0000b0 75 27 24 3f 68 52 8f be 22 1d 9a be e7 a7 b5 3d
       0.64122707 -0.27992558 -0.30100352 0.088699155
0000c0 3c 1b 11 3f 03 e2 09 3f fa 9a 8b be 9f 60 a7 bd
       0.5668218 0.5386049 -0.27266675 -0.08172726
0000d0 ae 75 37 3e be db 1c 3e 38 18 5d 3e 7b c7 d1 3d
       0.17915985 0.153182 0.2159127 0.10243126
0000e0 3d e2 01 3e 05 0b c4 3e b3 bf 16 3f f0 d9 fb 3e
       0.1268396 0.38289657 0.5888626 0.4918971
0000f0 3f 37 bb bc 2b 66 30 3e 60 cd 02 3f b9 c9 47 3f
       -0.022853492 0.17226474 0.5109463 0.7804218
000100 76 17 d5 3e 48 0d d8 bd 5b 89 b7 3e bb 1a a1 3e
       0.41619462 -0.10549408 0.3584698 0.31465706
000110 ab 55 8c 3e d3 d7 ec 3e 2e b6 23 be a1 df 37 be
       0.2740911 0.4625841 -0.15987465 -0.17956401
000120 48 14 51 bd 8b d8 34 bc 67 45 46 3d 21 4c 02 3e
       -0.051044732 -0.011037956 0.04840603 0.12724353
000130 01 d2 3a 3e ea 24 ff bd 65 c8 b5 bd a5 48 29 be
       0.18244173 -0.12458213 -0.08876113 -0.16531618
000140 1a b1 f8 3e 57 b1 21 3e b5 eb 40 be 57 22 a4 be
       0.48572618 0.15790306 -0.18839915 -0.3205745
000150 f5 58 90 be aa 02 dc 3e 33 37 81 3d 77 3f 92 be
       -0.2819287 0.42970783 0.063093565 -0.28564045
000160 78 e2 c7 be 63 dd 37 bb 7e 3e 03 3f c0 fe 87 3d
       -0.3903997 -0.002805554 0.5126723 0.066403866
000170 9a c0 93 bd 66 7d a4 be a9 23 f5 bd 72 11 ea 3e
       -0.0721447 -0.3212692 -0.11969692 0.45716435
000180 46 4d e1 3e 47 3e 98 3c 90 5d 02 3d 0f 20 76 3c
       0.44004267 0.018584384 0.03182751 0.015022292
000190 08 25 bf 3d be 52 45 3e 14 7c b3 bc 0a 3c 43 be
       0.09333235 0.19269845 -0.021909751 -0.19065872
0001a0 f4 96 bd 3d 6c 2b 59 3e 8f 76 9e bd be 73 2d be
       0.09257308 0.2120797 -0.07737457 -0.16938683
0001b0 c2 a9 10 3d f5 30 4a bd ab df 8d 3e 0a bb be bd
       0.035318144 -0.049363095 0.27709708 -0.093130186
0001c0 58 64 0e be a8 2f 12 bd eb e1 88 bc a1 1b 97 3e
       -0.13905466 -0.03568998 -0.016709289 0.29513267
0001d0 08 2e e6 bd 7d da 6c 3d 28 6e 48 bc 87 56 f2 bb
       -0.112392485 0.057825554 -0.012233295 -0.007395569
0001e0 05 12 97 3b 4a 5d 94 3d 8c ff dd 3d 80 8c 3d be
       0.0046103024 0.07244356 0.10839757 -0.18510628
0001f0 b1 d6 07 3d 23 94 7f be 8e 63 d0 bd e9 58 8e bd
       0.03316373 -0.24958853 -0.101752385 -0.06950552
000200 89 ad 10 be 64 82 8a be 44 bd 96 be 04 28 38 be
       -0.14128698 -0.27052605 -0.29441273 -0.17984015
000210 5d c1 e7 3a d3 d2 10 be 01 c7 96 be 32 79 71 be
       0.0017681528 -0.14142923 -0.29448703 -0.23581389
000220 71 2d 51 3c 73 e5 6e 3c 18 a6 66 be 42 42 96 be
       0.012767182 0.014581072 -0.22524297 -0.29347426
000230 2a a9 e7 bb b9 b5 31 be b8 8c 21 be 9e e2 a4 bd
       -0.0070697265 -0.17354478 -0.15776336 -0.08051036
000240 9c 87 ad bd 5e 7e d0 bd 1f 67 bd 3b 85 42 84 be
       -0.08473131 -0.10180353 0.0057801153 -0.25832
000250 5c 5a 57 be 55 de 09 be
       -0.21030563 -0.13463719

0.bias f4 [6]
000000 d3 3b bd 3e 7e be 3d be 7a e7 27 3f 05 d7 58 3e
       0.36959705 -0.18529698 0.6558758 0.21175773
000010 02 c2 e2 bd 18 51 b7 3e
       -0.1107216 0.35804057

3.weight f4 [16, 6, 5, 5]
000000 47 6f 16 3d fa 7d db 3c bf fb 52 3d a2 a1 8c 3d
       0.036727216 0.026793469 0.051509615 0.068667665
000010 0b 79 9d bd f0 b2 ba bd 2e b0 15 bd c8 56 9c bc
       -0.07689103 -0.09116161 -0.03654497 -0.01908435
000020 fe ae a3 3d 5f 2c bf bd ce 8f 89 bd d9 99 9e bd
       0.079923615 -0.09334635 -0.06716882 -0.07744188
000030 64 06 00 3d 38 67 80 bd 8f b2 31 be 5d c2 32 bd
       0.031256095 -0.062696874 -0.17353271 -0.04364239
000040 d9 26 34 bd cf 58 df bc 75 8c 2b bd 12 52 04 bd
       -0.04398236 -0.027264027 -0.041881997 -0.03230483
000050 a9 4c 04 3d 5d e6 08 3d a8 a9 fa bc 58 74 80 bd
       0.03229967 0.033422817 -0.030598477 -0.06272191
000060 d7 17 03 bd 2c 40 f0 bd e0 59 da bc 28 41 77 3d
       -0.032005157 -0.1173099 -0.026654184 0.060364872
000070 95 51 dc bc 1d ae f5 bc 15 ef 41 3c 73 89 1c 3e
       -0.02689437 -0.02999025 0.011836787 0.15286808
000080 a5 45 6b 3e e6 14 13 3d 48 fa 1f 3d f0 cb 20 bd
       0.22975786 0.035908602 0.039057046 -0.03925699
000090 b0 ae 3e 3e 33 c9 9e 3e 14 ce 0f 3d f8 5c bc 3d
       0.18621325 0.31012878 0.03510864 0.0919742
0000a0 01 bb ac bb 39 e1 92 3e 31 63 ab 3e e3 f8 49 3d
       -0.005271316 0.28687456 0.33474115 0.049309622
0000b0 ac 56 a5 3d a7 a5 73 3d ef 2c 85 3e ff ba 26 3e
       0.08073172 0.05948415 0.26010844 0.16282271
0000c0 53 61 d9 bd 26 18 f0 bc 5f 56 86 bd f3 43 9d 3d
       -0.10614266 -0.02930839 -0.06559443 0.07678976
0000d0 c9 f3 dd bd 13 8b a9 bc 1b f5 6b bd 9b 1f 99 3c
       -0.10837514 -0.020696199 -0.057606798 0.018691828
0000e0 3f 3c 80 3d 99 10 bd 3d 10 2b e7 bc 8a 05 f2 bc
       0.06261491 0.092316814 -0.028218776 -0.029543657
0000f0 93 4d a9 bc 17 2a 80 3d e2 00 1d 3e be 3e ff bd
       -0.020666873 0.06258028 0.15332368 -0.12463139
000100 8a cb c2 bd cb 19 9e bd 66 eb 31 3e a7 73 ff 3d
       -0.09511478 -0.07719763 0.17374954 0.12473231
000110 c3 78 05 be b9 3d 43 be 67 5b e5 bd de 77 80 3d
       -0.13034348 -0.19066514 -0.11199074 0.06272863
000120 1a f0 07 bd 03 62 f9 bd cc 99 02 be 7c 36 d4 bb
       -0.033187963 -0.121768974 -0.12753981 -0.0064762216
000130 0b b6 5f bc 77 54 49 3d 3f f2 96 bd bc 8d f5 bd
       -0.013654242 0.049152818 -0.073704235 -0.11989924
000140 b7 70 82 bd b0 a7 15 be dd 60 99 bc c0 e2 10 3e
       -0.06369155 -0.14614749 -0.018722946 0.14148998
000150 03 2d be bd 6f e6 2e be e8 4a 20 be 04 6e 19 3e
       -0.09285929 -0.17080091 -0.15653574 0.14983374
000160 72 0a 78 3e 65 7d b1 3d 78 e7 06 be eb 02 7c bd
       0.24222735 0.08666495 -0.13174236 -0.06152622
000170 7c c0 47 3e ba 6d 3a 3e ad d1 da 3d ae d1 b3 bd
       0.1950702 0.1820592 0.10684524 -0.087802276
000180 52 6e 2e bd 28 77 1b 3e 81 dd cd 3d d3 4b 94 bc
       -0.04258568 0.15182173 0.10052014 -0.018102562
000190 a7 42 70 3d 3e cc f3 bc be e3 72 3d da 8f 5c 3c
       0.058657315 -0.029760476 0.059299223 0.013462031
0001a0 02 5a 50 3c 59 8a 15 bd 03 17 9a 3c eb 1b 45 3d
       0.012716772 -0.03650889 0.018809801 0.048122328
0001b0 07 21 20 3d fe b4 3c bd 02 65 77 3d 90 c3 4d 3d
       0.039093997 -0.046071045 0.060399063 0.05023533
0001c0 2d a0 e9 3d 20 c8 1c 3d 22 ab a8 bc c9 c5 04 bd
       0.11407504 0.03827679 -0.020589415 -0.032415185
0001d0 32 63 81 bd 39 06 d8 3d 2c 75 e2 3c e2 bf db 3d
       -0.06317748 0.10548062 0.027643763 0.10729958
0001e0 3b 46 ef bb 0d d6 b4 3c a6 00 bb 3d 1f 40 b2 3d
       -0.0073020733 0.022074724 0.09130983 0.087036364
0001f0 46 b3 a8 3d 4f 36 99 bd 28 8d 8e 3b 7e cc 44 3c
       0.08237319 -0.07481062 0.004350323 0.012011645
000200 87 01 aa bd d9 85 7f bc f8 09 e5 bc bd de 8b bd
       -0.083010726 -0.015595877 -0.027958855 -0.06829593
000210 4a 60 c4 3c af 5f 1c bd 84 70 01 be ed bb c0 bc
       0.023971695 -0.03817719 -0.12640578 -0.02352711
000220 10 07 d8 3c 2f 60 95 bd 9c 92 b5 bd 7d 75 ed 3b
       0.026370555 -0.07293736 -0.08865854 0.0072466717
000230 d6 d0 5f 3d 19 41 be 3c aa 0a ad bc 8e 67 61 bd
       0.05464252 0.0232244 -0.02112325 -0.055030398
000240 40 e0 f0 bd cc c3 6c 3c c3 3c 6f bd ac 29 dd bd
       -0.11761522 0.0144509785 -0.058407556 -0.10798964
000250 b8 2e 17 be 5f 7d 5d bd 55 4c e2 3b 42 fa fd 3c
       -0.14763916 -0.05407464 0.006906072 0.031003121
000260 31 9e 8e 3d 81 00 92 bc cb 83 6e 3d a9 f3 3f 3b
       0.06963766 -0.017822506 0.058231156 0.002928952
000270 ba 1e 4a 3d a5 4a 23 3c 0c 5a 9c 3d 48 94 1b bd
       0.04934571 0.009966527 0.076343626 -0.03798321
000280 63 ce 1d 3d b1 02 9e bc ff ee 20 be 73 4b 58 3d
       0.038526904 -0.019288393 -0.1571617 0.05280633
000290 97 a2 91 3d 31 e0 e7 3c ae a9 ea bd c3 52 19 bd
       0.0711109 0.028305145 -0.11458145 -0.037432443
0002a0 1a 4b e7 bb 6c fc 2a 3d b7 f8 42 bd 19 85 c5 3a
       -0.0070585134 0.041744635 -0.047600474 0.0015069573
0002b0 53 e6 31 3d 55 21 87 3d 0a a6 5c bd 2e 61 9f bc
       0.043432545 0.065981545 -0.053869285 -0.019455519
0002c0 bd 72 ca 3c 5a 64 00 3d 16 c6 07 bd 21 55 82 bd
       0.024712915 0.031345703 -0.033147894 -0.06363893
0002d0 c6 3b 7a 3d c8 a1 42 3d 6a dd e5 3d 7d 61 4a 3d
       0.06109216 0.047517568 0.11223872 0.04940938
0002e0 b1 8f a2 3d 25 1f bd bd 7d c7 ba bd 99 3e df 3d
       0.07937563 -0.09234456 -0.091200806 0.109006114
0002f0 db c1 8d 3d a9 ea 22 3e 66 b2 73 ba 35 f7 f5 bd
       0.069217406 0.15909828 -0.0009296298 -0.120100416
000300 52 1b 21 3e fb 75 30 3e d7 48 1d 3e 27 bc 1e bd
       0.15733078 0.17232506 0.15359817 -0.038753655
000310 75 43 06 bb 71 fb b3 3d b0 f9 5f 3d 89 e9 99 3d
       -0.0020486985 0.08788193 0.05468148 0.075152464
000320 07 1c 77 3d 95 42 78 3d 63 e9 05 bd d5 b1 04 bd
       0.060329463 0.060610373 -0.032693278 -0.032396156
000330 ee 50 10 bd a9 38 84 bd bb 8e bb 3c 20 32 e9 3d
       -0.03523343 -0.064561196 0.022895208 0.11386514
000340 52 88 28 3e ee 6b 84 bc da f7 97 bd 39 6a 45 be
       0.16458252 -0.016164746 -0.07420321 -0.19278802
000350 85 e9 c1 bd 89 d9 b6 3d 45 1f aa bd 4d 5d e5 bd
       -0.094683684 0.0892821 -0.083067454 -0.11199436
000360 65 ca 70 be 42 65 25 bd cc cc 45 3c 36 48 72 bd
       -0.23514707 -0.04037977 0.012072753 -0.059150897
000370 82 66 77 bd 4c 8b eb bd 18 04 ff 3a c5 01 b6 3d
       -0.060400493 -0.11501178 0.0019456176 0.08887056
000380 0f fd 55 be e7 85 62 3d 51 61 a7 3c f8 c5 7b bc
       -0.20897315 0.05530348 0.020432146 -0.015367024
000390 c3 a6 4e 3d 87 89 53 3d 18 ae 99 bc 4a 2b 4e bd
       0.050452005 0.05164483 -0.018759772 -0.050334252
0003a0 2a dc 1a bd a1 2b a9 bd 21 73 50 3d 69 dd 0f bd
       -0.03780762 -0.08260275 0.050891045 -0.035123263
0003b0 ab c2 b3 3d 61 72 7b bc e1 d5 ef bd 38 1c 91 3d
       0.08777364 -0.015347094 -0.11710716 0.070854604
0003c0 df 90 6e 3d d0 df 32 3d 49 01 7e 3a ab 92 c5 bd
       0.05824363 0.043670475 0.00096895226 -0.09647115
0003d0 9d 84 44 3e c5 da 74 bd 57 0a b7 bc b2 de 3b 3d
       0.19191213 -0.059778947 -0.022343798 0.045866676
0003e0 18 0d a5 3d 13 e3 70 3d 65 41 8a bd 5e 2b 22 3c
       0.08059138 0.058810305 -0.06750754 0.009898035
0003f0 ee 52 0c 3b ae 6f 2f 3d a6 20 a8 3d 85 1d da bc
       0.0021411735 0.042831115 0.08209352 -0.026625404

3.bias f4 [16]
000000 1d 51 f9 bc 8f 07 e1 3b fe 1a 25 3d fc ae fd 3d
       -0.030434186 0.006867356 0.040308945 0.12386891
000010 8c 5d 1e bb 4f ba f4 bd b9 41 99 3d 05 46 89 bd
       -0.0024164645 -0.11949598 0.07483239 -0.06702808
000020 78 84 dc 3d d4 93 54 bd 6e 14 88 3d 33 98 9b 3d
       0.10767454 -0.051898792 0.06644522 0.07597389
000030 67 07 68 3d d3 6d 5a 3d 3f 80 12 3d 38 bd 29 3e
       0.056647684 0.053327393 0.035766836 0.16576087

7.weight f4 [120, 256]
000000 7c 3a 9b bc 27 d1 02 3c 6f 77 6f bb b5 7e 1d bc
       -0.018948786 0.007984436 -0.0036539694 -0.009612729
000010 3e 48 4f 3c ee 81 7d bd 27 be 43 bd ca 69 b4 3c
       0.012651501 -0.06189149 -0.047788765 0.0220231
000020 f3 97 22 3d 2e 25 0f bd 2f d8 41 3d af c9 18 bd
       0.03969569 -0.034947567 0.04732531 -0.037301715
000030 f5 ae 03 bd af bb 83 bb 85 5b 29 bd 75 9a 65 bd
       -0.032149274 -0.0040201764 -0.041347045 -0.056055505
000040 1a b9 af 3a 30 53 2c 3d 0b f7 0e 3d 5c 1a a7 3c
       0.0013406605 0.04207152 0.034903567 0.020398311
000050 91 7c 2f 3d 13 90 82 b9 86 18 47 3c 89 01 63 3d
       0.042843405 -0.00024902876 0.012151843 0.055421386
000060 c1 3b 34 3d 24 46 5d 3d 09 53 48 3d 10 41 df bb
       0.0440023 0.05402197 0.048907313 -0.006813176
000070 0b a8 cd 3c 8c e9 6f bb 6b 0f c7 bb 26 a4 2f 3d
       0.025104543 -0.003660771 -0.006074836 0.042881154
000080 42 7b 10 3d 46 ce 38 3d d7 bf f0 bc 4d ac 67 bd
       0.035273798 0.045118593 -0.029388351 -0.056560803
000090 77 8b 51 bd d6 ec bd bc c4 aa d1 3c 16 75 1c bb
       -0.051158395 -0.023184221 0.025594123 -0.00238735
0000a0 9e 1b 16 3d 44 a7 30 3d 6e 16 47 bd c2 8f 68 3d
       0.03664743 0.043128267 -0.048605375 0.056777723
0000b0 54 be 8b 3c c6 34 2f bd cc 0e 63 bb 98 88 44 3c
       0.017058529 -0.042774938 -0.003464627 0.011995457
0000c0 f8 15 7e 3d a5 8c 4c bd 96 e0 23 3b ae 00 37 3d
       0.06203267 -0.049938817 0.002500569 0.044678383
0000d0 d2 07 80 bd e1 57 6c bc 67 81 44 bd 24 26 20 bd
       -0.062514916 -0.014425249 -0.04797497 -0.039098874
0000e0 77 5a 27 bd cf cb 5d bc 0f 5d 68 bd c7 b4 ee bc
       -0.04085776 -0.013537361 -0.056729373 -0.029138936
0000f0 36 74 ec 3c 0b 35 60 bd 1b f8 44 bd 95 57 7d 3d
       0.028864007 -0.054738086 -0.048088174 0.061851103
000100 4b c0 b2 bc b0 14 fc bb a9 76 68 3d 4b 21 11 bd
       -0.021820208 -0.007692896 0.05675379 -0.03543214
000110 71 ab f2 bc 17 e5 22 bc 31 a1 16 3d f6 e6 28 bd
       -0.029622765 -0.009942315 0.036774818 -0.041235887
000120 d7 91 19 3c 36 14 02 3c 64 ee 10 bd c7 32 37 bd
       0.00937315 0.007939389 -0.035383597 -0.04472616
000130 d0 94 36 3d 10 45 03 bd 1e 43 e4 bc 6b 53 13 3d
       0.044575512 -0.032048285 -0.027864035 0.035968225
000140 d1 b2 66 3c 9f fd f1 3c 55 70 7f bc 8b e0 10 bd
       0.014080719 0.029539881 -0.015590747 -0.03537039
000150 45 af cc 3c 8c e2 94 3c d4 d6 56 bd 41 68 5c bd
       0.024985919 0.018174432 -0.05245097 -0.05381036
000160 65 8b b5 3c 3c 6c 94 bc 4b b0 49 bd 21 20 64 bd
       0.022161195 -0.018118016 -0.04924039 -0.055694703
000170 6d cb 29 3d 73 23 0b 3d 6e c9 c0 3c d1 c8 77 bd
       0.041453768 0.033969354 0.02353355 -0.060494248
000180 42 ff 65 bb fd 02 41 bb 78 2f 67 3d ae c2 d6 bc
       -0.0035094772 -0.0029451244 0.056441754 -0.026215877
000190 a3 27 b7 3a 35 26 18 3b fc 4a 77 bd d8 a6 ea bb
       0.0013973605 0.0023216133 -0.060374245 -0.0071610026
0001a0 bf d3 4d bd 3e 42 32 3d a7 f3 bf bb 1c 85 31 bd
       -0.050250765 0.043520205 -0.005857903 -0.043339834
0001b0 f9 99 5d 3d 40 51 dd bc 65 b4 18 bc 06 44 b6 3c
       0.054101918 -0.027016282 -0.009320353 0.022249233
0001c0 19 f7 b4 3c 8e 66 ad 3c c7 5c 81 3c 80 d7 16 3d
       0.022090482 0.021167066 0.01579131 0.03682661
0001d0 24 f1 c7 bc d2 62 47 bd 1c ff 5d bd a4 61 96 bc
       -0.024406977 -0.048678227 -0.05419837 -0.018357106
0001e0 80 10 04 3b b6 9c 34 bb 84 6f 55 3c 5e 42 b7 3c
       0.0020151436 -0.0027559227 0.013027076 0.022370514
0001f0 f8 e6 35 bd be 2d 11 bd 4f e9 00 3d 7a fa c3 3b
       -0.044409722 -0.035444014 0.0314725 0.005980787
000200 d1 d2 50 3d 55 42 75 3d 99 3d ab 3c cc 3d 5b bd
       0.0509823 0.059877712 0.020903395 -0.05352573
000210 ce d3 43 bd 0c 52 eb bc b1 3f 68 bd 7b e1 56 bd
       -0.047809415 -0.028725646 -0.056701366 -0.05246113
000220 55 7d b4 bc f3 4a 6d 3d 5e 78 77 bd f6 91 0b bd
       -0.02203242 0.057932805 -0.060417525 -0.034074746
000230 49 98 6d 3d 90 7b cf bc fa 37 27 bd 6a 32 68 3d
       0.05800656 -0.025327474 -0.040824868 0.056688704
000240 11 01 12 3d 2b 10 5d 3d 87 0a 10 bd 7e 0d dd 3c
       0.03564555 0.053970497 -0.03516629 0.026983973
000250 31 8f 45 bd bd 8e 1b bc 06 e0 8d 3b 1e 60 1a bd
       -0.04823226 -0.009494481 0.004329684 -0.03768932
000260 e5 ac 93 bc d0 a8 56 bd d7 f8 98 bc d5 cd 6b bc
       -0.018026778 -0.052407086 -0.018673344 -0.014392336
000270 2e 36 53 bd 90 ae 52 3d 16 49 55 3d f3 3c 70 3d
       -0.05156534 0.051436007 0.052071653 0.058651876
000280 71 34 6f bd fa c4 f6 3c c6 2a 47 bd 6e 6b 5a bd
       -0.05839962 0.030123223 -0.048624776 -0.05332511
000290 68 0c 07 bd e9 fe 35 bd 8b 0c 6f bd 35 cc 4e bd
       -0.032970816 -0.044432554 -0.05836157 -0.050487716
0002a0 c0 37 12 bd 8c c4 52 3b 6a 17 3b bb 2b 99 f0 3c
       -0.0356977 0.0032160608 -0.0028547891 0.029369911
0002b0 9d 06 2c bd 7c 9e e3 3c 6c 3d d9 3c ba 68 06 3b
       -0.041998494 0.027785532 0.026518546 0.00205092
0002c0 fb 2d dc b9 e9 30 14 3c 43 65 91 3c 52 c1 08 bd
       -0.00041995928 0.009044864 0.01774848 -0.03338749
0002d0 c6 86 f4 bc 25 fd 1a 3d 94 7a 2c 3c 0e 3f ce bc
       -0.029849421 0.037839074 0.010527272 -0.025176551
0002e0 cb 04 80 bd c3 e3 12 bd c4 76 1b 3d 9c 4a fc bc
       -0.06250914 -0.03586174 0.03795506 -0.030797295
0002f0 dd f3 56 bd 68 92 33 bc ee ee 68 bd cf 8e 45 3d
       -0.05247866 -0.010960199 -0.056868486 0.048231896
000300 00 bf 9b 3c 33 06 62 3d 1e 10 ef bc 46 a8 21 3d
       0.019011974 0.055181693 -0.02918249 0.03946712
000310 30 eb 21 bd 25 89 7e bd e7 f3 5c bd 28 80 ab 3c
       -0.039530933 -0.06214251 -0.05394354 0.020935133
000320 a7 5e 01 bd f8 ba cf 3a 5d f3 71 bd df c2 01 bd
       -0.031584408 0.0015848568 -0.05906998 -0.031679984
000330 05 8c 6c bd 04 ff ae 3c 79 62 24 3c f2 06 ab bc
       -0.05775072 0.021361835 0.010033243 -0.020877335
000340 13 4e 6b bc e3 09 26 3d ae 88 01 3c de e5 48 3d
       -0.014361876 0.040536772 0.007906122 0.049047343
000350 07 34 1f 3c 0e 86 62 bd 22 43 f1 ba 54 d9 dc 3b
       0.009716994 -0.055303626 -0.0018406848 0.0067397747
000360 b9 f6 50 bd 80 60 ec bb af e9 e5 bc ac 60 5b bd
       -0.051016543 -0.007213652 -0.02806553 -0.05355899
000370 55 af 1d 3d 00 ad 4c 3d 04 14 11 bc e3 20 a9 bc
       0.038497288 0.049969673 -0.00885487 -0.020645564
000380 0a e9 6e bd 5d 48 28 bd e7 f0 80 bc 8c 82 ef bc
       -0.058327712 -0.041084636 -0.015739871 -0.029237054
000390 60 eb c2 bb 5b e5 91 bc 4f 02 d5 bc d6 99 75 3d
       -0.005948469 -0.01780956 -0.026002077 0.059961163
0003a0 cd 26 e9 bc 31 bb f1 bc de 90 da 3c 56 02 49 bd
       -0.028460884 -0.029508205 0.026680406 -0.049074493
0003b0 ff b1 93 bc c2 3b e2 bc 22 10 56 bd 2b 54 6f bc
       -0.018029211 -0.027616385 -0.05226148 -0.01460747
0003c0 3e 18 23 3d 45 6a 78 bd 83 0c d8 3c b6 98 aa 3c
       0.03981804 -0.06064822 0.026373154 0.020824771
0003d0 a9 d0 26 bc 54 a3 18 3d b6 6c b7 bc 33 d6 51 3d
       -0.010181584 0.037265137 -0.022390705 0.051229667
0003e0 45 c0 5a bd 67 ba 32 bd 3e 68 26 bc 87 86 69 bb
       -0.05340602 -0.0436348 -0.010156689 -0.0035633163
0003f0 87 5c cf bc 0a 28 83 bb f9 93 48 3d f1 92 4f bd
       -0.025312675 -0.0040025758 0.048969243 -0.050677244

7.bias f4 [120]
000000 06 94 71 3d 4f bb 12 3d 4e 7b e4 bc 20 e2 77 3d
       0.058979057 0.035823163 -0.027890828 0.060518384
000010 8a 43 67 bc c9 62 9a bc 05 73 58 3c af 74 f2 bc
       -0.014115224 -0.018845933 0.013211017 -0.029596655
000020 4d f3 75 bc 91 e3 07 3d 8e b2 1f bc 74 73 50 bd
       -0.015011621 0.03317601 -0.009747161 -0.050891355
000030 3c 72 09 3d cd 44 27 bb 19 db 9b 3c 14 ab 05 3d
       0.033556208 -0.0025523186 0.019025372 0.032633856
000040 72 0d ff bb c7 5b e0 3c 06 a4 95 bd 71 72 86 3d
       -0.007783585 0.027387513 -0.073066756 0.06564797
000050 6c 4a 05 3b 3e aa 08 bd a1 6c 12 bd 16 ef 40 3c
       0.0020338548 -0.03336548 -0.035748128 0.0117757525
000060 71 38 c9 bc 1b 76 2a bd 8f 23 8b 3c 9b 36 77 bd
       -0.024563046 -0.04161654 0.01698473 -0.06035481
000070 f6 31 6c bd 7f c0 d7 bc 56 06 1f 3c 69 e0 87 bd
       -0.057664834 -0.026336906 0.0097061 -0.066346
000080 b0 1e 34 3d df 30 8f 3d 77 95 76 bc 03 49 23 3d
       0.04397458 0.06991743 -0.015050284 0.03986455
000090 c7 4b 32 bd d0 73 c4 3c 13 11 c2 bb 90 86 23 3d
       -0.0435293 0.023981005 -0.0059224456 0.03992325
0000a0 cb 0e 84 bd 78 ac 59 bc 81 1f 13 bb 5b ef 72 bc
       -0.06448134 -0.013285749 -0.0022449198 -0.014827575
0000b0 18 88 14 3d df f1 a2 3a 21 13 0a 3c 98 f9 f0 3c
       0.0362626 0.0012431702 0.008427412 0.02941589
0000c0 8d 86 64 3d 2f 08 86 3d 49 61 35 3d bd 13 c2 3c
       0.05579238 0.0654453 0.04428223 0.023691053
0000d0 7e ea 4f bd 42 6f 2c 3c 3c 86 5e bd e6 b3 df 3c
       -0.05076074 0.010524573 -0.054327235 0.027307462
0000e0 10 0f 75 bc cf 01 c9 bc 69 55 78 3c 79 cf b5 3c
       -0.014957204 -0.024536995 0.015157082 0.022193657
0000f0 7e 79 c3 3c 19 64 9d 3b 08 ed 6c bd db 0d 5d bc
       0.023861643 0.0048031923 -0.057843238 -0.013492073
000100 95 f3 a3 bc 00 71 01 3e ff aa 82 bb f6 ea 20 3d
       -0.02001361 0.12640762 -0.0039876695 0.039286576
000110 f3 c5 10 bd 91 02 46 3b 77 60 4c bc 5b fd 65 bd
       -0.03534503 0.0030213932 -0.012474171 -0.05614982
000120 73 49 cc 3c 39 0c f1 3c 12 54 f8 bc 85 1a 64 bc
       0.024937367 0.029424774 -0.030313525 -0.013922338
000130 cc 53 94 3c 25 3f 63 bd 25 da 81 3c 40 2f dc 3d
       0.018106364 -0.05548014 0.01585109 0.107512
000140 80 12 86 bc 69 62 61 b9 8a 0a 1f 3d fb b1 6c bc
       -0.016366243 -0.00021494333 0.03882841 -0.014446731
000150 88 7b 24 3c d7 32 b4 3c 57 f5 0c 3d 63 bd 2e bd
       0.010039218 0.021996899 0.03441366 -0.042661082
000160 8e 9a 7b bc be f8 6f bb c4 17 14 bd 90 3f a4 3d
       -0.015356673 -0.0036616768 -0.036155477 0.08019936
000170 59 05 93 3b 49 fe 0d 3d 9d ec 49 3d eb e4 cb 3c
       0.0044867215 0.034666333 0.049297918 0.02488943
000180 fd 5f 2d ba 74 da e7 3b d0 e9 91 3d 42 a0 82 3c
       -0.00066137296 0.007075602 0.07124674 0.015945558
000190 9f d3 2a 3a 6c 56 46 3d 00 99 24 3d 9f a7 26 3d
       0.00065165194 0.048422262 0.040184975 0.0406872
0001a0 5b 9b 2e 3d 81 68 79 bd cf f1 de 3c 28 2b e9 bc
       0.042628627 -0.06089068 0.027214913 -0.028462961
0001b0 d9 86 60 bd 24 c5 9a 3c b6 45 f3 3c a2 2d 91 bc
       -0.0548161 0.018892832 0.029696327 -0.017721955
0001c0 c2 cb 4c 3c 9e b1 0d 3d d8 8a ea bc 04 c1 b4 bc
       0.0124997515 0.034593217 -0.028630659 -0.022064693
0001d0 5f bb 72 3d 48 d6 89 bd 1d 04 9f 3b 7a 09 34 bd
       0.059260722 -0.06730324 0.0048527853 -0.04395435

9.weight f4 [84, 120]
000000 e2 0b aa bb 7a 27 24 3d 97 08 9f 3d 6d 17 1b 3c
       -0.005189405 0.04007671 0.0776531 0.009466034
000010 25 a7 1b bb 9e fa 92 3d 64 0d 8e bc a9 3a 11 3d
       -0.002375075 0.07176708 -0.01734037 0.035456333
000020 32 0a 77 bc d7 68 ba bd 71 46 39 3d 58 e6 e0 bb
       -0.015078114 -0.09102028 0.045233194 -0.0068633966
000030 e8 ff d1 bd b2 67 f1 3d a9 7d 10 bd 8a b6 31 bd
       -0.10253888 0.117873564 -0.03527609 -0.043386973
000040 0f 6d 89 3d e7 1a b0 3c 99 46 16 3d c2 61 ad 3c
       0.067102544 0.021497203 0.03668842 0.021164779
000050 cd bf 55 bd 92 fa 41 bd 2d e9 66 3d 21 17 00 bd
       -0.05218487 -0.047358103 0.056374718 -0.031272057
000060 35 e9 a3 bd e0 b2 00 3e 3c ba d6 bc 31 5a 7c 3d
       -0.08003465 0.12568235 -0.02621185 0.06160945
000070 7b fb bc bd 24 34 65 bd 59 4f d9 bd 9a 6d 1f 3d
       -0.092276536 -0.05595793 -0.106108375 0.038922884
000080 1d f6 48 bd 18 38 6f 3d 02 0d a3 bd 1e d9 17 3d
       -0.049062837 0.058403105 -0.079614654 0.037072293
000090 89 4e c0 bc c6 12 76 3d 35 ec b9 bc ea 16 4b bd
       -0.023474948 0.060076497 -0.02269564 -0.0495824
0000a0 6f fe 28 3d 1a e1 a9 3d 3e 2f 8c 3b 7e 63 ee 3c
       0.04125827 0.08294888 0.0042780926 0.029100176
0000b0 5c aa 01 bc b3 1b 27 3b 18 06 8d bd 22 d2 29 bd
       -0.007914152 0.0025498688 -0.06885928 -0.041460164
0000c0 30 d9 d8 3d 36 99 f7 3d b4 be 26 bd dc a1 ab 3c
       0.105883 0.120897695 -0.040709212 0.020951204
0000d0 2f 1a a8 3c 82 75 54 3d 91 24 ca bc 58 c0 19 3b
       0.020520298 0.051869877 -0.02467564 0.0023460593
0000e0 f3 90 40 3d 62 f3 b9 bc d6 5f d4 3b a8 0c a6 3d
       0.047013234 -0.022699062 0.006481151 0.08107883
0000f0 1b 8e 9a bc 0a e4 bc 3c b6 35 fc bc 37 74 03 be
       -0.01886659 0.023057956 -0.03078733 -0.12837301
000100 6c 84 75 3c 07 8e fd 3c 10 dd 49 3d 98 5c 9e bb
       0.014985185 0.030951513 0.049283087 -0.0048328154
000110 06 46 f4 3d 37 5b dd 3c 3b 7c c2 3d 13 ad 39 3d
       0.119274184 0.027021034 0.09496351 0.045331072
000120 e6 c5 76 bd 4c 7b d0 3c d6 4f 82 3d 88 84 ad bd
       -0.060247324 0.025449418 0.06362884 -0.08472544
000130 a1 45 b8 bd b3 de be bd ff f6 df 3d ed 25 6a bc
       -0.08997656 -0.0931982 0.10935783 -0.014291269
000140 a8 a4 14 bd c5 7f 41 3d d4 6d 70 bd 43 12 ad 3d
       -0.03628984 0.04724099 -0.05869849 0.08450749
000150 1c ed 62 3d f3 5b e9 3c 45 cd d0 3d b1 a3 30 3d
       0.055401906 0.028486228 0.10195402 0.04312486
000160 91 d6 f2 ba 1a 7e b5 3c 9b bd 22 bc ef 1a 44 3e
       -0.001852708 0.022154856 -0.009932901 0.191509
000170 2d 9d fd 3c d7 66 67 3d 56 a3 f9 3c 8c 3d 99 3d
       0.030958736 0.05649456 0.030473392 0.07482442
000180 13 2c 26 3e 2f f0 42 3c 49 a0 11 3c ba 07 69 3d
       0.1622775 0.011898085 0.008888313 0.056892134
000190 51 f3 87 3d a3 ef 06 be 72 92 87 3c 63 5e 38 3d
       0.06638206 -0.13177352 0.016549323 0.04501189
0001a0 d5 d2 48 bc db ca 97 bd 83 b1 92 3c 79 90 87 bd
       -0.0122572975 -0.074117385 0.01790691 -0.06619353
0001b0 c2 4c f6 bd 96 54 2a 3d 59 c6 ec bd bc 6b 9f 3d
       -0.12026359 0.041584574 -0.11561269 0.077842206
0001c0 67 d3 d8 bc 7d 7d 35 bd 45 c6 f5 3d 2a c1 9f bd
       -0.026467992 -0.044309128 0.120007075 -0.07800515
0001d0 74 0a 28 3d 6c dd 98 3d 6c 8e 16 ba dc c1 af 3c
       0.041025594 0.07464108 -0.00057432684 0.021454744
0001e0 a8 af 35 3d 75 48 b3 3a ab e8 a8 3d 00 8d d7 bc
       0.044356972 0.001367821 0.08247503 -0.026312351
0001f0 e8 5b 2e 3d 72 6a 79 bd c7 d1 87 bd 8d 02 08 bc
       0.042568117 -0.06089253 -0.06631809 -0.008301389
000200 50 bc 5b bd ef fc 6f 3c ee d9 b5 3d b9 93 e7 bc
       -0.053646386 0.014647706 0.088794574 -0.028268682
000210 e3 1b 40 bd a3 b3 0d 3d 6f 97 ab bd e4 19 80 3d
       -0.046901595 0.034595143 -0.08378493 0.06254938
000220 13 e7 af 3d c2 58 76 3d 49 dd 83 3d 4b 00 8b ba
       0.08588996 0.06014324 0.06438691 -0.0010604946
000230 9b c0 3b 3d be 84 5a bc 95 8b 05 3c 41 18 d6 bc
       0.04583798 -0.013337312 0.008150955 -0.026134612
000240 fe 8d 97 bc 86 5c 8e 3d d5 ec 29 3d 0e 7c 4c bd
       -0.018500324 0.06951241 0.041485626 -0.049922995
000250 c6 6d 7a 3d 91 50 84 bc 61 7f 54 3d d7 4e ce bc
       0.061139844 -0.016151698 0.05187929 -0.025184078
000260 3f 32 7f 3d b8 8e 1d bd 92 1c 8d 3c f8 86 87 bd
       0.062303778 -0.038466185 0.017225537 -0.0661754
000270 79 90 b7 3d 52 89 3a bc 0b 48 f3 bb b1 14 e7 bb
       0.08963103 -0.011385279 -0.0074243597 -0.007052027
000280 3a 2d 2c bc 28 84 80 39 d3 a5 65 bc 96 fe 4c bd
       -0.01050883 0.00024512527 -0.014016586 -0.05004748
000290 a8 e6 f5 3c 6f 75 8a bd ac 90 e1 bc 7f 50 77 bd
       0.030017212 -0.0676068 -0.027534805 -0.0603795
0002a0 fc a2 a5 3d 04 31 cb bd 10 ab 0b 3d c4 33 90 bd
       0.080877274 -0.09921458 0.034098685 -0.070411235
0002b0 7b 3f eb bc 4d 55 81 3c 47 8d 14 bd 1b cf 56 bb
       -0.028716793 0.015787745 -0.036267545 -0.0032777253
0002c0 1b c0 68 3d d8 01 a4 3d e3 b4 a9 bd 51 fe 5d 3d
       0.05682383 0.08008164 -0.082864545 0.054197613
0002d0 15 ef 8d bd 89 db 90 3c 4f 36 13 3d fe e8 9c bd
       -0.06930367 0.017682808 0.035940465 -0.07661627
0002e0 64 78 4c 3c a8 a6 79 3c f7 2d da bd 6f a7 3b bd
       0.012479875 0.015237488 -0.10653298 -0.045813974
0002f0 84 b5 df bc 14 68 4f bd 73 19 9e 3d 99 39 6f 3d
       -0.027308233 -0.050636366 0.07719698 0.05840454
000300 f6 99 87 bd 62 8c 0d 3c a2 3e 04 bd df bf a5 3d
       -0.066211626 0.008639427 -0.032286294 0.08093237
000310 81 26 43 3a 3f 6f 8a 3d cd 99 f2 bc 15 5b d7 3b
       0.0007444397 0.067595 -0.029614354 0.006572137
000320 1a ba fb bb 2f 80 90 bd 1d 26 7f 3d f0 af cb bc
       -0.007682097 -0.07055699 0.062292207 -0.024864167
000330 20 2a a5 3d 22 c4 88 3b cf 66 8e 3d 6e 8e 0e 3d
       0.08064675 0.0041737715 0.06953203 0.0348038
000340 4d eb bf 3b fc de 5a bd e9 d4 48 bd 54 4c 45 bc
       0.0058569075 -0.05343531 -0.049031172 -0.012042124
000350 ff 31 03 3c 6c 84 7c bd ee 3b 5c bd 9e 0f 72 3d
       0.0080075255 -0.061649725 -0.05376809 0.059096925
000360 e3 dd 0b bb 8c 46 35 3b 1d d2 e6 bc 8b 37 68 3d
       -0.0021341972 0.0027660457 -0.028176362 0.056693595
000370 bf 48 53 3d ca cc 45 3a 05 d4 47 bd 88 3c 14 3d
       0.051583048 0.00075454696 -0.048786182 0.03619054
000380 f1 80 b9 bd f4 c6 81 bd 44 75 88 3d 53 94 b2 bd
       -0.09057797 -0.063367754 0.06662992 -0.08719697
000390 3e ce f1 ba ec 6c 3d 3c 6e a9 8a 3d 74 dc 80 bd
       -0.0018448306 0.0115616135 0.067705974 -0.06292048
0003a0 d7 01 d2 3d 4b 66 3a bd ab 0e 61 3d 24 c1 a8 bb
       0.10254257 -0.04550771 0.05494563 -0.0051499773
0003b0 77 b3 5f bd 8f 81 36 3d a3 65 54 bd 7e 68 8b 3b
       -0.05461451 0.04455715 -0.05185474 0.0042544
0003c0 dc 26 2b 3d ca 22 7a bd f0 08 91 3d ba 06 4c bd
       0.041785106 -0.061068334 0.07081783 -0.049811102
0003d0 c1 6c 48 bc ae 03 bc 3d 2a 14 e5 bc 7b b5 28 3d
       -0.01223296 0.09180389 -0.027963717 0.0411887
0003e0 83 fb 9f 3c ac 8f 1a 3d 6c 06 0b bd cd a7 cb 3c
       0.01952911 0.037734672 -0.03394167 0.024860287
0003f0 2b 70 70 3d 8b 53 4b 3c 2e 27 b6 3c c6 30 9f 3d
       0.05870072 0.012410055 0.02223548 0.07772975

9.bias f4 [84]
000000 92 14 8b 3d 12 a8 91 bd 29 e2 cc bd 8b 5d 83 3b
       0.06791033 -0.07112135 -0.10004074 0.004008954
000010 04 62 56 3b 93 03 ad 3d af fb 38 bd 9b 07 8b 3d
       0.003271223 0.08447947 -0.0451619 0.0678856
000020 7c 54 83 3c 25 c6 63 3d ef 33 c7 3d db 46 6c 3c
       0.016031496 0.055608887 0.097267024 0.01442119
000030 42 12 61 3d 28 31 09 3d d6 bd 32 3d 76 91 a5 bc
       0.054949053 0.033494145 0.043638073 -0.020210963
000040 e4 9f 50 bd b2 28 b5 3c 52 74 ca 3d 89 ca 88 3d
       -0.050933734 0.022114132 0.098854676 0.066792555
000050 42 3c 15 bd 1d 7f 63 3d 62 8f 01 3c 0e c2 be 3d
       -0.03643442 0.055541147 0.00790772 0.09314357
000060 b9 ed 8d bd de 5c 5d bc 0f 47 e8 3d ad 8a b8 3d
       -0.069301076 -0.013510911 0.11341678 0.09010825
000070 08 69 75 bd b7 67 e7 3c 04 4a 17 3d 3c ef 3b 3d
       -0.05991462 0.028247697 0.03693582 0.04588245
000080 73 12 cf 3d fb d3 51 bd b6 5f 9f 3d 98 06 7c bc
       0.10110941 -0.05122755 0.07781927 -0.015382431
000090 c4 cb 40 bd 55 d4 b9 3d 08 65 c3 bc a9 f8 52 3c
       -0.047069326 0.09073702 -0.023851886 0.012876668
0000a0 56 cc d2 3d 02 2a 3a 3d cd b7 95 3d d4 90 84 bd
       0.1029288 0.045450218 0.07310448 -0.06472936
0000b0 d5 d3 27 3b 93 b3 05 3e 9e 5d 48 3c d6 6d e1 3d
       0.002560844 0.13056783 0.012229351 0.11007278
0000c0 f5 5a 05 3e 8f fd f9 3d 15 18 95 bd e7 3e cb bd
       0.13022979 0.122065656 -0.07279984 -0.09924107
0000d0 1c 2f 77 bd 90 c5 3f 3d d3 62 cd 3c cd e6 9f 3d
       -0.06034766 0.04681927 0.025071537 0.07807694
0000e0 8f 39 91 bc 5f 5f ae bb 86 ae c6 3d ec be 7e bd
       -0.017727641 -0.0053214277 0.097012565 -0.062193796
0000f0 ac d8 8e bd ce 4e f9 bc 45 a9 f6 3c 82 3e 49 3d
       -0.06974921 -0.030433085 0.03011001 0.049131878
000100 f5 6e 01 3e dc 76 14 b8 85 51 2c bc 57 0e 18 3d
       0.12639983 -3.5396646e-05 -0.010517483 0.03712305
000110 51 10 75 3b 86 83 cd bd e7 73 6f 3d 9a 2f b5 3d
       0.0037393759 -0.10034852 0.058460142 0.0884697
000120 0d 80 15 3d bd a8 43 3d 83 27 cb bd bc ff 77 bd
       0.036499072 0.047768343 -0.09919646 -0.06054662
000130 79 3e 9c bd eb e4 d8 3d 1f 7f a7 3c e7 c2 ef 3d
       -0.07629103 0.10590538 0.020446358 0.117070965
000140 b5 f3 90 bd 74 44 9d bc c7 f3 4b bd 32 05 96 bd
       -0.070777334 -0.01919768 -0.04979303 -0.0732521

11.weight f4 [10, 84]
000000 97 7d c5 bd c3 8d 9e 3d d7 91 bd bd 90 aa 8d bc
       -0.09643095 0.07741883 -0.09256332 -0.017293245
000010 1d 44 b5 3d 8d f3 38 3d 21 99 d0 bd cc c6 43 bd
       0.08850882 0.045154143 -0.10185457 -0.04779701
000020 a9 c2 5c be 3e 7c 97 3d 32 2c 94 be 28 ab c0 3d
       -0.21558632 0.07396744 -0.28939968 0.094076455
000030 2d 04 4e bb d0 88 0c 3e 2b 0e d9 bd cb 43 1b 3e
       -0.0031435594 0.13724065 -0.105984055 0.1516258
000040 e7 77 e2 bc d5 b0 8e 3c 9a e7 eb bd cf ae ad bd
       -0.027645065 0.017418304 -0.11518784 -0.08480608
000050 c8 e7 e2 bd 64 ae 43 bd a8 bc dd bd c4 76 01 3d
       -0.11079365 -0.047773734 -0.10826999 0.031607404
000060 6c 5a ca bd bb c4 5c 3e 79 2b 4a be 55 26 46 3d
       -0.09880528 0.21559422 -0.19743146 0.0483764
000070 4e 30 8f ba 14 3d 05 3d 91 db 8a bd e9 7a 52 be
       -0.001092443 0.03252895 -0.0678016 -0.20554699
000080 c3 6e 57 3e ae 85 70 3d 75 11 b8 bd 43 85 1d 3c
       0.21038346 0.058721237 -0.08987705 0.009614292
000090 00 62 3e 3c d2 8e 55 be 44 62 0f 3d c5 ed 39 bd
       0.011620045 -0.20855263 0.035005823 -0.04539277
0000a0 2a 0b 83 3d ab 63 0b bd 53 81 9c bd 13 ab ec 3c
       0.06398614 -0.034030598 -0.07641854 0.028890168
0000b0 a5 fc d4 3d 90 be 24 be b4 02 3e bb 3a d9 d7 bd
       0.103997506 -0.16088319 -0.002899331 -0.105394796
0000c0 26 10 2e bd d1 51 a0 3d 61 eb c7 bd 8d 55 0a 3e
       -0.04249587 0.07828105 -0.09761692 0.13509198
0000d0 c5 15 9e 3c b7 66 b4 3e d4 7b 9f bd a9 37 38 bc
       0.01929749 0.35234615 -0.0778729 -0.011243739
0000e0 62 09 04 3e 41 b1 31 3d 87 77 8a be 33 7b 27 bd
       0.12894204 0.043381933 -0.27044317 -0.040888976
0000f0 13 8d fa bd f8 aa 38 bd 74 93 7a bd d4 6c 99 be
       -0.12233939 -0.045084924 -0.06117578 -0.29965842
000100 d1 d6 8c be e1 25 cb bc fa 20 e6 bd 9e 6c f1 bd
       -0.27507642 -0.024798336 -0.112367585 -0.11788295
000110 36 e6 5b 3d 2b 22 59 3d 88 58 1e be 05 68 c1 3d
       0.053686343 0.0530111 -0.1546346 0.09443668
000120 bd 25 98 3e 40 5d ce bd 48 e4 50 3d d4 60 d8 3d
       0.29716292 -0.1007638 0.050998956 0.105653435
000130 75 06 bf 3d 85 01 99 3e b4 6d 35 bd 09 f6 df bd
       0.093274035 0.29883972 -0.044294074 -0.10935599
000140 cf b2 03 3e e4 2e 2c bd bb b4 4a bd 5e 86 2c 3e
       0.12861179 -0.042036906 -0.049488764 0.16848132
000150 34 93 5e bc 06 4b d7 bd d1 99 b0 3d 4a f0 9f be
       -0.013584901 -0.105123565 0.08623088 -0.31238014
000160 57 0b 95 3d bf 2d aa 3d df 99 db 3d e8 3c 80 3b
       0.072775535 0.083095066 0.10722708 0.0039135106
000170 2c 60 3a 3e f0 56 f2 bc 3a 5a 9d bd 8b d9 b7 3d
       0.18200749 -0.02958247 -0.07683225 0.0897704
000180 d3 f8 f7 bd df 21 1f be 49 ae 2f 3d 5e 10 b9 bd
       -0.12108006 -0.15540265 0.04289082 -0.09036325
000190 0a 19 ad bc 54 68 d4 bd 02 3e 9c 3d 29 50 e1 3d
       -0.021130104 -0.103714615 0.076290146 0.110016175
0001a0 77 c9 fe 3d 54 14 e5 3d 85 0d 28 3c 15 79 6e 3e
       0.1244077 0.11185518 0.01025713 0.23288377
0001b0 b1 4f a9 bd 15 6a 89 3e db 36 d4 3d 49 a9 8f be
       -0.08267153 0.26838747 0.10362025 -0.28058842
0001c0 ba 37 1c 3d b0 06 5c 3e 88 72 8b 3d 0b 8c d9 bd
       0.038139082 0.21486926 0.068089545 -0.10622414
0001d0 99 66 c1 bd 56 ba 5c 3d a5 f4 03 be 7d ea c2 ba
       -0.09443397 0.05388864 -0.12886293 -0.0014870908
0001e0 43 13 99 bb ed 64 88 bd 23 79 3f 3d b4 ad d2 3d
       -0.0046714856 -0.06659875 0.046746384 0.102870375
0001f0 e7 b1 e6 3d 43 d2 0c 3e 87 ee 82 3e 1a df 2a 3d
       0.11264401 0.13752083 0.25572607 0.041716672
000200 db 61 ce 3c 5f 64 d6 3d 37 44 19 3e 75 c3 36 bd
       0.025193145 0.10468363 0.14967428 -0.044619996
000210 02 16 5e be 3e 0c 3b be 3c 11 92 3d 7a b6 41 3e
       -0.21688083 -0.18266389 0.071321934 0.18917266
000220 3e 99 af 3d 63 b1 e7 bc f2 bd 7b bd 3c 3c e7 ba
       0.085741505 -0.028282827 -0.061460443 -0.0017641853
000230 69 95 a9 3d 1f 62 4b be 74 1d 18 3e ed 57 95 3d
       0.08280451 -0.19861649 0.14854985 0.07292161
000240 b4 e5 2b 3e 22 eb bb bd 92 59 11 3e aa c8 4f 3d
       0.16786844 -0.091757074 0.14194325 0.050728478
000250 89 fc 66 3e 62 30 01 be d5 c1 e1 3d f9 55 f1 bd
       0.22557272 -0.12616113 0.11023299 -0.11783976
000260 87 8c 7f bd 23 a6 57 3c 2c c2 de 3e 77 f8 7e be
       -0.062389877 0.013162169 0.43507516 -0.2489947
000270 fc 2a 3e be ec f8 12 3e e8 42 de 3b 2f 65 3c bc
       -0.18571085 0.14352769 0.006782878 -0.011498733
000280 cc 05 bc 3c d0 7c a6 bd 92 8e 67 bd ed 00 18 be
       0.022951983 -0.08129275 -0.05653245 -0.14844103
000290 1e 92 ee 3c 95 55 a1 3d c3 0e da 3a 23 cc 05 be
       0.029122408 0.078776516 0.0016636479 -0.13066153
0002a0 e3 27 77 3c df 84 86 bd bc 75 3b bc 02 e2 8d 3e
       0.015085193 -0.06568312 -0.011441644 0.27711493
0002b0 01 88 19 bc c3 b7 9a 3d 38 7b b0 bd a7 30 98 3d
       -0.009370805 0.07554581 -0.08617252 0.07431155
0002c0 86 1f 0a 3d e4 ee c7 3d 52 84 48 be df 54 39 bd
       0.03372147 0.09762362 -0.19581726 -0.045246955
0002d0 4b a8 33 be 2e 46 85 3e e4 d8 7a 3e 75 ac 97 bc
       -0.17544667 0.26030105 0.244968 -0.018514851
0002e0 bc 07 1c be 68 fc f9 3d 0b 36 5e be 20 e8 5b bd
       -0.15237325 0.12206346 -0.21700303 -0.05368817
0002f0 70 99 e6 bd 0b 0c 19 bd 27 09 ae bd 50 c3 43 bd
       -0.11259735 -0.037365 -0.084978394 -0.047793686
000300 6f 6d 38 3e 03 82 eb 3c ad 0e 80 3e f1 60 d9 bd
       0.18010496 0.028748518 0.25011197 -0.10614193
000310 07 29 d9 bb a9 6f c9 bd 96 3d cf 3d 83 ac fb bd
       -0.0066272053 -0.098357506 0.101191685 -0.122887634
000320 63 02 04 3d 4c ea c8 3d 53 9f 74 3e 45 5f a9 bb
       0.03222884 0.098103136 0.23888902 -0.0051688277
000330 88 81 69 3d 5d f2 00 3e 96 0e 9c 3d dc 21 c0 bc
       0.057008296 0.12592454 0.076199695 -0.023453645
000340 0e e2 0f be 9d 80 af bc 4f 90 63 be 77 ca a4 bd
       -0.14051077 -0.021423632 -0.22223018 -0.080464296
000350 46 30 2e be 4e ea 94 bd cf a0 4d 3e 9e 92 ad bd
       -0.17010602 -0.072712526 0.20080875 -0.08475231
000360 08 eb 28 3d 4a 54 45 3d 82 b4 c8 3c 28 b1 0b 3d
       0.04123977 0.048176087 0.024500135 0.034104496
000370 06 9e 75 3d eb c0 50 3e b2 cf 11 be 85 67 9a 3d
       0.059965156 0.20386092 -0.14239386 0.07539276
000380 dd 5f b2 bb 35 9e 71 be 2c 32 c6 bd e8 c1 af 3d
       -0.0054435567 -0.23595507 -0.09677538 0.085819066
000390 d5 c3 3b 3d 9f 33 e7 bc fb d2 2d 3e 1a 0c bc bc
       0.045841057 -0.028222857 0.16975014 -0.02295499
0003a0 c8 8c df bc f2 77 d6 3e e5 c2 dd b9 11 a6 fe bd
       -0.02728881 0.41888386 -0.00042297613 -0.124340184
0003b0 cf 3c e6 3d d9 b0 a6 bd d1 4e dc 3e c3 a6 0d be
       0.11242067 -0.081392 0.43028882 -0.13833146
0003c0 a4 a2 dc bb 51 49 b5 bd 52 19 d7 bc c5 19 17 3e
       -0.0067332555 -0.088518746 -0.02625719 0.14755924
0003d0 bd 2e 9f bc 86 00 87 bd 99 e9 3e bd 3e c5 1a 3e
       -0.019431466 -0.06591897 -0.046609495 0.15114304
0003e0 21 84 aa bd c6 af 93 3b 56 0f 5e bd 7b a3 1d 3e
       -0.08325983 0.004507038 -0.054213844 0.15394394
0003f0 04 ce a8 3e ab 61 18 3d 0d 36 53 3d 4c 84 fb bd
       0.32969677 0.03720252 0.05156522 -0.12281093

11.bias f4 [10]
000000 3b ac 0b bc 38 6a 99 bd 8c f0 fe ba 2d 00 c7 3d
       -0.00852495 -0.07490963 -0.0019450351 0.097168304
000010 cf 78 b4 bd 6a f3 9e 3b 09 5c d2 bd b3 26 55 3c
       -0.08812105 0.0048507946 -0.102714606 0.013009715
000020 49 bd 90 bd 06 30 49 3d
       -0.07067353 0.049118064

momentum_buffer f4 [6, 1, 5, 5]
000000 64 91 bc 3c ab 22 00 3d f3 d4 f7 3c 16 0f b6 3c
       0.023018546 0.031283062 0.03025291 0.02222399
000010 ff 35 39 3c 09 4e f2 3c 78 36 e6 3c 70 93 a9 3c
       0.011304378 0.029578226 0.028102145 0.020700186
000020 a6 05 43 3c 24 f0 c1 3b 39 45 01 3d 8e 20 a4 3c
       0.011903202 0.0059185196 0.031560156 0.020035055
000030 52 39 07 3c 8a e6 85 3b 38 65 b9 3b e7 36 fb 3c
       0.008253412 0.0040863203 0.005657818 0.030665828
000040 8e a8 75 3c a0 1b 2c 3a 40 fe 3d ba 26 fd ac 3b
       0.0149938 0.0006565396 -0.0007247664 0.005279201
000050 45 d5 d7 3c 6c 5d 16 3c 70 65 3d ba 58 17 65 3a
       0.026346812 0.009177547 -0.0007224893 0.0008739135
000060 e2 94 0e 3c 9a 76 90 bb 3e 6e 3d 3b 12 6b 06 bc
       0.008702489 -0.0044086697 0.002890482 -0.0082042385
000070 7c 29 e1 bc 69 30 3b bd 6b 98 21 bc 68 38 3c bb
       -0.027485602 -0.045700464 -0.009862999 -0.0028720144
000080 43 84 57 bc a6 50 03 bd f1 0d 4e bd 70 3b bd bc
       -0.013154092 -0.032059334 -0.050306264 -0.023099631
000090 c9 24 a9 bc 56 ba cd bc c0 7c 0f bd e4 da 3f bd
       -0.020647423 -0.025113266 -0.03503108 -0.04683961
0000a0 88 60 0b bd c4 4e 0f bd e1 7b 1a bd fe 46 2f bd
       -0.034027606 -0.034987226 -0.037715796 -0.042792313
0000b0 c9 ad 14 bd 42 f5 21 bd 2e 9a 3a bd 9a c6 4c bd
       -0.036298547 -0.039540537 -0.045557193 -0.04999409
0000c0 3b c8 4f bd 00 2a ca bc 32 f9 40 3d 16 6c 67 3d
       -0.050728064 -0.02467823 0.04711265 0.056499563
0000d0 65 c7 5f 3d 76 67 3a 3d 32 be fb 3c 58 6c 53 3d
       0.054633517 0.045508824 0.03073034 0.051616997
0000e0 45 cc 55 3d d4 33 23 3d 04 e2 af 3c ee 8e 4e 3c
       0.05219676 0.03984435 0.021470077 0.012607319
0000f0 cc c0 36 3d 46 1b 1e 3d d2 e6 98 3c c0 ae 20 b9
       0.04461746 0.03860023 0.018664751 -0.00015323889
000100 e0 d3 9f bb 8d ff 17 3d a5 26 ef 3c 6a eb 25 3c
       -0.0048775524 0.037108947 0.029193232 0.010126928
000110 ee 8c 86 bb 46 6d af bb 9b 73 dc 3c 4a 81 bf 3c
       -0.0041061556 -0.0053536026 0.026910594 0.02337708
000120 2d c0 6f 3c 50 fe c3 3b 5d 31 93 3b 72 35 a6 3b
       0.014633221 0.005981244 0.0044919685 0.005072289
000130 72 ec 31 3a 88 69 22 bb ac 34 bb bb 58 df a9 bb
       0.0006787247 -0.002478214 -0.005713066 -0.0051840954
000140 e4 fe 1d 3c 02 1a 08 3c c6 b7 e1 3b 68 af 75 3a
       0.00964329 0.008306982 0.0068883626 0.0009372146
000150 a8 c5 35 bb 78 53 96 3c 8e 1c 97 3c d9 60 92 3c
       -0.002773622 0.018350348 0.018446233 0.017868446
000160 ec b2 4a 3c 88 c9 f2 3b 6c 79 df 3c 10 f0 d4 3c
       0.01237176 0.0074092783 0.027279578 0.025993377
000170 70 4e db 3c 54 8f c9 3c 62 b9 9e 3c d7 98 0e 3d
       0.0267708 0.024604477 0.019375507 0.03481373
000180 a6 2a 06 3d dc 48 01 3d 3a 87 ff 3c 2f 78 06 3d
       0.032755516 0.031563625 0.03119241 0.03282946
000190 e0 99 39 bc d2 55 5b bc 1b 2f 35 bc 6f 94 02 bc
       -0.011328191 -0.01338716 -0.011058594 -0.00796996
0001a0 b3 45 b1 bb 96 fd 3f bc c2 e1 49 bc de 77 15 bc
       -0.00540992 -0.011718174 -0.012321891 -0.009122817
0001b0 20 c5 d7 bb 76 bd c1 bb ff 65 01 bc 42 aa ae bb
       -0.0065847784 -0.005912478 -0.007897853 -0.005330355
0001c0 9c 33 39 bb 3f 05 1f bb d4 07 57 bb 24 7f 25 bb
       -0.0028259521 -0.0024264602 -0.0032811062 -0.0025252784
0001d0 20 d5 d3 3a ea ca 5a 3b 7e d6 f6 3a c8 60 89 39
       0.0016161539 0.0033385106 0.0018832234 0.00026202784
0001e0 e0 28 f3 b9 7b 7e 99 3b 77 3a a2 3b 2a 10 49 3b
       -0.00046379026 0.004684267 0.004950817 0.00306798
0001f0 cc e8 3a 3b eb 68 9f 3b 70 e6 b8 3b af 2e bf 3b
       0.0028520105 0.004864802 0.0056427047 0.0058344225
000200 6e 1e d7 3b e0 7e dd 3b ab 86 d7 3b 3d 69 e5 3b
       0.006564907 0.0067595094 0.006577333 0.007001071
000210 c8 76 e1 3b bd df db 3b 2e 21 e9 3b 7a f6 0b 3c
       0.006880615 0.0067100213 0.007114551 0.008542651
000220 dd 04 05 3c 40 d8 f2 3b eb f3 d2 3b 0e 99 c9 3b
       0.008118835 0.007411033 0.0064377687 0.0061522787
000230 9b 18 0f 3c 92 48 08 3c 0d d1 f7 3b 3c de da 3b
       0.008733894 0.008318083 0.0075627626 0.0066793244
000240 00 75 b6 3b 08 f9 16 3c 39 c7 11 3c c6 8e fc 3b
       0.0055681467 0.009214647 0.008897596 0.0077074496
000250 ed 9b c1 3b b3 33 a6 3b
       0.0059084804 0.005072081

momentum_buffer f4 [6]
000000 10 92 4d 3a 40 84 94 ba 10 58 9f 3b 73 54 6d 3c
       0.00078418944 -0.0011330917 0.004862793 0.014485466
000010 e0 8c be 3a 9a ec 97 bc
       0.0014537834 -0.018545438
