best_model/mnist/best_model.pt (torch, 361193 bytes, 20 tensors)

0.weight f4 [6, 1, 5, 5]
-0.10576532 -0.09465492 -0.21404779 0.26715317 0.26456153 -0.22036974 0.084146984 -0.0041842167
0.39131698 0.38819298 -0.009449929 -0.020273646 0.2554452 0.18015109 0.32259685 0.18851113
0.078869134 -0.0767688 -0.04835979 -0.15509093 0.039263528 -0.053399425 -0.15050341 -0.03290801
-0.2355406 0.171787 0.15371898 0.08594282 -0.15320496 0.115019396 0.006393438 -0.07516629
-0.20293134 -0.10418388 -0.06479458 -0.09518483 -0.1338493 -0.014415684 0.026626725 -0.0473127
-0.15493684 0.10771603 -0.13285795 -0.046273127 -0.18594556 -0.17187786 0.071005285 -0.08336773
-0.08072824 -0.05001967 -0.4497354 0.19309257 0.41777167 0.05931907 -0.18884553 -0.13706811
0.33290023 0.5515992 0.30444744 -0.472784 0.2046189 0.6975391 0.78080577 0.036379144
-0.51444745 0.41437134 0.78269756 0.63823533 -0.011084271 -0.35028663 0.063777104 0.1335394
0.08673365 -0.19389798 -0.13471706 -0.3334068 -0.31827012 -0.24768335 -0.34023634 0.044498265
-0.08139054 -0.29798993 -0.10420546 -0.2462328 -0.23305027 -0.22048156 0.055008367 -0.03082062
-0.1359695 0.2101129 0.16258794 -0.009469282 0.11751884 0.01382077 0.34863773 0.18645668
0.28176814 0.1995915 0.18243276 0.19519483 0.13788933 -0.15857148 0.12745741 -0.10206111
-0.4168033 0.12254001 0.043034207 0.2505999 -0.3924093 -0.6137561 0.3087974 0.56051123
0.50418305 -0.14047736 -0.54632086 0.32241723 0.24815205 0.23122695 0.2428551 -0.22233647
0.011469609 0.320977 0.4027635 0.16549964 0.06003557 -0.27181956 -0.27588734 -0.07911864
-0.09143032 -0.34636164 -0.037861295 0.3433631 0.39582372 0.279806 0.0043320195 0.22725141
0.77551246 0.73467225 0.7003156 0.2815104 0.40552634 0.6381502 0.37551126 0.2720542
-0.019226318 -0.28377202 -0.23024866 -0.016382907 -0.009711847 0.040505875
00000000: 7d9b d8bd 70da c1bd 582f 5bbe 4dc8 883e
00000010: 9c74 873e 9ba8 61be 4155 ac3d c11b 89bb
00000020: b35a c83e 3bc1 c63e e0d3 1abc eb14 a6bc
00000030: b7c9 823e 8779 383e 6a2b a53e 1009 413e
00000040: 2486 a13d f638 9dbd ea14 46bd 28d0 1ebe
00000050: cbd2 203d 5bb9 5abd 911d 1abe 8dca 06bd
00000060: 8e31 71be eee8 2f3e 8268 1d3e ca02 b03d
00000070: c3e1 1cbe 4a8f eb3d 0c80 d13b c9f0 99bd
00000080: 3ccd 4fbe 5c5e d5bd 05b3 84bd 44f0 c2bd
00000090: ca0f 09be c32f 6cbc 4a20 da3c f6ca 41bd
000000a0: c3a7 1ebe 399a dc3d ea0b 08be e488 3dbd
000000b0: 8368 3ebe c000 30be 386b 913d b3bc aabd
000000c0: d954 a5bd 6de1 4cbd b843 e6be 0fba 453e
000000d0: 2be6 d53e 8ef8 723d b960 41be 955b 0cbe
000000e0: e671 aa3e 9b35 0d3f 89e0 9b3e bf10 f2be
000000f0: 9e87 513e ec91 323f e3e2 473f 4c02 153d
00000100: d4b2 03bf 7b28 d43e de5e 483f 6463 233f
00000110: cd9a 35bc c558 b3be 929d 823d 8dbe 083e
00000120: 69a1 b13d 318d 46be 45f3 09be 4cb4 aabe
00000130: 4df4 a2be b4a0 7dbe 7533 aebe d043 363d
00000140: 15b0 a6bd 2392 98be ac69 d5bd 7324 7cbe
00000150: bba4 6ebe ebc5 61be 7450 613d 867b fcbc
00000160: 973b 0bbe d627 573e 747d 263e 0c25 1bbc
00000170: b8ad f03d 8370 623c a580 b23e 80ee 3e3e
00000180: ea43 903e b761 4c3e a7cf 3a3e 27e1 473e
00000190: dc32 0d3e 9060 22be 3284 023e 6a05 d1bd
000001a0: 3e67 d5be 42f6 fa3d a344 303d a14e 803e
000001b0: dfe9 c8be 1f1f 1dbf b11a 9e3e aa7d 0f3f
000001c0: 2412 013f 4cd9 0fbe afdb 0bbf df13 a53e
000001d0: 921b 7e3e c2c6 6c3e 02af 783e 2cac 63be
000001e0: 07eb 3b3c 1957 a43e 0437 ce3e bd78 293e
000001f0: dce7 753d ef2b 8bbe 1b41 8dbe f408 a2bd
00000200: d23f bbbd 5056 b1be 7214 1bbd 4acd af3e
00000210: 68a9 ca3e bb42 8f3e 9df3 8d3b 98b4 683e
00000220: fc87 463f 7b13 3c3f e247 333f 2222 903e
00000230: 26a1 cf3e d05d 233f 0343 c03e b04a 8b3e
00000240: 8380 9dbc 914a 91be 4ec6 6bbe 7235 86bc
00000250: 701e 1fbc 7de9 253d

0.bias f4 [6]
0.17343815 -0.090469904 0.23697416 0.26541707 0.49942976 0.7228661
00000000: c599 313e 4948 b9bd 5ba9 723e bfe4 873e
00000010: 42b5 ff3e c10d 393f

3.weight f4 [16, 6, 5, 5]
-0.018404612 -0.04920592 -0.1130239 -0.0067028953 0.031187749 -0.117192544 -0.0058773 0.039905813
-0.012705248 0.032357905 -0.18206608 0.068432495 0.12865606 -0.007219193 0.035979412 -0.05573442
0.10369851 -0.017014526 -0.009483937 0.0040759374 0.048483733 0.096477866 -0.11407562 -0.085036464
0.004058742 -0.042877197 -0.04497421 -0.057967976 -0.01688446 -0.08968275 0.03079865 -0.081529185
-5.4502092e-05 0.043367065 -0.041068505 0.015570638 -0.075694166 0.022968745 -0.063379586 -0.037727516
0.06752689 -0.060478546 0.021268485 0.024450786 0.048238594 -0.021852622 -0.0054289447 0.039235044
-0.013567278 0.00583506 -0.05393974 -0.26803938 0.08177827 0.16948849 -0.069161944 -0.094948605
-0.24246325 0.3294603 0.33859175 -0.13551049 -0.23645319 -0.10224064 0.5752401 0.12247854
-0.28768963 -0.23604041 0.19128789 0.4162703 -0.19014463 -0.025580358 -0.07887667 0.15776414
0.12681094 -0.028894527 0.03670366 0.019128479 0.037395 -0.056296743 -0.06541769 0.025708316
-0.002537355 0.058342513 -0.11169528 -0.030557066 -0.08701585 0.015045497 -0.06670376 -0.20688611
-0.094558366 -0.0076172436 -0.047797088 0.013249814 -0.1088831 -0.11669375 -0.033033576 -0.084969506
-0.021445666 -0.12592033 -0.0952879 0.0030622168 -0.092817105 -0.16057731 0.11900733 0.17571567
0.0116302455 -0.13829619 -0.28952286 0.09829889 0.13248587 -0.0673818 -0.13890372 -0.24471888
0.124660715 0.10189002 -0.074826546 -0.1510187 0.08275626 0.2945546 -0.06374806 -0.06602521
0.06492881 0.19907062 0.06204378 -0.03374862 0.06253546 -0.19569118 -0.15988125 0.044601902
0.07488023 -0.06944748 -0.12925586 -0.2760585 0.09882234 0.17893738 -0.13140737 -0.21813473
-0.0853383 0.36451215 0.009027599 -0.27012715 -0.19750679 0.011633981 0.17670588 -0.15784505
-0.14191772 -0.10546181 -0.17809169 0.0073462795 -0.058239304 -0.020767303 -0.08641915 -0.027548818
0.05231744 -0.058550864 -0.12185787 0.039806332 0.120972455 0.12395824 0.223526 0.02286454
0.083851874 0.13994795 0.10084371 0.070171714 -0.117225 0.0029106115 0.039604727 -0.06033853
-0.06804907 -0.09243803 -0.0650148 -0.080196194 -0.06200482 -0.071164414 -0.0495795 -0.013770972
0.06407178 -0.10269609 -0.089627676 -0.06636654 0.03624822 -0.05828524 -0.09979676 0.07204009
0.07653665 0.05951176 0.02171534 0.041823022 0.052915122 -0.016876336 -0.037698112 0.013424383
-0.017106313 0.016969504 -0.025089163 0.024727609 0.07198414 0.08396769 0.029345796 -0.05449465
0.022828279 -0.08817385 -0.031090777 0.065571606 0.14650588 -0.13234374 0.020176537 0.13925526
0.33429748 0.19861063 0.052290983 0.2663478 0.19749333 -0.11306982 -0.19963473 -0.06421617
-0.045522396 -0.16012032 -0.36021185 -0.28745264 -0.018770874 -0.18601124 -0.051776428 -0.08053706
-0.05584771 -0.07526435 0.012357306 -0.020639304 0.020898238 -0.0073284116 0.02998422 0.044465948
0.15863635 0.013975672 0.057748288 0.14091776 0.049110204 0.04341156 -0.062096655 0.006226722
-0.0834688 0.0076910974 0.052269295 -0.016945042 0.034059163 0.06483325 -0.015471941 0.07745362
0.021262279 0.006240349 -0.018734176 -0.13979585 0.11507401 0.23199184 0.211858 0.010186225
00000000: 45c5 96bc 268c 49bd 1379 e7bd f6a3 dbbb
00000010: 737d ff3c a502 f0bd 5e96 c0bb 4774 233d
00000020: ac29 50bc b989 043d 886f 3abe 5626 8c3d
00000030: 6abe 033e fb8e ecbb 265f 133d c649 64bd
00000040: e25f d43d 0c62 8bbc 8462 1bbc 718f 853b
00000050: e196 463d 3096 c53d 7ba0 e9bd 9927 aebd
00000060: 32ff 843b 00a0 2fbd e136 38bd d46f 6dbd
00000070: 4751 8abc 97ab b7bd 734d fc3c c6f8 a6bd
00000080: 2d99 64b8 aaa1 313d 7337 28bd fd1b 7f3c
00000090: 8b05 9bbd f328 bc3c 28cd 81bd 2b88 1abd
000000a0: 8a4b 8a3d 5ab8 77bd 3f3b ae3c 044d c83c
000000b0: d595 453d 4504 b3bc 4ae5 b1bb edb4 203d
000000c0: 4a49 5ebc 0834 bf3b ebef 5cbd 753c 89be
000000d0: 5e7b a73d 648e 2d3e c7a4 8dbd 6a74 c2bd
000000e0: 4948 78be 05af a83e e65b ad3e 43c3 0abe
000000f0: c920 72be 8a63 d1bd ef42 133f 07d6 fa3d
00000100: 0e4c 93be 94b4 71be f9e0 433e 6121 d53e
00000110: 46b5 42be e68d d1bc 178a a1bd ec8c 213e
00000120: bada 013e 37b4 ecbc 9456 163d 54b3 9c3c
00000130: 802b 193d 6a97 66bd b6f9 85bd 3f9a d23c
00000140: c149 26bb 8ff8 6e3d 7fc0 e4bd d052 fabc
00000150: 5e35 b2bd 6381 763c fb9b 88bd f4d9 53be
00000160: d1a7 c1bd 129a f9bb e1c6 43bd bf15 593c
00000170: 1afe debd 22fd eebd 374e 07bd 7e04 aebd
00000180: d2ae afbc 42f1 00be 4d26 c3bd 79af 483b
00000190: e516 bebd 616e 24be 1dba f33d cfee 333e
000001a0: c98c 3e3c 849d 0dbe 573c 94be ee50 c93d
000001b0: 60aa 073e 78ff 89bd c73c 0ebe 9697 7abe
000001c0: 1e4e ff3d b7ab d03d a93e 99bd a5a4 1abe
000001d0: 1d7c a93d dccf 963e 588e 82bd 3a38 87bd
000001e0: 65f9 843d 2bd9 4b3e 9e21 7e3d fe3b 0abd
000001f0: 9712 803d 4563 48be e9b7 23be 7cb0 363d
00000200: ce5a 993d 7b3a 8ebd a65b 04be 8a57 8dbe
00000210: 5e63 ca3d 5c3b 373e a78f 06be b65e 5fbe
00000220: d9c5 aebd 56a1 ba3e 7fe8 133c 1b4e 8abe
00000230: 383f 4abe 749c 3e3c 63f2 343e 22a2 21be
00000240: e152 11be 5dfc d7bd ab5d 36be 0fb9 f03b
00000250: 568c 6ebd 3120 aabc 86fc b0bd 0fae e1bc
00000260: d04a 563d 08d3 6fbd 9e90 f9bd f70b 233d
00000270: 68c0 f73d d1dd fd3d 00e4 643e 6a4e bb3c
00000280: 88ba ab3d 844e 0f3e 2687 ce3d 30b6 8f3d
00000290: a913 f0bd f5bf 3e3b 9138 223d 8925 77bd
000002a0: 505d 8bbd 2650 bdbd 7b26 85bd e73d a4bd
000002b0: c4f8 7dbd a6be 91bd e013 4bbd a59f 61bc
000002c0: 1138 833d 5452 d2bd b78e b7bd 2eeb 87bd
000002d0: 0379 143d 81bc 6ebd 3e62 ccbd c189 933d
000002e0: 3fbf 9c3d 9ac2 733d 5ee4 b13c 9e4e 2b3d
000002f0: 87bd 583d 3e40 8abc 5669 1abd f1f1 5b3c
00000300: 8a22 8cbc a103 8b3c ca87 cdbc 8e91 ca3c
00000310: 6c6c 933d 41f7 ab3d 9866 f03c c835 5fbd
00000320: 5f02 bb3c 7e94 b4bd 16b2 febc 684a 863d
00000330: a305 163e 1e85 07be 4449 a53c ee98 0e3e
00000340: 0a29 ab3e 9660 4b3e 122f 563d bd5e 883e
00000350: b13b 4a3e 2691 e7bd 0c6d 4cbe c483 83bd
00000360: b175 3abd 95f6 23be b06d b8be fe2c 93be
00000370: 60c5 99bc bb79 3ebe 8513 54bd 9df0 a4bd
00000380: 92c0 64bd 3224 9abd 4c76 4a3c c213 a9bc
00000390: c832 ab3c 2c23 f0bb 78a1 f53c ed21 363d
000003a0: 9171 223e 38fa 643c 7889 6c3d bf4c 103e
000003b0: c827 493d 52d0 313d 1059 7ebd 8809 cc3b
000003c0: b1f1 aabd 9a05 fc3b 5418 563d 54d0 8abc
000003d0: 9f81 0b3d 4cc7 843d 067e 7dbc 01a0 9e3d
000003e0: 3b2e ae3c d77b cc3b 6a78 99bc a526 0fbe
000003f0: ecab eb3d 458f 6d3e 4ef1 583e 20e4 263c

3.bias f4 [16]
-0.11264168 -0.001077198 -0.042177822 -0.044144172 0.052707344 0.046663836 -0.014589046 -0.005480361
0.01934164 0.05543591 -0.0053669713 0.046248574 0.044196773 -0.01916773 0.054817352 -0.04371177
00000000: aeb0 e6bd c430 8dba a7c2 2cbd 85d0 34bd
00000010: a8e3 573d 9422 3f3d e506 6fbc 9a94 b3bb
00000020: 5c72 9e3c c410 633d 6bdd afbb 256f 3d3d
00000030: ad07 353d a505 9dbc 2988 603d 1d0b 33bd

7.weight f4 [120, 256]
0.030793726 0.07597863 -0.14801179 -0.04382569 -0.034839083 0.010135788 0.028319545 0.0608088
-0.017548084 0.049807917 -0.017739244 -0.016888453 0.119421765 0.07887462 -0.09737094 -0.12211169
0.11701537 0.010884019 -0.045950875 -0.18272023 0.02277909 -0.019295586 -0.09762579 0.029992232
-0.020098435 0.054491695 0.06214822 0.18395151 -0.10216305 0.017555747 0.019745074 -0.0952366
-0.03662807 -0.026960334 -0.02266996 0.02021477 -0.05765996 -0.0056936764 -0.020819513 -0.016164532
-0.085152484 -0.039712183 0.1027498 -0.004887074 -0.029491728 0.09462141 -0.020238495 -0.058170617
0.06430595 -0.0011193007 -0.036018822 -0.037637547 0.07155267 -0.0040903576 0.085005745 0.03410588
0.03446477 -0.016721018 0.017696284 0.036694795 -0.004956525 -0.017491562 -0.03918975 -0.016123632
0.024399437 0.04030885 -0.13116324 -0.04010016 -0.0039814166 -0.070193395 -0.076515056 0.07527937
-0.06657283 -0.088993005 0.004744479 0.004799557 0.056006353 -0.055012494 -0.0015956843 0.022871727
-0.038668554 0.043290943 -0.009237931 0.0036365956 0.009275854 0.029368114 0.040790908 0.028985953
0.036206193 0.025240814 -0.025397483 0.02530738 0.0691291 -0.024553495 -0.016984843 -0.016767018
0.01061067 0.04072098 0.024361642 0.014974583 0.07929061 0.092119046 -0.06962036 -0.0026066955
-0.13439582 -0.055066165 -0.03359465 0.071915716 0.052250613 0.008874609 0.009403938 -0.0034330704
0.034061495 -0.027419645 -0.03006387 -0.010540908 -0.033879813 0.053359088 -0.058159154 -0.0054271957
-0.050022274 -0.003422122 -0.04309932 -0.015514543 -0.047993578 -0.019347835 0.02814834 -0.057211857
0.045592222 0.018733308 -0.04918352 0.022765847 0.07385274 -0.053584117 -0.009634719 -0.073304124
-0.09423988 -0.09246986 -0.049400605 0.06563971 -0.12947081 0.014565755 0.028437953 -0.01650585
0.050460037 0.025132336 -0.08205749 -0.031470116 0.09216447 -0.00057843444 -0.0050765844 0.021412678
-0.05130546 0.04352273 -0.047764592 0.011687998 -0.021453138 -0.019732146 0.025045287 -0.04154901
-0.00951265 0.038439315 0.037719492 0.036832456 0.026279993 -0.008798532 0.039700605 -0.006732886
-0.013207211 0.042221658 -0.011906818 0.091040835 0.021678224 -0.05732613 0.032306474 0.071239896
0.08138469 0.08861599 0.030875854 0.027451301 -0.016646564 0.02045288 -0.024749229 -0.032515533
-0.056559164 -0.012207421 -0.029443141 0.021783482 -0.09550276 0.046338957 0.0007588459 0.07530506
0.02471083 0.06551618 0.013441577 -0.07386609 -0.033392314 -0.04600403 -0.027343735 -0.11022308
0.13543211 0.12639417 0.16213486 -0.024954652 0.08595964 -0.011535722 -0.00687342 -0.019936496
0.030703407 -0.010622503 -0.03545129 -0.06012458 0.050195377 0.0416711 0.020935737 -0.018281966
0.030437155 0.01790895 -0.050960243 0.02575157 -0.07836384 0.02797238 0.003268541 0.061486453
0.028275434 0.03875254 -0.043755457 0.009309239 -0.028333412 0.057643667 0.08882716 0.008051548
0.018979466 0.06354516 -0.10986501 -0.13369533 0.031342417 -0.024946287 -0.043584216 -0.05034628
0.08826779 0.026109314 0.0029065155 -0.011766497 -0.030932698 0.03533689 -0.011128853 -0.030424256
0.08650356 0.046973865 -0.07337951 0.06011435 0.003946983 -0.025649818 0.06518959 0.039194275
00000000: 2043 fc3c af9a 9b3d 6790 17be 9182 33bd
00000010: 6db3 0ebd 9310 263c 64fe e73c a612 793d
00000020: 00c1 8fbc 6303 4c3d e451 91bc a759 8abc
00000030: 6693 f43d 0489 a13d 6a6a c7bd b215 fabd
00000040: c1a5 ef3d e252 323c fc36 3cbd 031b 3bbe
00000050: 379b ba3c c711 9ebc 08f0 c7bd 45b2 f53c
00000060: 79a5 a4bc af32 5f3d 228f 7e3d c95d 3c3e
00000070: dc3a d1bd 12d1 8f3c 6cc0 a13c 680b c3bd
00000080: 5107 16bd ebdb dcbc 5ab6 b9bc 7299 a53c
00000090: da2c 6cbd 0592 babb af8d aabc 7b6b 84bc
000000a0: 6d64 aebd 3ea9 22bd 7d6e d23d c023 a0bb
000000b0: a398 f1bc dfc8 c13d 33cb a5bc 5044 6ebd
000000c0: d7b2 833d 80b5 92ba 7988 13bd d429 1abd
000000d0: 358a 923d 6808 86bb 7e17 ae3d 9bb2 0b3d
000000e0: ee2a 0d3d 84fa 88bc ccf7 903c 484d 163d
000000f0: 586a a2bb 774a 8fbc 6e85 20bd b515 84bc
00000100: 54e1 c73c e51a 253d a84f 06be 1140 24bd
00000110: 8b76 82bb 8ec1 8fbd edb3 9cbd 122c 9a3d
00000120: 5657 88bd f741 b6bd 9377 9b3b 9a45 9d3b
00000130: eb66 653d c854 61bd 4826 d1ba 7d5d bb3c
00000140: eb62 1ebd d851 313d b15a 17bc f353 6e3b
00000150: c0f9 173c 6695 f03c 5e14 273d f373 ed3c
00000160: f24c 143d d3c5 ce3c 620e d0bc 6c51 cf3c
00000170: 8f93 8d3d 6924 c9bc cc23 8bbc fc5a 89bc
00000180: 60d8 2d3c 0bcb 263d 1192 c73c f457 753c
00000190: 1e63 a23d e9a8 bc3d 1f95 8ebd 18d5 2abb
000001a0: 0f9f 09be 0f8d 61bd 8b9a 09bd 8c48 933d
000001b0: bd04 563d cf66 113c fa12 1a3c 5dfd 60bb
000001c0: 1184 0b3d 2a9f e0bc 8148 f6bc c6b3 2cbc
000001d0: 8fc5 0abd 0f8f 5a3d 4b38 6ebd 9ed6 b1bb
000001e0: 28e4 4cbd ae45 60bb ea88 30bd b630 7ebc
000001f0: ea94 44bd 5a7f 9ebc 5997 e63c fb56 6abd
00000200: e9be 3a3d 9876 993c a974 49bd 717f ba3c
00000210: 1b40 973d 057b 5bbd f1da 1dbc 7920 96bd
00000220: d700 c1bd d760 bdbd 4a58 4abd 1d6e 863d
00000230: ff93 04be 34a5 6e3c b6f6 e83c 4737 87bc
00000240: 2faf 4e3d 54e2 cd3c c20d a8bd cfe6 00bd
00000250: bac0 bc3d 14a2 17ba 7a59 a6bb a469 af3c
00000260: ad25 52bd e444 323d cea4 43bd 047f 3f3c
00000270: 7ebe afbc 4fa5 a1bc c62b cd3c 4b2f 2abd
00000280: f2da 1bbc 8b72 1d3d c17f 1a3d a1dd 163d
00000290: 2449 d73c b827 10bc 1a9d 223d 8b9f dcbb
000002a0: 0f63 58bc 9ef0 2c3d d014 43bc 9e73 ba3d
000002b0: 8896 b13c cece 6abd cb53 043d 39e6 913d
000002c0: 04ad a63d 4d7c b53d 5cef fc3c 8de1 e03c
000002d0: 605e 88bc cc8c a73c e5be cabc 022f 05bd
000002e0: 95aa 67bd a201 48bc be32 f1bc 4673 b23c
000002f0: f396 c3bd ebcd 3d3d 49ed 463a 8a39 9a3d
00000300: 5e6e ca3c 592d 863d 0f3a 5c3c 1b47 97bd
00000310: 61c6 08bd b96e 3cbd f8ff dfbc a3bc e1bd
00000320: b7ae 0a3e 796d 013e ae06 263e b36d ccbc
00000330: 9c0b b03d 5300 3dbc 6d3a e1bb dd51 a3bc
00000340: b685 fb3c 020a 2ebc 5f35 11bd 3145 76bd
00000350: ab99 4d3d 51af 2a3d 6c81 ab3c 10c4 95bc
00000360: 5757 f93c cab5 923c b0bb 50bd f5f4 d23c
00000370: 397d a0bd 5526 e53c 0535 563b 38d9 7b3d
00000380: e2a1 e73c fcba 1e3d ec38 33bd c785 183c
00000390: 791b e8bc c41b 6c3d 04eb b53d a4ea 033c
000003a0: d37a 9b3c f723 823d e800 e1bd 6ee7 08be
000003b0: e860 003d 285c ccbc 5d85 32bd e737 4ebd
000003c0: bec5 b43d 33e3 d53c 3d7b 3e3b 44c8 40bc
000003d0: 9266 fdbc 6abd 103d cb55 36bc 4a3c f9bc
000003e0: c728 b13d ab67 403d ff47 96bd 773a 763d
000003f0: b155 813b 911f d2bc 1f82 853d 2d8a 203d

7.bias f4 [120]
0.008469107 0.03023471 0.09850387 -0.03994244 -0.05816539 0.0065776636 -0.057994403 -0.026407063
0.015663177 -0.02447283 0.017599853 0.058112275 -0.005480385 0.07751119 -0.03647084 0.042338505
0.07395177 0.04994664 -0.048432283 0.0364817 0.00034673614 0.025402654 -0.05447481 0.09816727
0.020270767 0.06994399 -0.061435636 0.020900903 -0.028040793 0.047929388 0.10131909 0.090267934
0.00014631571 -0.05773582 -0.045964494 0.047039766 0.05047259 -0.044220343 0.06483598 0.048411746
0.038219742 0.05249373 -0.007950647 -0.0030170486 0.04924045 -0.01538432 -0.0022084042 0.06929279
-0.056899752 -0.058451492 0.03999057 -0.045896802 0.023427574 0.020050049 -0.0168924 0.07375185
-0.013684024 0.012697771 0.05685196 0.046652365 -0.008317441 -0.03075857 0.02572146 0.083785266
0.032464057 0.025118142 -0.042907823 -0.053914912 0.03508482 0.022754451 0.015480406 0.06496259
0.047711607 -0.01210076 -0.00010459195 0.033693932 0.07627427 0.034585923 0.076581605 -0.014524209
-0.016096761 0.0348842 0.02652344 0.024254728 0.042659294 -0.0073149973 -0.024080575 0.005128645
0.03622149 -0.010817523 0.09592027 0.039519228 -0.056286607 -0.014546312 0.010937312 0.00019376706
0.029540084 -0.041182384 -0.05834721 -0.06358724 -0.0444819 -0.012367328 0.06469738 -0.07341528
0.022769617 -0.008140192 0.04321285 0.011680798 0.057858318 -0.04521363 -0.023611834 0.0741604
-0.05424796 0.016498871 0.029475747 -0.051735606 -0.062909245 0.087657265 -0.009239895 -0.029535305
00000000: 02c2 0a3c c8ae f73c 66bc c93d af9a 23bd
00000010: d53e 6ebd 7189 d73b 8a8b 6dbd a053 d8bc
00000020: 1050 803c 3f7b c8bc 912d 903c 2307 6e3d
00000030: cd94 b3bb 30be 9e3d 7362 15bd 246b 2d3d
00000040: 0774 973d d994 4c3d ee60 46bd d66d 153d
00000050: 23ca b539 3a19 d03c fa20 5fbd ec0b c93d
00000060: e10e a63c cb3e 8f3d efa3 7bbd 5f38 ab3c
00000070: ceb5 e5bc 9b51 443d 6280 cf3d 65de b83d
00000080: 536c 1939 657c 6cbd 4445 3cbd c5ac 403d
00000090: 59bc 4e3d 6420 35bd bac8 843d 654b 463d
000000a0: 4e8c 1c3d aa03 573d 6e43 02bc adb9 45bb
000000b0: 5bb0 493d 840e 7cbc e0ba 10bb 61e9 8d3d
000000c0: b70f 69bd d56a 6fbd 27cd 233d 49fe 3bbd
000000d0: 2feb bf3c 0040 a43c ee61 8abc 360b 973d
000000e0: f532 60bc 500a 503c 9add 683d 8d16 3f3d
000000f0: e045 08bc 66f9 fbbc d0b5 d23c 9c97 ab3d
00000100: 08f9 043d 90c4 cd3c 1dc0 2fbd e2d5 5cbd
00000110: 1ab5 0f3d 8b67 ba3c 87a1 7d3c 1b0b 853d
00000120: 3f6d 433d 4442 46bc 6058 dbb8 a602 0a3d
00000130: af35 9c3d f8a9 0d3d d1d6 9c3d f3f6 6dbc
00000140: 5bdd 83bc bce2 0e3d af47 d93c dab1 c63c
00000150: 83bb 2e3d a5b2 efbb a044 c5bc 310e a83b
00000160: fc5c 143d fb3b 31bc d971 c43d eade 213d
00000170: c98c 66bd a853 6ebc 6932 333c f32d 4b39
00000180: 0cfe f13c dcae 28bd 7cfd 6ebd 073a 82bd
00000190: a732 36bd 55a0 4abc 0f80 843d c05a 96bd
000001a0: 5987 ba3c 715e 05bc f5ff 303d d160 3f3c
000001b0: d8fc 6c3d ed31 39bd 9b6d c1bc 68e1 973d
000001c0: 1c33 5ebd a428 873c 1f77 f13c b7e8 53bd
000001d0: 90d6 80bd a785 b33d ee62 17bc 06f4 f1bc

9.weight f4 [84, 120]
-0.12340437 -0.009902804 0.1522735 0.054472778 0.043062072 -0.07093043 0.00023966571 -0.11800757
-0.030965978 -0.003918022 0.07645612 0.078290634 -0.090167806 -0.026339412 -0.05167078 -0.0088015115
0.07761157 -0.008975003 0.088316 -0.16615506 0.055876754 -0.02354703 0.0692569 -0.060398143
-0.02098181 0.011861019 -0.1286935 -0.011087684 0.111845076 0.009564014 0.14572842 0.13947375
-0.04947005 0.025689015 -0.07525939 0.116644464 0.05194271 -0.08991066 0.08099464 0.06307599
-0.027921418 -0.016366398 0.05949034 0.028278338 0.09481753 -0.10000066 -0.11420949 0.12343281
-0.08289368 0.12351465 0.012776294 0.04124975 -0.010984095 -0.06699722 0.09460378 0.12089947
-0.097743034 0.008128154 0.09871951 0.09349666 -0.045988083 -0.07710126 -0.059704866 0.05019841
0.043208126 0.03390622 0.046612028 -0.01621727 0.04178004 0.15862647 0.07202594 -0.08361389
-0.041165855 -0.028526423 -0.13293365 -0.10841643 0.103416026 0.012011779 0.05390344 0.048171468
-0.02889063 -0.044031344 0.085949115 -0.010028116 0.11291526 0.08137386 -0.043383043 0.0035043622
-0.06293903 0.114197254 -0.055986736 -0.10809852 -0.023699308 -0.10014083 -0.0012381669 -0.09251407
0.09395009 0.09819004 0.08088664 -0.010683983 -0.06576196 0.030022655 -0.069751665 0.07558705
-0.04325282 -0.09023317 -0.08019032 -0.043317124 0.018437788 0.02598028 -0.11867319 -0.090968095
0.026779426 0.01964428 0.18346895 0.053826243 0.1699523 0.008292228 -0.056577347 0.045445587
0.08206092 -0.064225726 -0.021285785 0.107318856 0.017892558 0.07838924 -0.05335991 -0.048973445
0.00957937 0.037854277 -0.10468218 0.1180613 0.03592223 0.105062515 -0.1329362 -0.0614233
-0.04191272 -0.15099369 -0.06113963 -0.09767879 -0.0023608506 -0.015427143 -0.048389122 -0.06435215
0.0035717443 0.07105896 0.07046714 -0.048977815 -0.026123676 -0.08477697 0.17361231 -0.054741442
-0.03540426 0.019162117 -0.09915408 0.032003943 0.01951822 0.04309208 0.11566322 0.05665182
-0.039032094 -0.04909242 0.009643329 -0.054115772 0.032239728 -0.010647826 0.026673093 0.029108021
-0.06698957 -0.058322106 -0.03190408 0.06154745 0.027094562 -0.09009194 0.02445999 -0.108863145
0.123021476 -0.07419808 0.10651642 0.008761587 0.0335417 -0.0824648 -0.12778564 -0.041360863
-0.12461567 0.00718679 0.02294561 -0.025575494 0.021628968 0.17182764 -0.04642708 0.0047271387
0.00050332054 0.07870259 0.060214527 0.1465181 0.05605372 0.061504126 0.05780273 -0.08680264
-0.028019043 0.08957673 0.0076616835 -0.15013376 -0.121629305 0.0803629 0.14732254 0.08930179
0.10354205 -0.08265368 0.030015538 0.15490758 0.022929125 0.04506274 0.037668385 -0.052514177
-0.065451644 0.06810419 0.04100631 0.024840241 -0.03255647 0.06361752 0.0068732062 -0.084116705
-0.051658988 -0.067804866 0.008961397 -0.033189 0.10242911 0.0738268 0.112153605 0.120776124
0.059835352 -0.029942095 -0.037797894 -0.12540285 0.025952084 -0.044653673 0.014906942 0.034600742
-0.002619471 0.02665129 0.05620394 -0.028459754 0.08913197 -0.065703 -0.009166542 0.049031593
0.0047540776 -0.004000115 -0.09123336 0.060624886 -0.037911247 -0.051955342 -0.0768625 -0.05781801
00000000: 6ebb fcbd 5f3f 22bc 96ed 1b3e d91e 5f3d
00000010: db61 303d f943 91bd c64e 7b39 f4ad f1bd
00000020: 5dac fdbc c062 80bb 0795 9c3d d756 a03d
00000030: e6a9 b8bd c0c5 d7bc bda4 53bd 3734 10bc
00000040: d1f2 9e3d e40b 13bc 05df b43d 8d24 2abe
00000050: 06df 643d b3e5 c0bc 90d6 8d3d 0b64 77bd
00000060: 0be2 abbc b854 423c 3bc8 03be 1ea9 35bc
00000070: 080f e53d 62b2 1c3c d539 153e 35d2 0e3e
00000080: 1ba1 4abd c571 d23c 9821 9abd 4be3 ee3d
00000090: e1c1 543d 1523 b8bd 85e0 a53d fc2d 813d
000000a0: 75bb e4bc d312 86bc 25ac 733d f9a7 e73c
000000b0: b12f c23d 25cd ccbd aae6 e9bd 57ca fc3d
000000c0: 29c4 a9bd 40f5 fc3d a953 513c 7ff5 283d
000000d0: a2f6 33bc d735 89bd a0bf c13d 249a f73d
000000e0: 802d c8bd f32b 053c 742d ca3d 2d7b bf3d
000000f0: 005e 3cbd 44e7 9dbd 178d 74bd d99c 4d3d
00000100: 01fb 303d 40e1 0a3d 41ec 3e3d 15da 84bc
00000110: 8c21 2b3d fa6e 223e 5682 933d c23d abbd
00000120: 879d 28bd 3fb0 e9bc c21f 08be 6f09 debd
00000130: c8cb d33d 0dcd 443c dac9 5c3d 724f 453d
00000140: 0bac ecbc 365a 34bd 1706 b03d f84c 24bc
00000150: 1e40 e73d 57a7 a63d 6bb2 31bd 71a9 653b
00000160: 2ee6 80bd 40e0 e93d 5952 65bd c262 ddbd
00000170: 0d25 c2bc a316 cdbd fd49 a2ba 0478 bdbd
00000180: e868 c03d dc17 c93d e5a7 a53d df0b 2fbc
00000190: 35ae 86bd 12f2 f53c f6d9 8ebd 62cd 9a3d
000001a0: de29 31bd 2bcc b8bd d33a a4bd 4c6d 31bd
000001b0: d80a 973c 99d4 d43c ee0a f3bd 7b4d babd
000001c0: 8760 db3c 0bed a03c 49df 3b3e e878 5c3d
000001d0: fa07 2e3e 20dc 073c a6bd 67bd 2725 3a3d
000001e0: 8e0f a83d c788 83bd 875f aebc fdc9 db3d
000001f0: 6a93 923c 8a8a a03d ec8f 5abd 6198 48bd
00000200: caf2 1c3c 160d 1b3d 9c63 d6bd 1fca f13d
00000210: 3023 133d 042b d73d 6d20 08be 0097 7bbd
00000220: acac 2bbd 179e 1abe 8c6d 7abd d10b c8bd
00000230: 80b8 1abb 21c2 7cbc ac33 46bd 0fcb 83bd
00000240: ed13 6a3b 5c87 913d 1351 903d f69c 48bd
00000250: 5201 d6bc 8c9f adbd 6dc7 313e 9038 60bd
00000260: 0f04 11bd dff9 9c3c 4b11 cbbd 9116 033d
00000270: ade4 9f3c 5281 303d d7e0 ec3d bd0b 683d
00000280: 1ee0 1fbd 2215 49bd 0eff 1d3c 80a8 5dbd
00000290: ce0d 043d 3874 2ebc 8881 da3c f273 ee3c
000002a0: d431 89bd 29e3 6ebd daad 02bd 2e19 7c3d
000002b0: 6af5 dd3c 1f82 b8bd 5160 c83c a4f3 debd
000002c0: aff2 fb3d 2af5 97bd 4825 da3d c28c 0f3c
000002d0: 0663 093d 4ee3 a8bd 3dda 02be 026a 29bd
000002e0: 8036 ffbd 2a7f eb3b 6ff8 bb3c b383 d1bc
000002f0: 3c2f b13c 96f3 2f3e 522a 3ebd 1de6 9a3b
00000300: 45f1 033a d32e a13d 82a3 763d d708 163e
00000310: 9698 653d c0eb 7b3d 8ec2 6c3d 95c5 b1bd
00000320: 3188 e5bc 0174 b73d dc0e fb3b aabc 19be
00000330: c918 f9bd 4e95 a43d b8db 163e dbe3 b63d
00000340: db0d d43d 5546 a9bd 25e3 f53c 18a0 1e3e
00000350: dcd5 bb3c b593 383d 2a4a 1a3d 1b19 57bd
00000360: 830b 86bd 367a 8b3d 3cf6 273d c37d cb3c
00000370: ef59 05bd e749 823d a238 e13b 6145 acbd
00000380: 6098 53bd 47dd 8abd d3d2 123c 30f1 07bd
00000390: 5ac6 d13d 8132 973d cab0 e53d 7959 f73d
000003a0: ea15 753d 2049 f5bc f7d1 1abd 9b69 00be
000003b0: 7799 d43c c5e6 36bd 3f3c 743c 82b9 0d3d
000003c0: 6eab 2bbb ce53 da3c 1a36 663d 6e24 e9bc
000003d0: d38a b63d 4b8f 86bd 442f 16bc 5ad5 483d
000003e0: 18c8 9b3b 6613 83bb 8ed8 babd cd51 783d
000003f0: d348 1bbd 20cf 54bd 166a 9dbd 94d2 6cbd

9.bias f4 [84]
0.112442575 -0.07205024 -0.046798527 -0.020128282 0.1657857 0.042644158 -0.09027004 -0.029504918
0.0028916704 -0.060607806 -0.0429304 0.12559618 -0.050983213 0.01809651 -0.04469976 -0.05375901
0.033603713 0.053059697 0.03482146 -0.072148964 -0.061433155 0.14295012 0.010874785 0.08538529
0.06989076 0.056538314 -0.036940802 -0.09282084 -0.02629933 0.036142312 0.037025765 0.105655566
-0.06499017 -0.021416102 0.026200011 0.015404484 0.0022174418 0.04677593 0.034800705 0.07386936
0.06891739 0.043321695 -0.06834468 -0.026392745 0.051544443 0.07464533 0.029756635 -0.049099497
0.116273664 0.023632223 0.071548074 0.076568216 -0.021061843 -0.015430722 0.029021086 -0.07339759
-0.039248273 0.12122767 0.060346816 0.047986235 0.09306594 0.011893621 -0.037235167 0.08872381
0.007044831 -0.06361427 0.017085869 0.07337098 -0.07170792 -0.0572154 -0.090868585 0.00018713863
0.09389672 -0.044550635 -0.06848903 0.02391085 -0.10695213 -0.060330484 -0.0025367439 0.12380818
-0.061101276 0.07383686 0.037340444 -0.07621891
00000000: 4b48 e63d 148f 93bd d0af 3fbd 11e4 a4bc
00000010: bac3 293e a4ab 2e3d 80df b8bd 4cb4 f1bc
00000020: 2e82 3d3b e43f 78bd cad7 2fbd 499c 003e
00000030: c6d3 50bd 223f 943c 1817 37bd 6832 5cbd
00000040: 0ca4 093d 2055 593d f2a0 0e3d d6c2 93bd
00000050: 55a1 7bbd 8461 123e 272c 323c 7cde ae3d
00000060: e322 8f3d b894 673d 3d4f 17bd da18 bebd
00000070: b171 d7bc f609 143d 54a8 173d f261 d83d
00000080: 9119 85bd d270 afbc 68a1 d63c 1763 7c3c
00000090: 8052 113b 1e98 3f3d 2f8b 0e3d d248 973d
000000a0: 9024 8d3d 1772 313d 4cf8 8bbd 9935 d8bc
000000b0: 4420 533d a7df 983d 30c4 f33c 8e1c 49bd
000000c0: e320 ee3d 5d98 c13c cc87 923d cccf 9c3d
000000d0: e389 acbc 24d1 7cbc a1bd ed3c 7a51 96bd
000000e0: ccc2 20bd 3646 f83d 392e 773d 378d 443d
000000f0: 5b99 be3d 76dd 423c e783 18bd d4b4 b53d
00000100: 53d8 e63b 3348 82bd aaf7 8b3c 8643 963d
00000110: 9adb 92bd b25a 6abd 4f19 babd a53a 4439
00000120: ec4c c03d ba7a 36bd fa43 8cbd b0e0 c33c
00000130: b809 dbbd 191d 77bd 803f 26bb 258f fd3d
00000140: 5545 7abd c837 973d 4bf2 183d a918 9cbd

11.weight f4 [10, 84]
-0.07890398 0.06569213 -0.102367416 0.044005208 -0.2825196 0.06425083 0.04142907 0.072655566
-0.18433146 -0.06912539 -0.11389519 -0.03299829 0.09771537 0.05534296 -0.087806 -0.13591604
-0.19432324 0.085185766 -0.24761127 0.085936084 0.084971674 -0.19369783 -0.06558332 0.06555019
0.23845327 -0.16075854 0.07216301 -0.13386028 0.2620628 -0.079082966 -0.1543393 -0.1408691
-0.07427436 -0.052246775 -0.06566474 0.13067918 0.13411668 -0.07436904 -0.08141483 -0.12705399
0.17092097 0.001818736 -0.14439222 -0.14051424 -0.080702834 -0.16359529 -0.049851615 -0.1565636
0.34176552 -0.0026886135 0.1954701 0.16017327 0.052357994 0.08585106 0.053583123 -0.099282004
-0.14260116 0.14023818 -0.05425116 -0.22723213 0.033915192 -0.012838477 -0.079870805 0.00046310664
-0.034520514 -0.049326427 -0.16886865 0.015560889 0.046299618 -0.048655637 0.025760487 -0.1439505
0.30922768 -0.2692038 0.3273614 0.07758434 0.07585527 0.36029458 0.12672901 -0.27797842
0.11226703 -0.17014247 -0.1014655 -0.054639366 0.19549985 0.2505786 -0.055024356 -0.21873473
-0.0779345 0.061106138 0.11533917 0.10322435 0.0036301853 0.026922598 -0.18791455 0.17467226
-0.029279577 -0.17615925 0.0765755 0.10676131 -0.25529763 0.20478645 -0.16164224 0.05205056
0.15215996 0.21599476 -0.07430873 0.044377573 0.028119102 0.06388917 0.1317788 0.17779139
-0.063754044 -0.19985542 -0.009262374 0.31712043 0.15117344 0.10541247 -0.11599435 -0.088325426
0.06019294 -0.15443198 -0.039177176 0.043634485 -0.015595976 -0.11795351 0.16503164 0.055029042
0.14969969 -0.11849036 0.08407286 -0.067408346 0.0016713019 -0.31845978 -0.30369005 -0.038434803
0.015706955 -0.08769126 -0.10765924 -0.062010456 0.012111974 -0.20649713 0.2499342 -0.18433279
-0.089600325 -0.04947532 0.051434457 -0.102443315 -0.24354649 0.101702034 -0.19952117 0.19283694
0.106464386 0.096348114 -0.063480236 0.09141812 -0.28255644 0.13649167 -0.061718136 0.045518853
0.10297486 0.15662192 0.052401394 -0.1566718 0.10302172 0.4391052 0.10225215 -0.03461179
-0.098337874 -0.28748956 -0.02087238 0.38837072 -0.18288048 0.1552963 -0.17603502 -0.047480922
0.25204405 0.07901653 0.16357732 0.13328156 0.12799291 -0.040252104 0.15836081 0.18208183
-0.13423282 -0.022470023 0.18530416 -0.006471116 -0.00893362 0.0302546 -0.122869074 -0.12881808
0.078177966 -0.13140298 -0.019244121 -0.15080746 0.047103174 -0.08425444 -0.08016566 -0.060286365
0.069683164 -0.09948604 -0.0878825 0.078413576 0.009758748 -0.14900623 0.13121322 -0.30315265
-0.1395652 -0.24745293 -0.12232998 0.19210657 -0.2281152 -0.20938982 0.080888905 0.3238257
0.10875096 0.14172101 -0.3129279 0.19735646 0.08743858 0.0016355676 -0.05459031 -0.006388848
-0.16156577 0.012975667 0.037629984 0.24342827 -0.00583898 0.4061151 0.0667958 -0.21696241
0.025758814 -0.106871404 0.18271984 0.19280767 -0.009970392 -0.101290666 0.0070366035 -0.25304493
0.06806048 0.16608651 -0.1377233 0.070148535 -0.028953107 0.05339941 -0.05395065 -0.23729105
-0.12858318 0.24906285 0.08804017 0.10811401 -0.018552793 -0.12969087 -0.053631153 0.25291312
00000000: 6998 a1bd 9889 863d 02a6 d1bd ce3e 343d
00000010: 69a6 90be f095 833d 87b1 293d 71cc 943d
00000020: 63c1 3cbe 9d91 8dbd e241 e9bd 3729 07bd
00000030: ff1e c83d 4daf 623d a2d3 b3bd 932d 0bbe
00000040: acfc 46be e075 ae3d cf8d 7dbe 42ff af3d
00000050: a105 ae3d b958 46be 8c50 86bd 2e3f 863d
00000060: 182d 743e e39d 24be 33ca 933d ab12 09be
00000070: 182d 863e 40f6 a1bd 1f0b 1ebe fd3f 10be
00000080: 281d 98bd b700 56bd 3c7b 86bd c3d0 053e
00000090: e255 093e cc4e 98bd d2bc a6bd 711a 02be
000000a0: e805 2f3e a762 ee3a 8edb 13be f7e2 0fbe
000000b0: 8747 a5bd 8685 27be 3531 4cbd 3552 20be
000000c0: e4fb ae3e 7333 30bb 5029 483e 7604 243e
000000d0: 5675 563d aed2 af3d fa79 5b3d 5d54 cbbd
000000e0: 0a06 12be 999a 0f3e 7736 5ebd 8aaf 68be
000000f0: a8ea 0a3d 7a58 52bc 4e93 a3bd 1fcd f239
00000100: 6265 0dbd 820a 4abd e7eb 2cbe 19f3 7e3c
00000110: aba4 3d3d 224b 47bd a807 d33c c367 13be
00000120: 1753 9e3e 15d5 89be ea9b a73e 8ae4 9e3d
00000130: 025a 9b3d 8878 b83e 40c5 013e 3053 8ebe
00000140: 42ec e53d d439 2ebe 25cd cfbd 87cd 5fbd
00000150: 1d31 483e d74b 803e 3861 61bd fffb 5fbe
00000160: 209c 9fbd 6e4a 7a3d f136 ec3d 4a67 d33d
00000170: 67e8 6d3b c88c dc3c ac6c 40be 49dd 323e
00000180: b9db efbc 1763 34be 9ed3 9c3d aca5 da3d
00000190: 5fb6 82be 8ab3 513e 8b85 25be f832 553d
000001a0: d2cf 1b3e bb2d 5d3e 2d2f 98bd 42c5 353d
000001b0: 085a e63c 53d8 823d 06f1 063e f20e 363e
000001c0: 7b91 82bd e6a6 4cbe 36c1 17bc 9c5d a23e
000001d0: 36cd 1a3e 7ee2 d73d 728e edbd f6e3 b4bd
000001e0: df8c 763d 6b23 1ebe 3f78 20bd 13ba 323d
000001f0: 4486 7fbc 9c91 f1bd 0efe 283e 2266 613d
00000200: e04a 193e 13ab f2bd 642e ac3d 630d 8abd
00000210: 960f db3a 290d a3be 437d 9bbe d06d 1dbd
00000220: dfab 803c 7a97 b3bd 737c dcbd adfe 7dbd
00000230: 4d71 463c fc73 53be c0ee 7f3e bcc1 3cbe
00000240: 6080 b7bd a2a6 4abd f0ac 523d cdcd d1bd
00000250: 4064 79be 2849 d03d 474f 4cbe 0c77 453e
00000260: 000a da3d 2952 c53d ed01 82bd 6c39 bb3d
00000270: 3dab 90be 79c4 0b3e 28cc 7cbd fa71 3a3d
00000280: 7ce4 d23d 7f61 203e d8a2 563d 936e 20be
00000290: 0dfd d23d 66d2 e03e 9369 d13d 18c5 0dbd
000002a0: 5e65 c9bd d531 93be 8efc aabc 87d8 c63e
000002b0: 0545 3bbe fe05 1f3e 8642 34be 5b7b 42bd
000002c0: eb0b 813e 6bd3 a13d d080 273e f67a 083e
000002d0: 9310 033e 64df 24bd 5629 223e a973 3a3e
000002e0: 5474 09be 0e13 b8bc 60c0 3d3e a80b d4bb
000002f0: 515e 12bc 7fd8 f73c c8a2 fbbd e3e8 03be
00000300: c51b a03d 818e 06be d9a5 9dbc 456d 1abe
00000310: 42ef 403d 988d acbd e52d a4bd d6ee 76bd
00000320: 0cb6 8e3d 56bf cbbd bdfb b3bd 4c97 a03d
00000330: 28e3 1f3c 1795 18be c25c 063e d336 9bbe
00000340: 2eea 0ebe 4d64 7dbe 2488 fabd 96b7 443e
00000350: 0897 69be 496a 56be 15a9 a53d 7bcc a53e
00000360: d3b8 de3d 501f 113e 1638 a0be d017 4a3e
00000370: 0013 b33d 8b60 d63a 179a 5fbd 8b59 d1bb
00000380: 7f71 25be e497 543c e621 1a3d 4345 793e
00000390: ea54 bfbb 52ee cf3e 3dcc 883d 652b 5ebe
000003a0: 2604 d33c 65df dabd e91a 3b3e 606f 453e
000003b0: db5a 23bc 7b71 cfbd 4f93 e63b 1b8f 81be
000003c0: 4b63 8b3d 9512 2a3e 5607 0dbe 09aa 8f3d
000003d0: 112f edbc 57b9 5a3d 5bfb 5cbd 6dfc 72be
000003e0: 4fab 03be 550a 7f3e 684e b43d e16a dd3d
000003f0: 07fc 97bc afcd 04be 57ac 5bbd d47d 813e

11.bias f4 [10]
0.019275405 0.12251126 -0.010331562 -0.06863765 -0.09912241 0.12824233 -0.011297396 0.0488548
0.039756257 0.1782585
00000000: 74e7 9d3c 2fe7 fa3d b645 29bc e591 8cbd
00000010: b100 cbbd f551 033e b718 39bc f91b 483d
00000020: 75d7 223d 6589 363e

momentum_buffer f4 [6, 1, 5, 5]
-0.0053693466 -0.0038999626 -0.004233628 -0.0057511763 -0.005256528 -0.0019208675 -0.0011668578 -0.00268583
-0.0042462023 -0.0034462204 0.0008637481 0.0014833352 -0.00012813698 -0.0013478566 -0.00065979117 0.0012670745
0.001410795 -0.0001482382 -0.00042138406 0.00032624253 -0.00019375654 -7.197814e-05 -1.0560701e-05 -0.0003649597
2.9243063e-05 -0.0015400702 -0.0010374978 -0.00062969094 -0.0003862113 4.8770657e-05 -0.0010526523 -0.0001637066
0.00016804857 5.8757578e-05 0.00022226329 -0.00070361234 7.851474e-05 0.000112057445 0.000102744 0.00030495145
-0.00023813026 0.00014717053 4.4799875e-05 9.656885e-05 0.0001677109 -0.00011771222 -6.312487e-05 -2.448578e-06
3.8693746e-05 6.331733e-05 -0.0041337227 -0.0060113696 -0.0054977085 0.0013613971 0.01076239 -0.004510453
-0.008706408 -0.0061387685 0.003634728 0.014784822 -0.0028169467 -0.007281912 -0.0017736102 0.009746681
0.020557601 0.0055213356 0.0019461163 0.0070574274 0.01636725 0.024761647 0.0074219806 0.0052935844
0.011218344 0.01714233 0.020917166 0.0016772646 0.00068827806 -0.00029444444 -0.00084991846 0.0001558084
-0.0023841637 -0.0017452104 -0.0016479468 -0.0016866897 -0.0011824354 -0.0076275207 -0.0063229124 -0.006352935
-0.0056615677 -0.0050796526 -0.010716816 -0.010757783 -0.011610328 -0.0113576725 -0.01085116 -0.011818753
-0.012540547 -0.014309222 -0.015051104 -0.014325576 0.003770749 -0.0038180994 -0.0069271256 -0.004574906
-0.0015706476 -0.001171629 -0.009892203 -0.011671884 -0.005475761 -0.0008740714 -0.0067324685 -0.014775101
-0.014081898 -0.006260131 6.7126006e-05 -0.0039323056 -0.009494257 -0.0086217625 -0.0029630754 0.004570882
0.002451914 -0.0007021624 -0.0002768067 0.0027641843 0.006688104 -0.015286405 -0.01254628 -0.011001153
-0.011069993 -0.007992973 -0.015527346 -0.016798977 -0.019433962 -0.021265693 -0.01640079 -0.011137607
-0.014696586 -0.016773084 -0.018426526 -0.017175978 0.0012782752 -0.0029680233 -0.0032297948 -0.004443378
-0.008812916 0.0058852 0.0032065227 0.0065418594 0.0054464517 -0.0035657652
00000000: 58f1 afbb 8496 7fbb 3fba 8abb 5d74 bcbb
00000010: f43e acbb 9ec5 fbba 40f1 98ba c004 30bb
00000020: ba23 8bbb fcd9 61bb 276d 623a 786c c23a
00000030: 825c 06b9 90aa b0ba d6f5 2cba f713 a63a
00000040: 6dea b83a 6470 1bb9 36ed dcb9 880b ab39
00000050: 202b 4bb9 f8f2 96b8 de2d 31b7 1058 bfb9
00000060: 004f f537 2edc c9ba a6fc 87ba d811 25ba
00000070: 677c cab9 188f 4c38 26f9 89ba a8a8 2bb9
00000080: 3236 3039 7872 7638 590f 6939 a072 38ba
00000090: 48a8 a438 6200 eb38 4478 d738 e4e1 9f39
000000a0: 9bb2 79b9 ca51 1a39 80e7 3b38 0285 ca38
000000b0: 8ddb 2f39 44dc f6b8 e861 84b8 4052 24b6
000000c0: 184b 2238 3cc9 8438 2e74 87bb 06fb c4bb
000000d0: 1f26 b4bb e870 b23a bc54 303c 6ccc 93bb
000000e0: 52a5 0ebc b927 c9bb 9e34 6e3b 0a3c 723c
000000f0: 869c 38bb 1b9d eebb 7c78 e8ba 8bb0 1f3c
00000100: 6a68 a83c 52ec b43b d414 ff3a fe41 e73b
00000110: 9c14 863c f0d8 ca3c 1634 f33b ce75 ad3b
00000120: 25cd 373c 126e 8c3c 7a5a ab3c a9d7 db3a
00000130: 8f6d 343a aa5f 9ab9 10cd 5eba 8060 2339
00000140: a13f 1cbb 8bbf e4ba ebff d7ba ea13 ddba
00000150: f3fb 9aba 48f0 f9bb 6f30 cfbb 482c d0bb
00000160: ac84 b9bb 3773 a6bb 9695 2fbc 6a41 30bc
00000170: 3f39 3ebc 8815 3abc 10c9 31bc 71a3 41bc
00000180: de76 4dbc 3a71 6abc e898 76bc d2b5 6abc
00000190: ac1e 773b 1439 7abb f1fc e2bb 18e9 95bb
000001a0: 30de cdba 5891 99ba e812 22bc 6e3b 3fbc
000001b0: 036e b3bb f021 65ba 0a9c dcbb 4413 72bc
000001c0: c3b7 66bc c921 cdbb 00c6 8c38 92da 80bb
000001d0: cd8d 1bbc 4b42 0dbc 2830 42bb 56c7 953b
000001e0: 4ab0 203b 5211 38ba 5e20 91b9 5127 353b
000001f0: e227 db3b d473 7abc ea8e 4dbc 2e3e 34bc
00000200: ea5e 35bc f5f4 02bc 6966 7ebc 029e 89bc
00000210: f933 9fbc 6435 aebc f35a 86bc 827a 36bc
00000220: f3c9 70bc b567 89bc 3af3 96bc a3b4 8cbc
00000230: cc8b a73a 2b83 42bb f7aa 53bb c299 91bb
00000240: 0d64 10bc a3d8 c03b 8624 523b 185d d63b
00000250: 2678 b23b 9daf 69bb

momentum_buffer f4 [6]
-0.0016492277 0.00010665966 2.503395e-05 -0.0045947256 -0.006202492 -0.009026417
00000000: e62a d8ba 78ae df38 0000 d237 5a8f 96bb
00000010: 463e cbbb 89e3 13bc

momentum_buffer f4 [16, 6, 5, 5]
-0.00021672196 -0.0026439582 -0.0016912774 0.0026139629 0.005144378 -0.00081704266 -0.0014982998 0.0020152587
0.007938871 0.009524394 0.004688794 0.0054800618 0.003809554 0.00836475 0.009645844 0.007236147
0.0007886039 -0.00024986686 0.0038173373 0.0043733153 -0.0026997593 -0.0058561736 -0.00041603856 0.0036205254
0.0039677355 -0.0005918816 -0.00073889823 -2.2562657e-05 7.8245546e-05 -0.00031381118 -0.0013505752 -0.00032598156
0.00023163007 0.00020642689 -0.0002781952 -0.0009520222 -1.451057e-05 0.00010675195 -1.45606755e-05 -0.00035488541
-0.00017537543 0.000527119 0.0007501022 0.00030556764 -0.00022200285 0.00048939016 0.00070032943 0.00046930584
0.00020442042 -0.00051982736 -0.0016629202 -0.0034595276 -0.011505572 -0.008155381 0.010208318 0.00013570301
-0.0032756221 -0.0058344128 -0.0023333821 0.0167581 0.0018379507 0.0071840435 -0.0011386331 -0.0034183115
0.014512869 0.0016903372 -0.0025745248 -0.017533958 -0.006808105 0.008275868 -0.007233769 -0.007532762
-0.017910812 -0.0031594085 0.008191486 0.00013664411 0.0025092978 0.0066800076 0.00851021 0.007231689
0.0033810488 0.0073627527 0.0071307775 0.00565336 0.0047473293 0.0034041866 0.0027325237 0.0035998542
0.0021453903 -0.00081473007 -0.0047021825 -0.002680303 0.00097529386 -1.839362e-08 -0.00023661077 -0.0018404496
-0.00070194714 0.00055108493 0.00095810415 0.001782534 -0.0024935221 0.00040078827 -0.0029189717 -0.0037861844
0.007261425 0.0025237503 0.0034289379 -0.0022857701 -0.0061429003 0.0037416168 0.005508771 0.006433124
-0.0030132374 -0.010284456 -0.0012623519 0.0010992812 1.9961502e-05 -0.009929574 -0.008777766 0.0010582895
-0.0011805311 -0.0014284479 -0.010141442 -0.006922285 0.0031543812 -0.0019178493 -0.004484138 -0.005991748
0.0060269823 0.021204595 -0.0010653383 0.0021468932 0.0064059487 0.014922908 0.028949112 0.009833351
0.018499028 0.010231258 0.013000472 0.02443432 0.0069249193 0.00094955787 -0.0073307017 0.004085268
0.0115725165 -0.007104239 -0.008051317 -0.009675231 0.00466429 0.0122417705 -0.0073789023 -0.0040728548
-0.0011413653 -0.0037618154 -0.0054938328 -0.00034990633 0.0002842046 0.0012807089 -0.00021485472 0.0006982603
0.007899393 0.0049032397 0.004055744 0.0032287287 0.00069526915 0.0073623355 0.002606837 -0.0021677169
-0.0021731774 -0.0005267268 0.0027280315 -0.0010288404 0.0013166815 0.005195318 0.003465773 0.000717922
0.0004043873 -1.6245258e-05 0.00022048439 0.00043771957 -0.0007725061 -0.000634573 -0.00049552234 5.4598997e-05
0.00018661437 -0.0012211003 -0.0007593239 -1.6425438e-05 0.0002729375 0.0002156435 -0.0006389536 0.00042229067
0.0008996734 0.0004092176 0.0004363153 0.00011554122 0.0003721713 0.00022261206 -0.00074344914 -0.0013691809
-0.013228035 -0.0060089296 -0.006064619 -0.0026543357 -0.00831816 0.002439642 0.012465039 0.004610852
0.0036903564 0.004062704 0.019443292 0.02107468 0.011846642 0.0038826354 0.0026244684 0.019749785
0.011750596 0.0025364198 -0.00012981286 0.0025256895 0.024524715 0.008106862 0.0060804104 0.019147035
0.019530114 0.007346241 0.01124027 0.011211407 0.009037328 0.0073801302 0.013302169 0.015067097
0.011174682 0.008165527 0.0049575116 0.005389887 0.0042357645 0.0014178364 0.0003880214 0.0008854937
2.2531487e-05 -0.0009112019 0.00039283064 0.002671793 0.0014606519 -0.00023739447 0.0018158094 0.005494879
0.003727418 0.00037447154 -0.0043339827 0.0003094389 0.0011357579 0.004883059 0.00409557 0.002454035
00000000: dc3f 63b9 4246 2dbb daad ddba 054f 2b3b
00000010: 2c92 a83b ce2e 56ba 9962 c4ba 6e12 043b
00000020: 0a12 023c 340c 1c3c 74a4 993b 1792 b33b
00000030: b6a9 793b 4e0c 093c 9a09 1e3c 331d ed3b
00000040: 50ba 4e3a 9000 83b9 4b2c 7a3b 074e 8f3b
00000050: 72ee 30bb 25e5 bfbb c01f dab9 5646 6d3b
00000060: c703 823b 8028 1bba 9fb2 41ba f044 bdb7
00000070: c217 a438 0687 a4b9 c905 b1ba 81e8 aab9
00000080: b9e1 7239 4c74 5839 bada 91b9 2191 79ba
00000090: 6c72 73b7 04e0 df38 a049 74b7 ea0f bab9
000000a0: fce4 37b9 5b2e 0a3a 82a2 443a 9834 a039
000000b0: 70c9 68b9 6b4a 003a 5096 373a 2a0d f639
000000c0: b059 5639 0645 08ba 58f6 d9ba 3eb9 62bb
000000d0: de81 3cbc 269e 05bc ca40 273c 804b 0e39
000000e0: d2ab 56bb 9a2e bfbb a8eb 18bb 4848 893c
000000f0: 64e7 f03a 2068 eb3b 303e 95ba c005 60bb
00000100: 62c7 6d3c 4e8e dd3a 5cb9 28bb 60a3 8fbc
00000110: 8616 dfbb 8297 073c 4109 edbb 63d5 f6bb
00000120: b2b9 92bc 140e 4fbb 9535 063c 2048 0f39
00000130: 0873 243b f7e3 da3b 686e 0b3c cef7 ec3b
00000140: 9694 5d3b 3f43 f13b 4ca9 e93b d23f b93b
00000150: 7c8f 9b3b c618 5f3b 2414 333b 88eb 6b3b
00000160: ad99 0c3b 9c93 55ba c414 9abb 06a8 2fbb
00000170: ddaa 7f3a 0000 9eb2 b81a 78b9 3e3b f1ba
00000180: e002 38ba af76 103a 4829 7b3a eaa3 e93a
00000190: 5c6a 23bb e420 d239 384c 3fbb a221 78bb
000001a0: 3ff1 ed3b 8165 253b 08b8 603b dccc 15bb
000001b0: 624a c9bb ea35 753b ec82 b43b f5cc d23b
000001c0: bc79 45bb 2380 28bc 8075 a5ba c215 903a
000001d0: 0073 a737 a7af 22bc 9ed0 0fbc 4eb6 8a3a
000001e0: 0dbc 9aba c23a bbba 4a28 26bc 56d4 e2bb
000001f0: bcb9 4e3b 5860 fbba adef 92bb 6d56 c4bb
00000200: fe7d c53b 42b5 ad3c d2a2 8bba e4b2 0c3b
00000210: fee8 d13b 367f 743c b026 ed3c 101c 213c
00000220: 468b 973c 02a1 273c efff 543c 7c2a c83c
00000230: 6fea e23b c0eb 783a 6236 f0bb b6dd 853b
00000240: a79a 3d3c adca e8bb ace9 03bc dc84 1ebc
00000250: e7d6 983b b591 483c b8ca f1bb 9575 85bb
00000260: dd99 95ba ca88 76bb 9c05 b4bb a273 b7b9
00000270: 4c01 9539 76dd a73a a04a 61b9 750b 373a
00000280: 756c 013c 5bab a03b 0ce6 843b 1499 533b
00000290: b942 363a bf3f f13b 78d7 2a3b 4110 0ebb
000002a0: de6b 0ebb 0a14 0aba c6c8 323b 28da 86ba
000002b0: 8094 ac3a 7c3d aa3b 0622 633b ee32 3c3a
000002c0: f203 d439 6d46 88b7 d431 6739 ba7d e539
000002d0: 0282 4aba 7959 26ba f1e5 01ba 3a01 6538
000002e0: eaad 4339 540d a0ba 5d0d 47ba 5cc9 89b7
000002f0: 0d19 8f39 5c1e 6239 737f 27ba e566 dd39
00000300: 0fd8 6b3a 428c d639 40c1 e439 b84e f238
00000310: fc1f c339 f86c 6939 07e4 42ba 1676 b3ba
00000320: 66ba 58bc 8ee6 c4bb b6b9 c6bb 5df4 2dbb
00000330: e448 08bc 67e2 1f3b 2a3a 4c3c a116 973b
00000340: e8d9 713b 6e20 853b 8a47 9f3c cfa4 ac3c
00000350: 6b18 423c d073 7e3b 46ff 2b3b 4dca a13c
00000360: 9285 403c 103a 263b 601e 08b9 0a86 253b
00000370: 0ee8 c83c a5d2 043c 2e3e c73b 3eda 9c3c
00000380: 9efd 9f3c bcb8 f03b 1c29 383c 0db0 373c
00000390: 4d11 143c 05d5 f13b 57f1 593c fcdb 763c
000003a0: 0316 373c b4c8 053c 9f72 a23b a69d b03b
000003b0: 2bcc 8a3b b2d6 b93a 5a6f cb39 7a20 683a
000003c0: 0002 bd37 b9dd 6eba d6f4 cd39 4019 2f3b
000003d0: 5873 bf3a 18ed 78b9 7400 ee3a 630e b43b
000003e0: b247 743b b854 c439 1504 8ebb 303c a239
000003f0: b6dd 943a 1102 a03b 2234 863b e0d3 203b

momentum_buffer f4 [16]
-9.414973e-05 0.0011102338 -0.002904288 -0.001753918 -0.00196548 -0.0038403724 -0.0001221599 0.00013809663
-0.0035089836 -0.0046026707 0.0005296024 0.0019559423 0.0046689874 -0.00577025 0.00047438813 -0.00035222352
00000000: 4072 c5b8 4485 913a de55 3ebb b9e3 e5ba
00000010: 48cf 00bb c2ae 7bbb 0c18 00b9 08ce 1039
00000020: faf6 65bb 00d2 96bb 04d5 0a3a 442f 003b
00000030: 4efe 983b 5e14 bdbb 4cb7 f839 a4aa b8b9
