best_model/mnist/mnist_model.pt (torch, 543914 bytes, 30 tensors)

0.weight f4 [6, 1, 5, 5]
00000000: 8cce e73e 4595 e53d a9a7 a4be 3fdd c5be
00000010: 9f92 28be b36c 013f 9733 8b3e 6592 6ebe
00000020: 7d46 c2be dccd 48be 6701 e23e fe11 b03e
00000030: c031 3bbe 05ed b8be 87a4 51be d08c cc3e
00000040: 92ce d63e 5cb4 9ebd e965 90be 0f01 fabd
00000050: e339 a93e 9692 d13e 83e5 b93c fb78 dbbd
00000060: 3880 583d 941b 921f b613 8620 8abe 949f
00000070: 90bd 3ea2 0a6b c2a1 8aee 16a1 e2aa 4ba1
00000080: 6de6 3123 72d2 f0a1 ea31 2ba1 6b7d 27a1
00000090: 26d8 3ca2 3d2d a8a1 4803 6321 6a46 c520
000000a0: 2dc0 20a1 853f 36a1 6929 1f21 b45b 5021
000000b0: 6aa0 c420 5476 8ea0 e0ed 7d1f daa5 9e20
000000c0: 0f7e a720 a334 c01f 5ce5 02bf 8ca5 c6be
000000d0: 2d8c 4a3d 2769 ad3e af67 3a3e 0ae4 0cbf
000000e0: b779 5e3d 547c 263f 38d4 053f 0980 b4bd
000000f0: 9b94 3abe e1c0 1f3f 54cd 493f c227 2b3e
00000100: 687b dbbe 9c28 823e 013b 153f 0671 573e
00000110: 20d7 d6be 7f44 00bf 83e5 7a3e d485 56bc
00000120: 0391 c3be f2bf f1be dc7b 91be 3938 02be
00000130: b620 2bbf 2fdf 42bf 6c41 09bf 1f1c d6be
00000140: e424 7a3e 3d43 eabc 73a7 25be 4661 5abe
00000150: 9827 95be 6160 103f aa3f 313f c7c3 2b3f
00000160: f61b cb3e 810d 613d 6001 ac3e 8a72 ef3e
00000170: 6e57 063f c419 ca3e 6473 2d3e 0d79 a0be
00000180: 53be c2be 8084 84be d6af b3bd efff 973b
00000190: c777 c73d b601 893d b23c bebc e8a4 51be
000001a0: fdb9 aabe ae22 00be 0e84 73be 4e52 dbbe
000001b0: 0f2f 01bf 40f2 9cbe c175 c1be 40f9 edbe
000001c0: e6b8 ccbe a981 1fbe eb39 293e 315c e0be
000001d0: 8a7a 86be 42d5 063d a2c8 5d3e 2deb b13e
000001e0: 6427 26be 8a6c 323e 6b39 bf3e c9cf 9f3e
000001f0: c5d0 813e e08f 3a3e 53e4 9a3e d575 c43e
00000200: 7887 c03e 1fa2 d13e 0e4e 853e c6b1 c13e
00000210: 7ccc cb3e 963a c93e f8c6 ed3e 2822 05be
00000220: 5875 9dbd 4ddb 69bd f12d a5bb a978 ef3d
00000230: 07fb d8be 73e2 d9be 3762 e5be fe6b dbbe
00000240: 0783 92be 7dd3 96be 729c 9dbe 9541 adbe
00000250: c505 b2be e45c 72be
0.4527477 0.112101115 -0.32159165 -0.3864536 -0.16462182 0.50556487 0.27187797 -0.23298033
-0.37944403 -0.19609779 0.44141695 0.34388727 -0.18280697 -0.36118332 -0.20472918 0.3995118
0.41954476 -0.077492446 -0.2820275 -0.12207233 0.33051977 0.4093215 0.022692448 -0.107164346
0.052856654 6.187903e-20 2.2713527e-19 -6.299566e-20 -2.5850155e-18 -1.3174284e-18 -5.113768e-19 -6.9005237e-19
9.643984e-18 -1.6318737e-18 -5.8003114e-19 -5.674779e-19 -2.559318e-18 -1.1396097e-18 7.6914934e-19 3.3419694e-19
-5.446445e-19 -6.1748066e-19 5.39261e-19 7.059451e-19 3.3309845e-19 -2.4134039e-19 5.37716e-20 2.6875992e-19
2.837432e-19 8.140224e-20 -0.51131225 -0.38798177 0.04945009 0.33869287 0.18203615 -0.5503546
0.054315295 0.6503346 0.52276945 -0.08813483 -0.18220751 0.62403685 0.7882893 0.16714385
-0.4286759 0.25421607 0.5829316 0.21039209 -0.41961002 -0.50104517 0.24501614 -0.013093431
-0.38196573 -0.47216755 -0.2841481 -0.1271676 -0.6684679 -0.761218 -0.5361545 -0.4181833
0.24428135 -0.028596515 -0.16177158 -0.2132617 -0.2913177 0.5639706 0.6923777 0.6709561
0.3966977 0.05494452 0.335948 0.46767074 0.5247716 0.39472783 0.1693855 -0.31342354
-0.3803583 -0.2588234 -0.087737724 0.004638664 0.097396426 0.066897795 -0.023222301 -0.20473063
-0.33345023 -0.12513229 -0.23780844 -0.4283623 -0.5046243 -0.30653572 -0.37785152 -0.46479225
-0.39984816 -0.15576805 0.16526 -0.43820336 -0.26265365 0.032918222 0.21658567 0.34749737
-0.16225964 0.17424217 0.37348494 0.31213215 0.2535459 0.18218946 0.30252323 0.3837115
0.37603354 0.40944 0.26036114 0.37830943 0.39804447 0.3930251 0.46440864 -0.13001311
-0.07688397 -0.057093907 -0.005040877 0.11692936 -0.4237902 -0.4255558 -0.44801494 -0.4285583
-0.2861559 -0.29458228 -0.3078342 -0.33839098 -0.34770027 -0.23668247

0.bias f4 [6]
00000000: 3ef6 84be b369 67a2 eb47 52be 30f2 103d
00000010: def0 443e 268e 53bd
-0.25969118 -3.1362294e-18 -0.20535247 0.035387218 0.19232509 -0.051649235

3.weight f4 [16, 6, 5, 5]
00000000: 940a b5bd 1a4c dabc dba2 b43d 1cc4 483e
00000010: d039 793e 84c2 a4bd c1ca d5bb 76ab 393e
00000020: 13fa 753e 9e60 423e 8e31 0c3d db1e 383d
00000030: 2835 133e 374f 373e 81ba 0c3e f368 2b3e
00000040: a583 163e 9382 1b3e 95d0 053e 6e58 573d
00000050: 9550 2b3e fa3c 2e3e de36 0c3e 8da2 a13d
00000060: 3275 dcbc 99b0 869f c27f c69f 5bb9 ea1c
00000070: 14e9 f71f 51c8 1220 ee61 61a0 c116 db9f
00000080: 09f2 719f 49ff 111f fe4f 4520 5b07 bba0
00000090: 588d 1ca0 f741 08a0 f233 b79f a62f 5020
000000a0: 4f85 c2a0 b5cc 04a0 89fb 309f fd84 f39f
000000b0: bd40 831f c7a6 1aa0 325f ae9f 91f1 821f
000000c0: 4edf e09f 426c 26a0 b630 b73b 1d86 973d
000000d0: ac3c 273e df1e d73b 1933 e6bd be7c c13d
000000e0: 3598 c53c da19 9bbd ceae a9bd 5ce2 a8bd
000000f0: c339 18bb 0efb 10bd 4da5 16be 4b25 14be
00000100: 9d30 eebd 2ee6 1bbd 9999 eebd cf37 6bbe
00000110: 8ac0 2ebe e522 36be 9a88 d9bd 5418 5cbe
00000120: b100 3fbe cf1b fcbd d2f8 69be 5a24 0d3e
00000130: ef63 363d 0c6d 98bd 9032 52bd 35f9 df3d
00000140: a243 ff3c 43d1 64bd 7a4c cbbd a472 adbd
00000150: fdc5 543d 094e 59be 21bd 3cbe bdd9 cabd
00000160: 7a8d 15bd 5033 963c 6b68 1cbe dc8b 3bbe
00000170: 54d9 c4bd 5452 6fbd 55ef 823c d9d2 23bd
00000180: 023a fa3b 917a 8abc dea0 cabc 946a 67bd
00000190: 8d97 913d 1122 19b7 8a6e 42bd 013e 87bc
000001a0: ca1d a4bc 3f9a 8e3c 91f2 0fbd fb7b 60bd
000001b0: 5f2d 32bd 519d 5fbd 52c3 0bbd 4b2a 81bd
000001c0: 1c48 95bd 3e0f 83bd b920 92bd 40e0 bdbd
000001d0: 3751 a4bd 1786 babd eac7 c8bd 6b80 86bd
000001e0: cfaa c2bd 64bb b6bd e56c a5bd 1aba b2bd
000001f0: 1474 ccbc 2e1a 883d 92c0 e13d 4386 c63d
00000200: f2be 4b3d 0365 333d 5fc4 3a3e acbd 053e
00000210: ef2d 2a3d e082 6abc a416 3e3d e3fa ac3b
00000220: 3aa3 1c3d 7d1a 293d f2bc 253c cc5d cf3c
00000230: 5c75 1bbe 8c12 3dbc e46e 9d3d a954 a23d
00000240: 81a1 cb3c 222d d5bd 8454 12bd 68e3 55bb
00000250: afd2 423d 1f57 863d 766f 8bbc b5e4 fbbd
00000260: 524a 81bd 2171 2d3e c34b 733e 2371 963d
00000270: d395 6fbd a90c 43bd a2d5 683e 59a6 b93e
00000280: 9c68 d63d f078 b5bc 2b5f 1ebd 7310 963e
00000290: bc73 a83e 9986 c93d 3965 b33b 09cb a0bc
000002a0: 3e14 8a3e 6562 683e f712 1d3e 7acd c2bb
000002b0: db5c 623b cdad ba3d a0f9 a33d 5bd3 ff9e
000002c0: 8417 ed1d 1bf8 9320 64e7 3d20 1153 2820
000002d0: 0f21 7b1e 123b 25a0 df5c df1f 18e6 0f20
000002e0: 6e28 b420 2548 bb1f 942c 57a0 32c6 bb1f
000002f0: 5976 7320 163d f020 8d19 f91d ecb2 c2a0
00000300: 7f1d 1a20 9d19 2620 39e7 0620 7268 aba0
00000310: 6a8a 83a0 0fda 069e 3034 141f e67b ad1e
00000320: f6c8 b1bd e3c2 0abe 266f fdbd 62be fdbc
00000330: 4300 0b3c 4441 4dbc 7c34 05be bdd2 c3bd
00000340: fd74 1d3d 2592 613d 91fb be3d c293 06be
00000350: ef90 a1bd d4ed 8f3c 4a47 293d aa5d 5e3d
00000360: 5e38 6ebe bc23 50bd 9db6 983b 9fcc b93a
00000370: b3b4 dabd 600c f9bd 9ae9 0d3d 4477 13bd
00000380: 991b b93d fadf 32be 4a59 56be d3bf 0fbe
00000390: 1154 033c a9d1 89bc 5441 5cbc d529 cbbd
000003a0: 7149 22be 7165 6abd bab0 37bd 7a00 1e3e
000003b0: 9963 5dbc 4d8d 2bbe d844 46be 19dd cabd
000003c0: 1021 863d 6548 dabd 472c 82be ade4 1dbe
000003d0: 0ba8 8cbd 0534 2d3d 8c7a f8bc 1adb ecbd
000003e0: 8f43 59bd 3187 783d 4bb4 513d f305 503d
000003f0: c2f5 b83d a34e 5f3d 5cf9 87bd 207f 3b3d
-0.08839908 -0.026647616 0.08820125 0.1960606 0.2433846 -0.080449134 -0.0065244143 0.18131813
0.24021177 0.18982169 0.034226947 0.0449513 0.14375746 0.17901312 0.1374302 0.16739254
0.14698656 0.15186529 0.13067849 0.052574567 0.16729958 0.17015448 0.13692805 0.07892332
-0.026911352 -5.7043364e-20 -8.406762e-20 1.5532734e-21 1.04994164e-19 1.243296e-19 -1.9090644e-19 -9.278775e-20
-5.1233942e-20 3.091611e-20 1.6713016e-19 -3.16839e-19 -1.3260481e-19 -1.1541474e-19 -7.758945e-20 1.7634051e-19
-3.2953095e-19 -1.1248567e-19 -3.7477515e-20 -1.03134514e-19 5.558776e-20 -1.309949e-19 -7.3849354e-20 5.545678e-20
-9.5237117e-20 -1.4096566e-19 0.0055905236 0.07398627 0.16331738 0.0065649594 -0.11240215 0.09447621
0.02412043 -0.0757329 -0.082852945 -0.082462996 -0.0023227788 -0.035395674 -0.14711495 -0.14467351
-0.11630366 -0.038061313 -0.1165039 -0.22970508 -0.17065635 -0.17786749 -0.10621758 -0.21493655
-0.18652608 -0.123099916 -0.22848824 0.13783398 0.044528898 -0.07442674 -0.05131775 0.10936204
0.03116018 -0.05586363 -0.09926696 -0.084691316 0.05194663 -0.21221174 -0.18431522 -0.099048115
-0.036511876 0.018335015 -0.15274207 -0.18315071 -0.096117646 -0.058428124 0.015983263 -0.039996002
0.0076363096 -0.016904147 -0.02473491 -0.056498125 0.07108984 -9.127442e-06 -0.0474687 -0.016509058
-0.020033736 0.017407535 -0.03514344 -0.054805737 -0.0435003 -0.054593388 -0.03412182 -0.06306895
-0.072891444 -0.063993916 -0.071351476 -0.09271288 -0.08023303 -0.09107607 -0.098037556 -0.065674625
-0.095052354 -0.08922461 -0.080774106 -0.08726902 -0.024957694 0.066456184 0.11023058 0.09693577
0.049742647 0.043797504 0.18238972 0.13060635 0.041547712 -0.01431343 0.04640831 0.0052789315
0.038241602 0.041285027 0.010115849 0.02531328 -0.15181488 -0.011540066 0.07687166 0.07926304
0.024857285 -0.10408999 -0.03572513 -0.0032636765 0.047564205 0.06559586 -0.017020922 -0.12299482
-0.063130036 0.16937687 0.2375937 0.07345798 -0.058492493 -0.047619496 0.22737744 0.36259726
0.104691714 -0.022152394 -0.038664978 0.29309425 0.32900798 0.098401256 0.005474713 -0.019628065
0.2696857 0.22693785 0.15339266 -0.005944905 0.003454021 0.09115181 0.080065966 -2.708659e-20
6.2757692e-21 2.506695e-19 1.6085483e-19 1.4257638e-19 1.3294666e-20 -1.3995588e-19 9.4597816e-20 1.2188703e-19
3.051994e-19 7.9316934e-20 -1.8225958e-19 7.952547e-20 2.0622059e-19 4.0698005e-19 6.593617e-21 -3.298328e-19
1.3054067e-19 1.4069222e-19 1.1426747e-19 -2.9037643e-19 -2.2283858e-19 -7.138994e-21 3.1383388e-20 1.836833e-20
-0.086809084 -0.13550906 -0.123747155 -0.03097457 0.008483949 -0.012527768 -0.13008302 -0.095616795
0.038441647 0.055071015 0.09325326 -0.13142303 -0.07888972 0.01756946 0.041327752 0.054288544
-0.2326369 -0.05081533 0.004660441 0.0014175362 -0.10678997 -0.121605635 0.034646608 -0.036002412
0.09038467 -0.17468253 -0.20932499 -0.14038019 0.008015648 -0.016823607 -0.01344331 -0.09920088
-0.15848328 -0.05722565 -0.044846274 0.1542987 -0.013512515 -0.1675312 -0.193622 -0.09905452
0.06549275 -0.106583394 -0.25424406 -0.15419264 -0.06867989 0.042285938 -0.030331872 -0.11565228
-0.053042945 0.060675804 0.05119733 0.050786924 0.090312496 0.054518353 -0.066393584 0.045775533

3.bias f4 [16]
00000000: fcd8 af3c fe8c 923d eb6d 0296 7596 65bd
00000010: d2e1 f43a 36ef 0780 4b73 d33d 809a 883d
00000020: 770d dd3c f68c a43d 59f7 0680 f18b eb3c
00000030: 4c09 d8aa 4b1c be3c d68f 55a5 5181 3dbc
0.02146577 0.071557984 -1.0536e-25 -0.05605169 0.0018683022 -7.28661e-40 0.10324725 0.066700935
0.02698396 0.08034699 -6.39745e-40 0.028753253 -3.837576e-13 0.02320685 -1.8523539e-16 -0.011566476

7.weight f4 [120, 256]
00000000: c470 6300 91ab 7480 9f75 d280 39b7 3080
00000010: de5b 1181 3341 a301 4cde 3c90 8ce1 d289
00000020: dfaa de00 8900 bb80 3c19 7e89 dca6 f313
00000030: 7c06 cb00 8c1c 6503 d102 22a0 3461 b982
00000040: c977 ee80 377d e90f 5871 5308 4662 3f84
00000050: b80f 1809 5c3a b215 edd1 4989 fb6d c680
00000060: 22f0 2582 b95f bd99 d94e 390e b7a9 de00
00000070: 5a62 e000 fb77 5f8f 85d6 e280 430b a700
00000080: 3dd8 0000 944c 0080 caeb 0000 1471 0080
00000090: ea08 0000 f701 0000 d446 0100 9205 0100
000000a0: b965 0080 ba3f 0000 3fc1 0080 e206 0180
000000b0: 8efd 0080 67c3 0080 d031 0100 06bc 0000
000000c0: 4b5c de13 fce1 fd07 a598 d900 6565 d480
000000d0: ba93 a0a2 d560 760a decb a381 ccdf a281
000000e0: 4938 6d9d 8899 4c04 2458 d480 70e2 fb80
000000f0: 29c0 5199 4c4c fc04 bce7 9d03 d68f c203
00000100: 4129 ab0e 4eeb a401 1ee1 1681 2e9f 4300
00000110: 72bb 8a86 9cb5 c080 04cb dc00 e6bc 0316
00000120: bc2c e400 0ed2 c080 8221 a70b e301 f7a5
00000130: 0aa5 9b00 e2c8 6b8f d5b9 dba5 10c7 64a4
00000140: a5e9 0080 4556 0080 b899 4580 c066 0000
00000150: 975d 0200 3593 0180 a811 ee00 658c 0200
00000160: c290 9680 f07d 0080 8c52 0000 42cc 0280
00000170: 9857 8300 bc24 9400 38cc 4100 bfef 0280
00000180: e2c5 d080 b03b a485 add8 5a90 6eab 0f9c
00000190: 1d37 9800 e963 289b f826 969e adfc e080
000001a0: cbc1 f79d 3eaf bc9e 5a95 ab06 bf0b cf80
000001b0: dfb2 a781 361d 2484 f979 cd83 e66a d280
000001c0: e376 2600 74a9 0d80 74cc a481 9363 29a1
000001d0: 7403 1e00 8341 1201 6aae e880 19f5 109d
000001e0: 0559 ca00 6665 0d00 c637 0a01 c682 849d
000001f0: a9d7 9a80 00e5 1581 0c85 b480 a91b 6c0f
00000200: fe0d a681 7061 d40f 413f f203 8a60 468c
00000210: 62bb 2b83 d6f8 2304 dd2f fd12 a400 a681
00000220: 6b2c e300 7e2d 8398 2454 9509 0498 9980
00000230: ef9f 820c 8bfd eb00 128e 6c80 37c5 ac00
00000240: 93a2 ba82 9bf7 1a86 0cdd 1a80 0bcb e280
00000250: 879a a08c 232d 0510 9c41 8200 9ccf ae00
00000260: 0407 0b82 51f2 9a03 4d63 c780 26fb 6880
00000270: fb20 938b 5e29 0289 d524 a803 c686 1001
00000280: 3c92 2c80 9de2 5480 f7e9 4580 1ccb 9a80
00000290: 4445 2180 b6dd 6c00 c8c5 c800 0031 f700
000002a0: 7046 0080 fad5 4601 63ec 5501 4580 6201
000002b0: c49b 4c80 2893 4681 40f0 aa80 613e 7681
000002c0: 390b b500 359b af07 6895 fb9d ea82 1c9c
000002d0: 62d8 5b80 9904 9800 3d0e ad88 8839 7e07
000002e0: 0c4b 0f80 538b b400 87a4 4c02 305e c400
000002f0: bbd0 4080 157e c400 c30f 0c0a 9e1f d400
00000300: 6c97 1e01 f0eb 0000 603c 0180 ac7e 0180
00000310: da9a 0781 f50a 0180 6f81 0100 beec 0000
00000320: 6cbc 8b80 4896 0080 7f66 0000 d958 0180
00000330: a260 0080 bdc6 0000 1534 0100 3f1c 0000
00000340: 7db6 e100 cf52 7e13 13f8 519b 9c6a a401
00000350: a817 c380 c14f 080f d0f2 1103 53e3 4900
00000360: 135d e380 3bc5 c007 706c cd00 52a5 5980
00000370: 1023 0387 dd5c 078d 38f3 4c82 543b be00
00000380: c52f 0280 5de1 9481 3aa2 b001 38a3 3900
00000390: c26a 0380 c01b ad80 4054 df80 f282 3c80
000003a0: d8f2 6f81 175d 8181 6914 a601 5e21 8c80
000003b0: da3d 4081 549a 0a01 74da 3c00 81d3 0080
000003c0: 1920 0300 12b9 e289 9b00 7999 5689 e50d
000003d0: 49c5 6900 b522 6e00 d86f 0900 09d1 4f80
000003e0: 2a5b 7100 f262 b282 1656 7702 1844 d300
000003f0: 750c 1180 902c 7d00 70e2 b600 2b81 e300
9.132167e-39 -1.0714464e-38 -1.9327649e-38 -4.473832e-39 -2.6698205e-38 5.99703e-38 -3.7247714e-29 -5.0767764e-33
2.0448777e-38 -1.717343e-38 -3.0586003e-33 6.150636e-27 1.8644932e-38 6.732982e-37 -1.3722866e-19 -2.7239099e-37
-2.1899819e-38 2.3023805e-29 6.362874e-34 -2.2497067e-36 1.8303725e-33 7.19857e-26 -2.4293202e-33 -1.8222882e-38
-1.21912e-37 -1.9580804e-23 2.2840974e-30 2.0448362e-38 2.0606433e-38 -1.1017856e-29 -2.0831777e-38 1.5340568e-38
7.7572e-41 -2.7471e-41 8.4585e-41 -4.0565e-41 3.198e-42 7.05e-43 1.17244e-40 9.3834e-41
-3.6491e-41 2.2861e-41 -6.9324e-41 -9.4305e-41 -9.0958e-41 -7.0097e-41 1.09705e-40 6.745e-41
5.6131687e-27 3.820003e-34 1.9983061e-38 -1.9505499e-38 -4.35245e-18 1.1862681e-32 -6.016928e-38 -5.9830534e-38
-3.1395788e-21 2.4050583e-36 -1.9500744e-38 -2.313194e-38 -1.0843853e-23 5.9314983e-36 9.280834e-37 1.1435318e-36
4.219448e-30 6.058173e-38 -2.7712163e-38 6.210081e-39 -5.2185257e-35 -1.7697564e-38 2.0276637e-38 1.0641702e-25
2.0954541e-38 -1.7707769e-38 6.437648e-32 -4.2848948e-16 1.4293707e-38 -1.1625083e-29 -3.811637e-16 -4.960823e-17
-8.3816e-41 -3.0948e-41 -6.391793e-39 3.686e-41 2.17245e-40 -1.44643e-40 2.1863182e-38 2.34035e-40
-1.3827254e-38 -4.5178e-41 2.9612e-41 -2.56945e-40 1.2061873e-38 1.3604831e-38 6.042567e-39 -2.69676e-40
-1.917277e-38 -1.5444412e-35 -4.315984e-29 -4.75363e-22 1.3978766e-38 -1.3928917e-22 -1.5897985e-20 -2.0661794e-38
-6.5580733e-21 -1.9977753e-20 6.4542503e-35 -1.9014161e-38 -6.160278e-38 -1.929152e-36 -1.2076821e-36 -1.9323802e-38
3.532397e-39 -1.25465e-39 -6.053746e-38 -5.7391213e-19 2.756304e-39 2.6862967e-38 -2.1368403e-38 -1.9184954e-21
1.8582704e-38 1.230236e-39 2.5386612e-38 -3.5075326e-21 -1.422003e-38 -2.7531277e-38 -1.6578118e-38 1.16410255e-29
-6.099885e-38 2.0942346e-29 1.4238004e-36 -1.5282416e-31 -5.046749e-37 1.9274818e-36 1.5978344e-27 -6.097969e-38
2.0862592e-38 -3.390864e-24 3.594957e-33 -1.4105364e-38 2.0125928e-31 2.1672296e-38 -9.969199e-39 1.5866453e-38
-2.7423557e-37 -2.9146093e-35 -2.46702e-39 -2.082766e-38 -2.4744906e-31 2.6264397e-29 1.1962151e-38 1.6053853e-38
-1.021412e-37 9.10694e-37 -1.8310886e-38 -9.640987e-39 -5.6671964e-32 -1.5667632e-33 9.882609e-37 2.6545318e-38
-4.093221e-39 -7.795475e-39 -6.42058e-39 -1.4215528e-38 -3.055419e-39 9.997768e-39 1.843805e-38 2.2700945e-38
-2.5268e-41 3.6520377e-38 3.929152e-38 4.1601673e-38 -7.035376e-39 -3.6472436e-38 -1.569822e-38 -4.522782e-38
1.6626251e-38 2.6422296e-34 -6.659363e-21 -5.1785273e-22 -8.434654e-39 1.3960645e-38 -1.0415406e-33 1.9125743e-34
-1.404454e-39 1.658037e-38 1.503477e-37 1.8033545e-38 -5.95235e-39 1.8044987e-38 6.743719e-33 1.9480467e-38
2.9128657e-38 8.4638e-41 -1.13494e-40 -1.37277e-40 -2.4906685e-38 -9.5766e-41 1.38268e-40 8.4927e-41
-1.2832727e-38 -5.3911e-41 3.6769e-41 -1.23708e-40 -3.4665e-41 7.1294e-41 1.10519e-40 1.0133e-41
2.0728451e-38 3.2100135e-27 -1.7368232e-22 6.039706e-38 -1.7916408e-38 6.720678e-30 4.2890405e-37 6.78554e-39
-2.0880046e-38 2.900487e-34 1.8865177e-38 -8.232665e-39 -9.865649e-35 -4.1711867e-31 -1.5057353e-37 1.7470027e-38
-2.00807e-40 -5.4689994e-38 6.4884973e-38 5.293175e-39 -3.13804e-40 -1.5897496e-38 -2.0509539e-38 -5.557104e-39
-4.40716e-38 -4.7520693e-38 6.1008057e-38 -1.286894e-38 -3.5309207e-38 2.5457322e-38 5.588496e-39 -7.5873e-41
2.87021e-40 -5.458156e-33 -1.28731206e-23 1.4146277e-30 9.7135e-39 1.0114355e-38 8.66641e-40 -7.329992e-39
1.0410115e-38 -2.6211541e-37 1.81714e-37 1.9401717e-38 -1.565672e-39 1.1495423e-38 1.6795291e-38 2.0892994e-38

7.bias f4 [120]
00000000: 4ff5 3509 c5f8 0000 e121 0380 3cf6 a9bc
00000010: 99f1 3280 f790 0780 a8da 0480 2296 0280
00000020: 03b2 1102 0e0c 1280 bb60 0500 cecb 0491
00000030: 20be 4abd ca3f 0480 2005 013c ce6d 0f80
00000040: 7585 1c85 e08b 0b0a 9804 7f00 3039 0180
00000050: f58f 0280 8ffc 0100 07a9 3883 2542 3700
00000060: 3f7b 0c00 54bd 7b80 7406 2b80 bc0f 043c
00000070: 3a80 0d00 437f 0c00 c2a1 0400 9b88 5d00
00000080: d9cc 8a3d c864 0e80 e894 bc82 3680 0880
00000090: ef30 0080 2e56 1000 2055 0980 3411 0980
000000a0: 0868 8981 5e86 7080 7151 dc3d b43c 0300
000000b0: 9a02 8e0d 488a 8180 fd3d 93bc dddf 519e
000000c0: aa64 1bbc adfb 0100 c64c ab81 aab7 0f00
000000d0: 2cb1 8b3a c17a b4bc f6bd 0200 8718 0300
000000e0: 9103 343d 3407 4a89 23bf 0780 117b 1880
000000f0: a51d 1d04 ca4e b201 974c 2b8c 35d0 0580
00000100: d065 0080 2c44 bb82 15c0 2d84 15fd 0680
00000110: 920b 0500 c5fa b60d 6db2 e706 3636 0c80
00000120: 9927 2d00 4964 4498 6252 0080 9d88 2300
00000130: 6caa 1300 bfcf 4200 e43f 9b9d 243f 86ba
00000140: c1ac 5580 a33d 0000 9d83 0480 4119 0200
00000150: 2dd8 1d80 f30f 1000 4922 0680 f9c1 0280
00000160: a957 2380 7d2d 2000 c43f 3900 811e 0a80
00000170: 96bf 0001 701a 0881 92b4 b185 d5fb 4b00
00000180: 7061 3280 2d4d 0f81 bb20 0200 b2b8 0f80
00000190: 70c9 0200 bbad 3d00 f520 1307 7ac8 91a3
000001a0: e097 1e80 8236 4600 c1e5 0300 0e08 0080
000001b0: 2601 3a00 c5b1 3300 9ada 2800 fded 1980
000001c0: 797d 0380 6e46 0100 99ad 1e85 d0cf 0680
000001d0: 174e 1980 b81d 5080 970a 1e80 6851 0680
2.1902426e-33 8.9242e-41 -2.8766e-40 -0.020747297 -4.678444e-39 -6.94852e-40 -4.45781e-40 -2.37528e-40
1.0704004e-37 -1.657363e-39 4.93878e-40 -1.0475766e-28 -0.049497724 -3.90225e-40 0.007874757 -1.416923e-39
-7.359597e-36 6.718914e-33 1.1664756e-38 -1.1235e-40 -2.35313e-40 1.82436e-40 -5.4266774e-37 5.07468e-39
1.146238e-39 -1.1363684e-38 -3.951241e-39 0.008060392 1.23986e-39 1.147679e-39 4.2537e-40 8.589706e-39
0.06777353 -1.32185e-39 -2.7709585e-37 -7.80677e-40 -1.7554e-41 1.500283e-39 -8.57057e-40 -8.32691e-40
-5.047513e-38 -1.0333777e-38 0.10757721 2.97283e-40 8.752052e-31 -1.1896385e-38 -0.017973894 -1.1110662e-20
-0.009484449 1.8212e-40 -6.2925644e-38 1.443419e-39 0.001065766 -0.02203119 2.51816e-40 2.84305e-40
0.043948714 -2.4318252e-33 -7.11415e-40 -2.2482e-39 1.8468873e-36 6.549993e-38 -1.3196409e-31 -5.33868e-40
-3.6523e-41 -2.751631e-37 -2.0424252e-36 -6.41802e-40 4.63328e-40 1.1276987e-30 8.7154716e-35 -1.121473e-39
4.146802e-39 -2.5383037e-24 -2.9553e-41 3.26325e-39 1.80601e-39 6.135668e-39 -4.109422e-21 -0.0010242206
-7.86799e-39 2.2111e-41 -4.14556e-40 1.9273e-40 -2.740779e-39 1.47509e-39 -5.63312e-40 -2.53255e-40
-3.245689e-39 2.955054e-39 5.257498e-39 -9.29298e-40 2.3647343e-38 -2.4998223e-38 -1.6711331e-35 6.978003e-39
-4.626729e-39 -2.6320323e-38 1.95412e-40 -1.443789e-39 2.55933e-40 5.664288e-39 1.1068736e-34 -1.5805837e-17
-2.809547e-39 6.448038e-39 3.57927e-40 -2.89e-42 5.326871e-39 4.747382e-39 3.75184e-39 -2.381262e-39
-3.20518e-40 1.17101e-40 -7.461009e-36 -6.25562e-40 -2.323901e-39 -7.357501e-39 -2.758864e-39 -5.80216e-40

9.weight f4 [84, 120]
00000000: 793d 0100 af4f 0080 ec64 2b80 c80e 0680
00000010: ded3 0080 205b 5500 7f89 7800 5596 0100
00000020: 722e 5f80 94e5 0200 4ea7 2101 899b 1400
00000030: 8e73 0680 77c7 7400 8c9f 0180 4089 0080
00000040: 9ad1 0180 9d1c 0280 e77e be00 2300 0180
00000050: bb80 0380 1f69 0280 8e8c 7600 7672 0380
00000060: 823f 7080 a913 4800 9505 0300 e7ba 0080
00000070: 6617 2500 0373 0180 1c32 0300 7daa 0380
00000080: b269 0180 29b6 6380 4eef 1600 f930 9900
00000090: fbc9 2380 3dfa 9100 c710 4700 a0de 0300
000000a0: 32cc 0180 7cd9 0280 504a 0380 3c0c 0381
000000b0: 9ccb 0280 9b74 3e80 1ada 0680 93dd 1300
000000c0: 75ac 0780 d49c 0200 44e2 0000 3702 6100
000000d0: 67cb 0000 faae 0100 4c37 4b00 185f 0200
000000e0: 22c3 0080 56ae 6880 df99 0480 4748 af80
000000f0: 0c96 bd80 8c0c 0180 f5df 0480 0692 0480
00000100: 4bcf 0000 a4ed 7b80 6449 7a00 af57 1480
00000110: eb21 4e00 5612 0100 e8e7 9f80 308e 0080
00000120: 6317 0480 ea53 4480 f9d6 8780 90a9 0400
00000130: 713b 3b00 2fce 0100 044c 9c80 63d6 0400
00000140: da2e a100 5b14 0380 7c01 9800 a1e7 6900
00000150: 9ee8 0380 017c 1700 a852 5580 ff77 1580
00000160: aba5 0300 aa4f 0300 dba7 2400 27d3 0280
00000170: 4152 0400 922b 0280 771c 2e00 da24 0180
00000180: a272 0200 cade 0300 de38 4900 05f0 2200
00000190: df16 7100 fbd0 1880 2bdc 4d80 5413 2500
000001a0: e84a 4c80 cd21 0180 ba63 0280 6847 0080
000001b0: 7d76 4d80 6f06 0400 af0d 0580 75f4 0780
000001c0: f5e5 1400 b94b 7400 5843 0300 54ed 0400
000001d0: 3afe 0080 4cb9 0180 0482 3480 8b1f 9700
000001e0: 777e 5500 ef2c 0000 1351 4a00 3115 1d80
000001f0: d308 0e80 8312 0380 9882 0380 21c5 0300
00000200: 281c 7a00 2642 0780 4f0d 2e80 b59d 0800
00000210: 13f3 4280 63ef 1100 05d4 0680 00d8 0080
00000220: b054 0500 2cc4 0580 0f09 0000 6110 0080
00000230: 2443 e580 0a75 0200 3014 0501 1c31 8900
00000240: 4456 2600 bf02 0180 9cb7 ee00 42a2 4280
00000250: 88fe 1000 5572 9080 1276 0000 00be 0580
00000260: 5cc9 4280 ecf2 b300 fe5d 8680 4a32 9280
00000270: 4cf7 2c80 b881 5480 5d31 2580 751a 1280
00000280: 5015 1080 ab9b 0780 a907 ae80 2e63 8980
00000290: 5a87 4280 6257 0a00 a5f7 1a80 d4e9 3480
000002a0: 2b92 1380 c428 0100 1637 dd00 632b 5080
000002b0: 10be 1180 f60f 1280 8ec2 b300 a006 ac80
000002c0: c987 1080 dcac 3900 efb7 1781 7729 1581
000002d0: c2a5 0a80 9e7b 6b80 0c4e 0100 9cd9 4d00
000002e0: e3a1 0080 d2f9 9d80 a092 da80 d424 0780
000002f0: f6f8 ea00 3ceb 3b80 b47c 0980 8bbd 2580
00000300: e478 0880 a6c7 8a80 e3f7 2580 3949 0600
00000310: d3c5 0480 a4e9 f300 aa5f 6180 c3a4 4380
00000320: 822e 0881 16b1 0580 b490 0a00 bee4 5080
00000330: 9eda 4100 9e40 0180 b1c1 0b80 46bd 0380
00000340: a0bc 6b00 4426 0900 e110 a800 d277 0480
00000350: 9b95 0080 b873 4e00 a5a8 1e80 788e 0a01
00000360: 0fcc 0280 f17f 7500 d470 ab80 6c4a 3000
00000370: 66bf 2180 90ed 0e80 1002 4c01 d450 1500
00000380: 1600 2181 6c6f 3881 b0df 0400 2861 9480
00000390: 701e 3500 1a11 0080 8089 4580 ee69 7b00
000003a0: df82 2c00 5519 3400 d1f0 0480 d907 0200
000003b0: 7fe1 3d80 abbd 7a00 14d4 b100 3a44 0700
000003c0: f83e 2f00 a67c 0000 6a7a d900 0ebe d796
000003d0: a404 3780 e74e 0200 329f 1f81 8ef8 0480
000003e0: b8bf cf00 8e1c 0680 ac77 9600 0430 ae80
000003f0: f7ab d816 c495 9c80 f28f 759e ca33 7300
1.13888e-40 -2.8585e-41 -3.98513e-39 -5.56315e-40 -7.6004e-41 7.838707e-39 1.1069584e-38 1.45764e-40
-8.741034e-39 2.66028e-40 2.9691065e-38 1.892505e-39 -5.92466e-40 1.0724472e-38 -1.4907e-40 -4.9236e-41
-1.67026e-40 -1.93936e-40 1.7494268e-38 -9.1885e-41 -3.21686e-40 -2.21381e-40 1.088701e-38 -3.16567e-40
-1.0308358e-38 6.619208e-39 2.77509e-40 -6.7048e-41 3.406307e-39 -1.33094e-40 2.93482e-40 -3.36666e-40
-1.29752e-40 -9.157061e-39 2.106227e-39 1.4068399e-38 -3.2867e-39 1.3405916e-38 6.526339e-39 3.55369e-40
-1.65087e-40 -2.6169e-40 -3.02165e-40 -2.4069678e-38 -2.56712e-40 -5.735631e-39 -6.29253e-40 1.82436e-39
-7.04714e-40 2.3993e-40 8.1169e-41 8.908838e-39 7.2967e-41 1.54605e-40 6.907499e-39 2.17784e-40
-7e-41 -9.613432e-39 -4.2254e-40 -1.609714e-38 -1.7410735e-38 -9.6336e-41 -4.47683e-40 -4.19725e-40
7.4363e-41 -1.1381015e-38 1.1230258e-38 -1.868165e-39 7.175336e-39 9.8413e-41 -1.4685036e-38 -5.1007e-41
-3.75732e-40 -6.274916e-39 -1.247491e-38 4.2817e-40 5.439618e-39 1.658e-40 -1.4353607e-38 4.4425e-40
1.4802322e-38 -2.82809e-40 1.3959528e-38 9.72582e-39 -3.58954e-40 2.1567e-39 -7.835669e-39 -1.971592e-39
3.34937e-40 3.04085e-40 3.366293e-39 -2.59418e-40 3.96849e-40 -1.99301e-40 4.234644e-39 -1.05055e-40
2.24793e-40 3.55428e-40 6.724391e-39 3.20851e-39 1.0385616e-38 -2.27902e-39 -7.150315e-39 3.404847e-39
-7.006369e-39 -1.03961e-40 -2.19446e-40 -2.5616e-41 -7.113839e-39 3.6965e-40 -4.64086e-40 -7.30543e-40
1.919203e-39 1.0680082e-38 2.99665e-40 4.52479e-40 -9.12e-41 -1.58307e-40 -4.822087e-39 1.3878475e-38
7.851384e-39 1.6119e-41 6.82491e-39 -2.670831e-39 -1.288862e-39 -2.82147e-40 -3.22355e-40 3.46223e-40
1.1214031e-38 -6.66578e-40 -4.229207e-39 7.91259e-40 -6.148341e-39 1.647079e-39 -6.27071e-40 -7.7486e-41
4.89558e-40 -5.2955e-40 3.25e-42 -5.876e-42 -2.1054414e-38 2.25657e-40 2.4442726e-38 1.259908e-38
3.520695e-39 -9.282e-41 2.1922715e-38 -6.11935e-39 1.560677e-39 -1.3265326e-38 4.2356e-41 -5.27337e-40
-6.133377e-39 1.6525698e-38 -1.2339675e-38 -1.3426023e-38 -4.129475e-39 -7.760716e-39 -3.415622e-39 -1.66253e-39
-1.477013e-39 -6.98692e-40 -1.5982124e-38 -1.2617042e-38 -6.109698e-39 9.49702e-40 -2.476561e-39 -4.859328e-39
-1.79731e-39 1.0646e-40 2.0315406e-38 -7.362404e-39 -1.629385e-39 -1.658765e-39 1.6508347e-38 -1.5798082e-38
-1.518078e-39 5.296634e-39 -2.7866286e-38 -2.7396727e-38 -9.77818e-40 -9.870744e-39 1.19833e-40 7.149397e-39
-5.8074e-41 -1.4507792e-38 -2.0072737e-38 -6.5606e-40 2.1578816e-38 -5.50268e-39 -8.71255e-40 -3.465909e-39
-7.78051e-40 -1.2744919e-38 -3.486838e-39 5.7728e-40 -4.38308e-40 2.239984e-38 -8.942361e-39 -6.212084e-39
-2.5012623e-38 -5.22704e-40 9.70265e-40 -7.428897e-39 6.047732e-39 -1.15016e-40 -1.079674e-39 -3.43405e-40
9.894064e-39 8.40247e-40 1.5434418e-38 -4.10325e-40 -5.3668e-41 7.204681e-39 -2.815563e-39 2.5448813e-38
-2.56873e-40 1.079065e-38 -1.5744345e-38 4.434801e-39 -3.099232e-39 -1.370918e-39 3.7470362e-38 1.957541e-39
-2.9571091e-38 -3.3875404e-38 4.47586e-40 -1.3626507e-38 4.8782e-39 -6.135e-42 -6.385975e-39 1.1333766e-38
4.08771e-39 4.784533e-39 -4.5373e-40 1.86486e-40 -5.682858e-39 1.127197e-38 1.6330962e-38 6.67324e-40
4.338857e-39 4.4715e-41 1.9972217e-38 -3.4855065e-25 -5.052617e-39 2.11976e-40 -2.9317905e-38 -4.56507e-40
1.9078723e-38 -5.61256e-40 1.3818255e-38 -1.5996601e-38 3.5005207e-25 -1.4380063e-38 -1.2999959e-20 1.057966e-38

9.bias f4 [84]
00000000: 2527 0480 61c9 0600 374b 8a93 a635 0700
00000010: a5d7 2280 8d64 0480 16de ef3b 69d9 1800
00000020: 0845 0500 29a3 823c ca09 5f3a bd66 1d80
00000030: e309 a60c f4c0 0280 168a ad3b 64c6 0c00
00000040: 4342 0680 032f 5882 4046 0b80 088b 0880
00000050: 20bb f03a 2a34 4400 ab83 0f80 d9e4 583c
00000060: 0d13 0b00 c8b5 9103 ce6a 0180 0253 1500
00000070: 5040 1780 a89c 0500 334a 0280 e9e9 0a3d
00000080: 482b 8981 646a 123d b654 ee01 66a2 0b80
00000090: bab2 0000 e36c 0d80 4868 0b3c d122 0480
000000a0: c51f 2e00 da59 0100 4edf a13a 797a 1200
000000b0: ad22 903d f187 0c00 34de 1980 c6e7 2f3c
000000c0: 0271 da38 cfa3 1a80 b4db 1080 4528 0000
000000d0: ae9d 0080 0589 913c 9bf0 1480 3415 103d
000000e0: a170 693a be86 0180 ba7b 0000 68bc 1c80
000000f0: 9033 063d af59 a282 8c29 0500 6f86 2283
00000100: a3cd 0080 f14e e93c 1169 0380 8299 f617
00000110: e35c 0102 f642 1a1a fb0f 0d80 bf16 0300
00000120: 94c9 0880 4980 0a3d 1ff3 0380 afd0 0500
00000130: 68a9 1680 8312 e73a 566d 1080 9f4f 0000
00000140: 3a0c 8f88 a506 0780 64a2 3f3d fba5 f221
-3.81384e-40 6.23254e-40 -3.4910265e-27 6.62094e-40 -3.199766e-39 -4.03413e-40 0.007320176 2.282044e-39
4.83941e-40 0.015946941 0.00085082336 -2.700085e-39 2.55823e-31 -2.5289e-40 0.005296002 1.173195e-39
-5.74783e-40 -1.5882665e-37 -1.035391e-39 -7.84559e-40 0.0018366314 6.263527e-39 -1.424766e-39 0.013238155
1.017025e-39 8.564069e-37 -1.3015e-40 1.958323e-39 -2.135287e-39 5.15375e-40 -2.10289e-40 0.03391448
-5.038796e-38 0.035745993 8.7548947e-38 -1.068448e-39 6.4115e-41 -1.232923e-39 0.008508749 -3.79832e-40
4.23583e-39 1.24068e-40 0.0012349875 1.696974e-39 0.07037864 1.150793e-39 -2.375599e-39 0.010736411
0.000104160994 -2.446486e-39 -1.548183e-39 1.4446e-41 -5.6565e-41 0.017765531 -1.923023e-39 0.03517647
0.00089050276 -1.40172e-40 4.4385e-41 -2.638981e-39 0.032764018 -2.3855236e-37 4.74082e-40 -4.7761843e-37
-7.3769e-41 0.028480025 -3.13197e-40 1.5936128e-24 9.50408e-38 3.1900544e-23 -1.199594e-39 2.83666e-40
-8.06997e-40 0.03381375 -3.62722e-40 5.34039e-40 -2.081152e-39 0.0017629418 -1.50859e-39 2.8563e-41
-8.609374e-34 -6.45232e-40 0.046785727 1.6442493e-18

11.weight f4 [10, 84]
00000000: dd5c 0000 3a3f 2480 832b 038d d2a9 3e80
00000010: d89d 0380 6523 0280 8d7d 1b3f 543c f600
00000020: 1ce8 ad00 4a5f b7bd d7e8 b7bd 9685 0800
00000030: 02e6 799d b24f a080 511b 163f fe37 5380
00000040: 391a 0280 4925 9d00 9c24 ea1d bea4 b100
00000050: 3dbd 0abe 87e7 5700 f75c 2900 b030 01be
00000060: 4439 1e00 011c b008 5e36 0080 b647 1100
00000070: f3a9 0400 d251 1d00 b019 0700 a808 95be
00000080: 600b a490 f299 e8bd c08d 5283 ad11 0480
00000090: a3b3 0580 0d88 0880 a78c 893e 695c 0a80
000000a0: 3ce0 d88a 53d4 0980 5546 7fbd 41dc 0900
000000b0: 0114 c6bd 149a 0d80 73d0 1b80 7fc9 7ebe
000000c0: 8041 c3bd 6827 1280 e488 1480 9bb8 0000
000000d0: d9b8 0100 cb5b b8bd 6ca8 1200 2e66 df3c
000000e0: 9dc6 52bd ad40 a317 8a98 0100 a803 4b00
000000f0: 8244 5b3e 9787 9009 f0f2 0d00 c3e3 8a8c
00000100: b4b9 0000 43bd 2ebe 5ffa 0480 aa1c 5598
00000110: df50 f387 780d 5b9a bf57 a788 fadc 0200
00000120: 7227 0000 290d cebd a7b8 8b23 99fa 1380
00000130: 91b5 1c00 7f15 adbd dbba 0580 1a95 0780
00000140: 48c2 70a1 8bac 0080 02ce 4c3e fda8 2fa3
00000150: fc3c 0600 a38f 6c80 98c6 3311 e728 0580
00000160: fff7 0c00 1a1f 0180 beb8 9e3d 199e ac81
00000170: ec47 0900 3465 abbc 9c28 0fbe f982 1400
00000180: dde8 899a 22e6 2780 6866 f6bd 6787 6800
00000190: 6cd0 0100 ded9 a001 3b42 f110 8b66 0000
000001a0: 03c8 98bd fdde 1b80 e314 1d00 e178 e33c
000001b0: a311 2200 d8ac 8586 c346 0000 d6a8 0d00
000001c0: bb1e 0000 b938 1600 cc58 0680 5455 14be
000001d0: e8de 0092 d8f4 dc3d 2147 ff00 a0ed 1280
000001e0: f769 0080 dc60 1800 2ae3 9cbd 9e32 1080
000001f0: e05f f283 58d7 0c80 afc3 823f 4d6a 0480
00000200: 2d13 583c a1c1 0700 5cb5 0380 3d9a 3dbe
00000210: 0095 883e 197b 0080 be35 4680 d989 0000
00000220: 39f5 0300 14ad 71be de34 0f80 f4e9 1bbe
00000230: 766d afbc a4fd b80b 923c 0000 77b5 7480
00000240: 517b c638 59fe 3f03 4a54 0700 d725 868c
00000250: 096b 0000 1613 32be ad10 0a00 d84e c897
00000260: 002a bf81 48a7 f999 081a 1300 79a6 0380
00000270: 1df1 0a80 7fef 3abe 9a98 850a 8b37 1480
00000280: 898a 0000 3992 2cbd ba9c 0800 ea8a 0600
00000290: bb9b 168e c320 0380 e81c 92be addd 3ca3
000002a0: e20c 0480 1f38 4a0f d4c3 5913 1eb0 0f80
000002b0: 8b18 1480 8fc5 0180 736e debd 0215 1b83
000002c0: f2ef 0b80 efeb adbe fddf ecbd 9994 0000
000002d0: 7a76 8799 9512 0300 17bb 55be b846 7a00
000002e0: d7d4 0300 1517 ba02 ed8d 119f b46d 0880
000002f0: 271c bdbd 641e 0280 a789 3a80 b6aa c43e
00000300: 46c5 0200 dc76 c409 5c95 0080 2b38 1180
00000310: 0303 0c00 e086 0d80 4f0f 0100 c902 9dbe
00000320: e1fb da8b 54be 26be cb1a f180 b35c 1080
00000330: 015b 0300 0aea 0480 d4db ae3e 340a af12
00000340: 39b4 9f85 19d4 0200 e5f4 33be f266 1200
00000350: c238 2abe d771 0a80 aa5c 1680 c998 383e
00000360: 0e63 ee3e ebf1 0f80 ea06 1f87 0c0b 0100
00000370: dbbe 0180 d793 b93e a0b9 0580 bc8b 53bd
00000380: 40d6 93bd b96d 0500 b839 0080 bb84 6c80
00000390: 4341 b0be 6a66 8f81 7437 0f80 e338 bf98
000003a0: f079 0180 28ad 81be 561f 0a80 d7cb 8918
000003b0: f5b3 9e83 3b07 5999 fdfc eb0e d1ce 0000
000003c0: 921d 0080 860a 44be 295d 0f00 dae4 1180
000003d0: 5b50 1680 cea7 d6bd 9a74 0f00 657c 1200
000003e0: 0746 0013 7f8d 0080 fc13 3f3f 4f80 ac23
000003f0: d69b 0400 4fd3 0200 20e6 3820 14ec 1800
3.3313e-41 -3.328759e-39 -4.0419867e-31 -5.754721e-39 -3.3213e-40 -1.96368e-40 0.6073845 2.2613174e-38
1.5970806e-38 -0.08953722 -0.089799576 7.82606e-40 -3.3073787e-21 -1.4722269e-38 0.5863543 -7.642432e-39
-1.93078e-40 1.4431548e-38 6.1977137e-21 1.6313981e-38 -0.13548751 8.072745e-39 3.798605e-39 -0.12616229
2.775608e-39 1.0599198e-33 -1.9503e-41 1.586928e-39 4.28308e-40 2.692581e-39 6.52063e-40 -0.29108167
-6.470412e-29 -0.11357488 -6.1876174e-37 -3.73683e-40 -5.23619e-40 -7.8349e-40 0.26865122 -9.51505e-40
-2.0884391e-32 -9.02687e-40 -0.062322933 9.05532e-40 -0.09671784 -1.249134e-39 -2.554336e-39 -0.24881552
-0.095339775 -1.667175e-39 -1.885817e-39 6.6224e-41 1.58146e-40 -0.09001883 1.713457e-39 0.027270403
-0.051458944 1.0549955e-24 1.46556e-40 6.888974e-39 0.21412852 3.4794247e-33 1.281011e-39 -2.1399346e-31
6.6618e-41 -0.17064385 -4.57158e-40 -2.7544076e-24 -3.6610108e-34 -4.529902e-23 -1.0071576e-33 2.62942e-40
1.415e-41 -0.10061104 1.5148614e-17 -1.834772e-39 2.636528e-39 -0.08451366 -5.26209e-40 -6.96336e-40
-8.157229e-19 -6.1897e-41 0.2000046 -9.522554e-18 5.7289e-40 -9.969761e-39 1.4181807e-28 -4.7385e-40
1.19099e-39 -1.02993e-40 0.077500805 -6.340968e-38 8.5232e-40 -0.02092228 -0.13980335 1.883694e-39
-5.703808e-23 -3.66414e-39 -0.12031251 9.599465e-39 1.66603e-40 5.908734e-38 9.5159783e-29 3.6785e-41
-0.07460024 -2.559552e-39 2.670722e-39 0.0277676 3.128734e-39 -5.028301e-35 2.5385e-41 1.254428e-39
1.1024e-41 2.040729e-39 -5.82867e-40 -0.14485675 -4.066443e-28 0.10788888 2.3443568e-38 -1.738283e-39
-3.8013e-41 2.238799e-39 -0.076605156 -1.487526e-39 -1.42454935e-36 -1.179277e-39 1.0215968 -4.05476e-40
0.013188166 7.1231e-40 -3.40566e-40 -0.18515868 0.26676178 -4.4159e-41 -6.447764e-39 4.945e-41
3.63476e-40 -0.2360118 -1.396498e-39 -0.15225965 -0.0214145 7.125586e-32 2.1729e-41 -1.0718015e-38
9.464345e-05 5.642183e-37 6.73086e-40 -2.0668743e-31 3.8397e-41 -0.17390093 9.24337e-40 -1.29446e-24
-7.0222586e-38 -2.5813561e-23 1.754213e-39 -3.35226e-40 -1.00485e-39 -0.18255423 1.2864836e-32 -1.856635e-39
4.9697e-41 -0.042131636 7.90907e-40 6.00846e-40 -1.8563909e-30 -2.87259e-40 -0.2853768 -1.0238442e-17
-3.71963e-40 9.9701775e-30 2.7485801e-27 -1.440711e-39 -1.845514e-39 -1.62706e-40 -0.1086091 -4.557452e-37
-1.096267e-39 -0.33969066 -0.1156616 5.3307e-41 -1.4006525e-23 2.82172e-40 -0.2087215 1.12293e-38
3.51859e-40 2.7343492e-37 -3.0822343e-20 -7.74038e-40 -0.09233885 -1.94573e-40 -5.375839e-39 0.38411492
2.5444e-40 4.729706e-33 -5.358e-41 -1.581353e-39 1.103106e-39 -1.242245e-39 9.7327e-41 -0.30666187
-8.434953e-32 -0.16283542 -2.2141966e-38 -1.502622e-39 3.08153e-40 -4.513e-40 0.3415209 1.1046568e-27
-1.5018491e-35 2.59757e-40 -0.17573889 1.689969e-39 -0.16623214 -9.59193e-40 -2.053623e-39 0.18027033
0.46559948 -1.464316e-39 -1.1963862e-34 9.5798e-41 -1.60302e-40 0.36245605 -5.25767e-40 -0.051646933
-0.07218599 4.98539e-40 -2.0706e-41 -9.965848e-39 -0.3442479 -5.267686e-38 -1.397425e-39 -4.9429784e-24
-1.35578e-40 -0.2532742 -9.29596e-40 3.5619496e-24 -9.3277215e-37 -1.1220097e-23 5.817559e-30 7.4192e-41
-1.0608e-41 -0.1914464 1.410952e-39 -1.6433e-39 -2.049207e-39 -0.10481225 1.419361e-39 1.697663e-39
1.6190397e-27 -5.0759e-41 0.7463987 1.8702618e-17 4.23245e-40 2.59474e-40 1.5661548e-19 2.288741e-39

11.bias f4 [10]
00000000: 330d 3a3c e3c6 77bc b8a7 b4bc 5e3b 1b3c
00000010: 3334 6b3c 3bef 8d39 6623 22bd 8a9b cfbc
00000020: ea53 583d 5cd4 8e3c
0.011355686 -0.015123102 -0.02205263 0.009474603 0.014355707 0.00027071856 -0.03958454 -0.025342721
0.0528144 0.017435245

exp_avg f4 [6, 1, 5, 5]
00000000: 39ae ebb9 31c0 a6b9 9199 e037 332e b739
00000010: 11ef c839 5a94 23b9 7aef 60b8 c3e2 1939
00000020: 4421 ea39 c2d6 fc39 0bf7 6439 db95 043a
00000030: cf51 393a bf3c 5c3a a14f 2d3a 80e9 103a
00000040: 7198 5a3a 62d3 893a 1f92 8b3a c9e5 433a
00000050: fb15 2e39 e7b2 273a bc1c 833a fb85 823a
00000060: 3107 423a daa5 c01c 56cb 331d 8fbb 311d
00000070: 8bc4 1e9c 4056 101d 1331 3b1c e7e3 a61b
00000080: 2392 471e 1dec 659b 766f 451d a6af 599a
00000090: 134c 1c9d 99d4 7e9a c841 871d 1b96 a81d
000000a0: e62a ec9b 2719 1a9c ad21 fc1c 82b5 a61d
000000b0: 5ec0 bf1d 8393 641b 5cd5 f51b e79c e71c
000000c0: f519 921d 0b9a ab1d ce6b 5a39 1c73 29b9
000000d0: e9b2 9cb9 cfd4 82b9 e03e 56b9 9698 9a39
000000e0: 2cb4 0239 b629 0739 e40f 5cb7 a7ff 8bb9
000000f0: 9892 113a f10a 0e3a 0025 b839 8756 1338
00000100: c7b9 84b9 7469 043a 9e6c 1d3a ef57 133a
00000110: bc1e aa39 8bd3 7539 30d9 fa39 cde7 2d3a
00000120: 448a 413a ff6a 3f3a 019d 143a 567d b8b9
00000130: 03dc 04ba 5332 f4b9 3d9e f7b9 242d 42b9
00000140: edf4 4fb9 aa5c beb9 37ff e4b9 a555 c1b9
00000150: 2fd5 6db8 b946 8bb9 941a a0b9 bd6e b9b9
00000160: 152c 51b9 ce0c fc38 e324 39b9 7bd5 beb8
00000170: 8f4e 76b9 b544 68b9 79ec 28b7 b0e3 dd39
00000180: 517f c439 a6ef 3738 dc00 08b9 0d23 88b9
00000190: 6f52 7b3a fc66 393a b7ef d739 5db5 8bb9
000001a0: 9f29 84ba 2e7f 013a f6ca 0a39 8eef acb8
000001b0: 3dc0 fbb9 32d3 96ba ab91 0339 57e5 12b9
000001c0: ee46 9db9 a8f3 4fba d9e0 beba e712 e1b9
000001d0: a4b2 2eba e19a 83ba cf76 e0ba 8eb6 21bb
000001e0: 8015 7fba c00c aaba dde9 f7ba a579 31bb
000001f0: f3ce 64bb e8bb 73b9 6ba4 0039 a36b 6639
00000200: cef7 1e38 2bc2 3cba 0625 fe39 7b62 553a
00000210: e3fe 243a da9a da38 28ca 5dba 3fb1 403a
00000220: 17c6 573a a226 033a ea5b 96b9 8ea3 9bba
00000230: 3968 333a fdb2 183a 1a86 be38 29fc 4dba
00000240: 50de c6ba 024d c239 dd32 3239 ffe3 54b9
00000250: 4e1e 71ba bf51 b8ba
-0.000449525 -0.0003180518 2.677439e-05 0.000349389 0.0003832509 -0.00015600157 -5.362879e-05 0.00014675692
0.00044656743 0.00048225193 0.00021835805 0.00050577306 0.00070693804 0.0008401386 0.0006611292 0.0005527958
0.00083387556 0.0010515267 0.0010648406 0.00074729003 0.00016602121 0.0006397203 0.001000307 0.0009958142
0.00074015843 1.2748366e-21 2.3795575e-21 2.352272e-21 -5.253184e-22 1.9102832e-21 6.1936537e-22 2.7609675e-22
1.0565193e-20 -1.9018728e-22 2.6130357e-21 -4.5016436e-23 -2.0685758e-21 -5.2697704e-23 3.580222e-21 4.4624435e-21
-3.9070647e-22 -5.0986834e-22 1.6684666e-21 4.412751e-21 5.0756182e-21 1.8907382e-22 4.066973e-22 1.5326856e-21
3.8672717e-21 4.54226e-21 0.0002083026 -0.00016159978 -0.00029887937 -0.00024954087 -0.00020432053 0.00029486854
0.00012464885 0.00012890142 -1.3116722e-05 -0.00026702622 0.0005553155 0.00054185005 0.00035122782 3.5128116e-05
-0.00025315417 0.0005051114 0.000600526 0.0005620708 0.00032447826 0.00023443827 0.00047845533 0.0006633967
0.0007382969 0.00073020154 0.00056691474 -0.00035188597 -0.00050681847 -0.000465768 -0.00047229408 -0.00018518098
-0.000198323 -0.00036308664 -0.000436777 -0.0003687564 -5.6703746e-05 -0.00026564838 -0.0003053738 -0.00035368456
-0.00019948215 0.000120186814 -0.00017656716 -9.09967e-05 -0.00023489654 -0.0002215084 -1.0068638e-05 0.00042322045
0.0003747889 4.385379e-05 -0.00012970291 -0.00025966056 0.00095871737 0.0007072536 0.00041186597 -0.00026647272
-0.0010083205 0.0004939911 0.00013236314 -8.24622e-05 -0.0004801768 -0.0011507033 0.00012547399 -0.00014009081
-0.0002999822 -0.0007932731 -0.001456286 -0.00042929428 -0.0006664193 -0.0010040664 -0.0017125251 -0.0024675461
-0.0009730682 -0.001297377 -0.0018914301 -0.0027080562 -0.003491339 -0.00023244286 0.00012268282 0.00021974607
3.790092e-05 -0.0007200564 0.0004847424 0.000813998 0.00062940846 0.000104238934 -0.00084606046 0.00073506305
0.0008231117 0.000500301 -0.0002867871 -0.0011874305 0.00068438385 0.0005825011 9.0848844e-05 -0.0007857704
-0.0015172455 0.0003705994 0.00016994351 -0.0002030283 -0.0009197936 -0.0014062448

exp_avg_sq f4 [6, 1, 5, 5]
00000000: 8c76 eb38 4103 cb38 d253 5d38 3873 bd37
00000010: 91d9 4f37 99da 0939 9a09 d638 b05b 4938
00000020: 6395 a037 0350 4637 28d0 1639 d746 da38
00000030: 6b3a 4438 fe58 a737 1b59 6737 4db5 1939
00000040: 5225 da38 32d3 5038 64f7 cd37 92ec 9837
00000050: 589a 0e39 503c ce38 7e60 5c38 4268 fa37
00000060: 4b35 c337 496d bf2d 7000 3c2e df43 3f2f
00000070: 6547 8b2f 55ad 3d2f f26f 4c2e 96a9 302f
00000080: 34bb c42f 7ec8 8a2f 677f f62e fb18 262f
00000090: 01e6 b42f f9c5 a22f 3e3b d62e 9597 602e
000000a0: c7dd 622f a81d 832f 8b5c ed2e 4541 312e
000000b0: 09b9 9a2e fcc4 2e2f 1481 092f 4641 8b2e
000000c0: ec11 a52e 9966 3c2f 5954 fb37 df89 2438
000000d0: 6f3d 5f38 03ec 6738 ee31 3838 49bd 0c38
000000e0: dd27 4f38 2397 9238 17f6 7e38 2d53 2e38
000000f0: b8b0 6438 5056 a638 c5e0 b538 4ec2 6d38
00000100: f2a2 0d38 9559 a238 5dd0 c438 cfab a338
00000110: db68 4638 08dd ee37 ee0c a238 8c79 af38
00000120: 03a2 8b38 cf55 3838 8180 f137 dbcc 9438
00000130: 4961 8338 e2fc 4738 4d76 1b38 3457 fc37
00000140: e80c ba38 e62c b338 2271 9538 557e 6d38
00000150: 7a50 4938 0389 ed38 4b56 0139 1350 ef38
00000160: 28bb c038 d84b a038 6365 0339 74d5 1839
00000170: 271c 1439 2e28 f538 f70e c738 d74c fe38
00000180: 6102 0f39 b5e4 0839 92f1 e638 2691 b338
00000190: 68fd 6f37 8fd5 1337 b7f1 bc36 cfa4 b336
000001a0: 841c 5a37 9eed d936 70a0 8236 1f04 6436
000001b0: 5950 9b36 e151 6637 c6fc 9036 e60b 7b36
000001c0: 3562 7736 067f ff36 94c6 aa37 adf6 c636
000001d0: 34da df36 0d4c 1f37 c30e 9637 4546 0138
000001e0: 1428 2837 3159 6637 999f ab37 420f fd37
000001f0: 8f65 2138 1751 b537 aed5 be37 5716 d737
00000200: 17a9 ef37 4f53 fd37 8962 ae37 ea8f b737
00000210: d26e bc37 9f5f bc37 9648 c137 4d3c 8a37
00000220: 2058 7237 5a11 5137 74da 5137 5365 7837
00000230: a37b 4437 c96f 0d37 b4a5 e336 777b 0737
00000240: baaf 3b37 a6a4 2637 a9e4 ee36 d55f e036
00000250: 002e 1937 9ac3 5137
0.00011227754 9.6804004e-05 5.276857e-05 2.2584209e-05 1.2388818e-05 0.00013146772 0.000102061036 4.8007525e-05
1.914305e-05 1.1820349e-05 0.00014382659 0.00010408245 4.6784447e-05 1.9949392e-05 1.3789419e-05 0.00014658757
0.000104020015 4.9787755e-05 2.4553105e-05 1.8229974e-05 0.00013599673 9.8340795e-05 5.2541953e-05 2.9850871e-05
2.3270628e-05 2.1762718e-11 4.274664e-11 1.7395461e-10 2.5334682e-10 1.725103e-10 4.6483657e-11 1.6067356e-10
3.5785208e-10 2.5244512e-10 1.1209416e-10 1.5106487e-10 3.2905237e-10 2.9608296e-10 9.742117e-11 5.1066335e-11
2.0633371e-10 2.3849833e-10 1.0793951e-10 4.030311e-11 7.035978e-11 1.5895191e-10 1.2505935e-10 6.332583e-11
7.506515e-11 1.713495e-10 2.996081e-05 3.922905e-05 5.3224558e-05 5.5294495e-05 4.391552e-05 3.3554887e-05
4.938977e-05 6.989974e-05 6.0787508e-05 4.1562296e-05 5.452402e-05 7.931574e-05 8.672619e-05 5.6686164e-05
3.3768774e-05 7.741448e-05 9.384819e-05 7.8044475e-05 4.7304533e-05 2.8474737e-05 7.72717e-05 8.36729e-05
6.6582135e-05 4.3948934e-05 2.8789278e-05 7.095347e-05 6.2646875e-05 4.7680813e-05 3.7065056e-05 3.0081348e-05
8.871575e-05 8.543748e-05 7.125946e-05 5.662286e-05 4.7997084e-05 0.00011326561 0.00012334545 0.00011411323
9.190134e-05 7.6435215e-05 0.00012530903 0.00014575367 0.00014124867 0.000116899944 9.491847e-05 0.00012125976
0.00013638429 0.0001305517 0.000110122506 8.562421e-05 1.4304511e-05 8.811606e-06 5.630976e-06 5.353802e-06
1.3000452e-05 6.4947662e-06 3.8929793e-06 3.3977046e-06 4.6287137e-06 1.3728132e-05 4.320961e-06 3.740884e-06
3.6863032e-06 7.6143797e-06 2.035805e-05 5.9295767e-06 6.67132e-06 9.4948455e-06 1.7888267e-05 3.082144e-05
1.0022912e-05 1.3729835e-05 2.0459107e-05 3.0167055e-05 3.8479975e-05 2.1614642e-05 2.2749267e-05 2.56404e-05
2.8569759e-05 3.0198744e-05 2.07883e-05 2.1882315e-05 2.2462951e-05 2.2455873e-05 2.3041193e-05 1.6478962e-05
1.4444842e-05 1.2461411e-05 1.2508233e-05 1.4805543e-05 1.1711297e-05 8.430282e-06 6.7844176e-06 8.075373e-06
1.1186983e-05 9.932706e-06 7.1195723e-06 6.6868765e-06 9.130221e-06 1.2502913e-05

exp_avg f4 [6]
00000000: 1350 7c39 e2ac 169d de40 16b9 e4b0 5438
00000010: 4d5c 86ba f33f 32ba
0.00024062423 -1.9941713e-21 -0.0001432928 5.070948e-05 -0.0010250896 -0.00067996903

exp_avg_sq f4 [6]
00000000: d11f 8a38 c4c0 a02f 159e e337 c642 ae38
00000010: 255d 0838 3f25 8d37
6.586279e-05 2.92408e-10 2.7134121e-05 8.309404e-05 3.2511674e-05 1.6825854e-05
