best_model/mnist/overtrained_mnist_model.pt (torch, 543914 bytes, 30 tensors)

0.weight f4 [6, 1, 5, 5]
000000 80 96 50 bb 50 b7 a0 3e fa 82 9f 3e 61 62 8c be
       -0.0031827986 0.31389856 0.31154615 -0.27418807
000010 58 4b 1e bf 63 83 a4 be f0 71 9b 3e 9a 35 3c 3f
       -0.61833715 -0.3213149 0.30360365 0.7351929
000020 10 eb 08 3e cf 8a 15 bf d0 32 04 bf 4a 4c 04 3e
       0.13370919 -0.5841493 -0.51640034 0.12919727
000030 e2 8f 2d 3f a9 3e c4 3e 98 9a bd be d6 64 01 bf
       0.6779767 0.38329056 -0.37032008 -0.5054449
000040 21 e5 b3 bd 8e 05 c1 3e 8c 45 b5 3e 21 d2 bb bd
       -0.08783937 0.3769955 0.35404623 -0.09170938
000050 75 93 b0 be ba a0 74 be 7b ba a2 3d 92 41 49 3e
       -0.344875 -0.23889437 0.079457246 0.1965392
000060 10 bb bb 3d 2d b1 cb be 5b 80 ae be 7f e2 18 bd
       0.09166539 -0.39783612 -0.34082302 -0.03732538
000070 7d d5 87 3e ba 49 65 3e 52 33 ca be 78 50 dd 3d
       0.26530066 0.22391406 -0.3949228 0.10806364
000080 11 3e 15 3f 57 c9 02 3f 6c 49 83 bc cd 08 b7 3d
       0.5829783 0.5108847 -0.016026221 0.089372255
000090 8b 28 2f 3f 3d 2c 1d 3f 49 ba c4 3d 4b 4c c5 be
       0.6842124 0.6139563 0.096058436 -0.3853477
0000a0 65 16 c7 3e f3 80 b6 3e 62 ee b2 bd 46 93 e4 be
       0.38884273 0.35645255 -0.08736874 -0.4464361
0000b0 ad be dd be 16 ee f0 3c fa 8c 97 be 80 4e ed be
       -0.43309537 0.029410403 -0.29599744 -0.46348953
0000c0 18 74 bd be c1 21 2e be e1 0b ce bd b5 9c 42 be
       -0.37002635 -0.17005064 -0.100608595 -0.19005091
0000d0 56 16 88 be 78 9c a7 bd d1 31 1e 3e 65 93 23 be
       -0.2657954 -0.08184141 0.15448691 -0.15974195
0000e0 56 c7 91 be 68 37 70 be 21 a9 dd 3d 88 77 a4 3e
       -0.28472394 -0.23458636 0.108232744 0.32122445
0000f0 f2 9e 72 be d5 50 a0 be 87 22 e3 bd d8 c6 85 3e
       -0.23693445 -0.3131167 -0.1109057 0.26128268
000100 b4 f9 ab 3e bb f4 7b be 89 50 55 be 4a 70 bc 3d
       0.33588946 -0.24605076 -0.20831503 0.09201105
000110 11 10 b1 3e d6 d5 8b 3e 81 79 72 be 7f c9 10 be
       0.3458257 0.2731158 -0.23679163 -0.14139365
000120 ee e4 2c 3e 9d 51 9d 3e 41 28 6d 3e 21 a1 b8 3e
       0.16884205 0.30726328 0.23159887 0.36060432
000130 f9 2e 94 3e f9 de 58 bc 16 60 68 be 1c 6c 5e be
       0.28942087 -0.013236755 -0.22692904 -0.21720928
000140 2e 0c c5 3e 49 0e 9b 3e dd 0a 24 bd a1 37 8e be
       0.38485855 0.30284336 -0.040049423 -0.27776816
000150 64 eb 8a be 9f 43 c2 3e 81 92 75 3e cd 4f 34 be
       -0.27132714 0.37942216 0.23981668 -0.17608567
000160 ec 08 a8 be 3d ab 69 be 16 87 dd 3e 88 63 13 3e
       -0.32819307 -0.22819228 0.43267125 0.14393437
000170 ef 78 95 be c5 5d 94 be 2a 6a e0 bd 27 75 a8 3e
       -0.29193828 -0.2897779 -0.10957749 0.3290188
000180 b8 cb 28 bd 07 58 b5 be 41 55 58 be f3 dc 31 bc
       -0.041209906 -0.35418722 -0.21126272 -0.010855901
000190 b5 be 8d be 54 06 81 be 85 83 fb bd 5f 3f 62 bd
       -0.2768456 -0.2520014 -0.12280945 -0.055236217
0001a0 fb e9 ea bc 1e 6e 6a be 81 2f dd be 27 3a ed be
       -0.028676024 -0.22893569 -0.43200305 -0.4633343
0001b0 d1 dc c5 be 99 45 aa be 77 aa aa 3d 3d 9a 3e be
       -0.38645032 -0.33256224 0.08333295 -0.18613525
0001c0 04 9a a3 be d0 47 a7 be 2e 81 b2 be 26 f9 e2 3e
       -0.31953442 -0.32671976 -0.3486418 0.4433071
0001d0 63 6f b1 3e a5 2a 85 3e 6b c4 0e 3e 8c 12 86 bd
       0.34655294 0.26009098 0.13942115 -0.06546506
0001e0 af e0 ec 3e df b7 01 3f ae ef 0e 3f 33 16 e4 3e
       0.4626517 0.5067119 0.5583447 0.44548187
0001f0 01 e0 63 3e 18 54 8b 3e a1 d2 f1 3e 34 5d 0e 3f
       0.2225342 0.27212596 0.4723101 0.55610967
000200 c5 13 04 3f d5 e2 f5 3e 63 f9 6d 3d b6 8c 82 3e
       0.51592666 0.48024622 0.05809916 0.2549798
000210 8d 73 ae 3e 6d 22 b8 3e 25 ce d9 3e a6 ad c7 be
       0.34072533 0.35963765 0.42540088 -0.3899967
000220 37 e8 b5 be c8 95 9a be f6 55 39 be 6e fd 64 3d
       -0.35528728 -0.301924 -0.18099198 0.055905752
000230 ae 25 cd be 39 0a e1 be 47 6e fb be d0 93 cd be
       -0.4006781 -0.43953112 -0.49107572 -0.40151834
000240 7e 6b 30 be 82 36 18 be cd 73 09 be c2 c3 3d be
       -0.17228505 -0.14864543 -0.1342308 -0.18531707
000250 58 d0 52 be 77 dc f1 bd
       -0.2058729 -0.118096285

0.bias f4 [6]
000000 f0 9a 96 be 95 aa 0a be 06 82 04 be 8c f6 32 be
       -0.29415083 -0.13541634 -0.12940225 -0.17476863
000010 89 e1 c1 3d 33 06 3e bd
       0.094668455 -0.04639263

3.weight f4 [16, 6, 5, 5]
000000 32 91 83 93 27 f5 01 98 ab a6 53 98 ff ee 1b 92
       -3.3212223e-27 -1.679663e-24 -2.7355257e-24 -4.920396e-28
000010 47 59 14 8b 11 2d 01 9b 8d 26 2e 9e 65 c1 06 9f
       -2.8570928e-32 -1.0685192e-22 -9.2194554e-21 -2.8535576e-20
000020 87 5e 89 9a 41 c9 94 95 a1 71 23 9f 11 20 a9 a1
       -5.681459e-23 -6.0094247e-26 -3.4610584e-20 -1.1460373e-18
000030 c8 d9 d5 a2 cc 7b 0b a0 46 a2 45 9c 5e a2 d1 9e
       -5.796435e-18 -1.1814719e-19 -6.5391566e-22 -2.219589e-20
000040 54 c9 47 a1 21 fa d9 a2 8a a6 88 a1 da 78 94 9e
       -6.769028e-19 -5.9082802e-18 -9.259801e-19 -1.5720093e-20
000050 a9 43 81 9b 31 32 6e 9d df 0c 9e 9f a8 38 b1 9e
       -2.1384984e-22 -3.1524986e-21 -6.6936896e-20 -1.8764036e-20
000060 b3 fa 80 9b 69 67 c7 95 a7 7c 5e 9a a6 d9 fb 9a
       -2.1337834e-22 -8.053861e-26 -4.6009217e-23 -1.041628e-22
000070 fc a1 d6 98 4d 44 78 92 30 c6 15 9a 27 9c a7 9d
       -5.5481266e-24 -7.833919e-28 -3.0972572e-23 -4.436599e-21
000080 8a a9 9f 9e 35 27 e7 9b 01 04 a3 96 bc fc c2 9d
       -1.69049e-20 -3.824108e-22 -2.6336597e-25 -5.1612694e-21
000090 1f ca 2e a1 73 77 c4 a1 e5 5b d5 9f f7 c7 38 9d
       -5.9221e-19 -1.3313095e-18 -9.0361036e-20 -2.4455577e-21
0000a0 ff 3f bc 9d ab a7 1f a1 f0 30 09 a2 f9 10 90 a1
       -4.9829356e-21 -5.40932e-19 -1.859287e-18 -9.762312e-19
0000b0 71 d8 fb 9e 2b b6 81 97 85 44 1a 9c 25 79 4e 9e
       -2.6665177e-20 -8.382415e-25 -5.1042885e-22 -1.0930601e-20
0000c0 71 8f 66 9e 33 a6 db 9a a9 a6 df 9e 32 c1 91 9d
       -1.2205762e-20 -9.0844786e-23 -2.3679972e-20 -3.858094e-21
0000d0 4c 73 e5 96 dd 55 84 8d a7 58 15 80 23 ba 1a a2
       -3.7069708e-25 -8.155799e-31 -1.960348e-39 -2.0969432e-18
0000e0 e4 45 24 a1 e3 d8 2f 9c 2c fb e9 95 03 8d b9 81
       -5.565786e-19 -5.818296e-22 -9.450423e-26 -6.816061e-38
0000f0 74 83 62 a1 b5 fe 82 a0 35 bd db 9c 63 62 af 95
       -7.6745755e-19 -2.2191408e-19 -1.4541113e-21 -7.0837164e-26
000100 99 18 a9 80 8a cc 8f 9c 36 10 fa 9b 33 d5 95 98
       -1.5529023e-38 -9.515818e-22 -4.1369507e-22 -3.8730873e-24
000110 34 d3 12 8f f9 f8 2c 80 93 23 8e 98 dc 52 5f 98
       -7.239032e-30 -4.130076e-39 -3.674206e-24 -2.8863908e-24
000120 99 f0 2e 96 3b 91 1a 8d 1f 5a 2d 00 25 23 20 00
       -1.4131527e-25 -4.762973e-31 4.164927e-39 2.951343e-39
000130 04 b5 71 95 d5 61 90 9a 21 02 85 9d d5 f9 ba 9c
       -4.881236e-26 -5.971506e-23 -3.520701e-21 -1.2373028e-21
000140 5b 62 1a 87 a2 50 87 9b b2 80 c1 9e bf 8b af a1
       -1.1614576e-34 -2.2385984e-22 -2.0487897e-20 -1.1895452e-18
000150 ee ea c5 a0 ed 7b 13 8d 9a 08 91 9d fb fe 93 a0
       -3.3528562e-19 -4.5447043e-31 -3.8390074e-21 -2.50715e-19
000160 08 03 56 a3 8b cd bd a2 5d e4 d0 8d fd c4 12 9e
       -1.1601605e-17 -5.144618e-18 -1.2873966e-30 -7.769912e-21
000170 64 bd f3 a0 02 73 98 a3 47 22 e6 a3 cf f3 e4 89
       -4.129113e-19 -1.652858e-17 -2.4951167e-17 -5.511828e-33
000180 88 5b 69 9c 26 e4 52 9f 0a 6e 74 a2 a9 c5 56 a3
       -7.7211534e-22 -4.465795e-20 -3.312642e-18 -1.1642819e-17
000190 0c 89 6b a5 37 26 6d a8 5d 20 c5 a9 74 a5 f7 a9
       -2.0429434e-16 -1.3164429e-14 -8.7541716e-14 -1.0997705e-13
0001a0 56 51 00 a9 49 a6 3d a7 e7 9b 08 aa 3b 30 53 ab
       -2.8492257e-14 -2.6319162e-15 -1.2133316e-13 -7.502919e-13
0001b0 03 d7 c9 ab e4 23 2b ab 1d c9 3d a1 45 9b 29 a5
       -1.4341587e-12 -6.080121e-13 -6.430186e-19 -1.4711021e-16
0001c0 f2 5d 0d a7 ff c9 07 a8 7e 98 97 a7 6c fe 62 14
       -1.9618609e-15 -7.537806e-15 -4.207625e-15 1.146026e-26
0001d0 44 94 d0 19 bb 80 06 1b 6e 46 52 9d 2e a8 c5 9d
       2.156658e-23 1.1125815e-22 -2.782968e-21 -5.231936e-21
0001e0 d9 f3 d8 11 af 1c d9 16 35 d2 d5 17 e9 0f ad 99
       3.4229074e-28 3.5076343e-25 1.3817866e-24 -1.7894207e-23
0001f0 fb 80 0d 99 10 4e df 9c c8 0e 8c 9d 8b b9 80 9b
       -7.3155765e-24 -1.4777081e-21 -3.7072975e-21 -2.1295728e-22
000200 b8 43 a8 97 fc de 6c 8f b3 89 85 a3 08 ab 59 a4
       -1.087384e-24 -1.16786436e-29 -1.4478207e-17 -4.7199243e-17
000210 38 d5 f5 a2 bc a3 dc 9f 9e b5 9f 98 7b 60 37 a7
       -6.6633137e-18 -9.34445e-20 -4.1283923e-24 -2.5448654e-15
000220 84 4c 58 a8 a2 79 89 a7 35 bc cb a4 73 4b 9c 9e
       -1.2007e-14 -3.8157013e-15 -8.835605e-17 -1.6548348e-20
000230 0a 38 77 ab ba b1 70 ac 64 dd 18 ac 14 8a 4b aa
       -8.78298e-13 -3.420471e-12 -2.1723396e-12 -1.8077927e-13
000240 7a 84 2a a6 7e 6d ab aa 1b 05 b7 ab 9c 73 ac ab
       -5.916014e-16 -3.0451677e-13 -1.3004349e-12 -1.2253423e-12
000250 a1 01 67 aa bb 55 4d a7 7a 17 bf a3 55 9d 62 a6
       -2.0517487e-13 -2.849594e-15 -2.0718204e-17 -7.8622726e-16
000260 16 8f 76 a7 be 52 30 a6 55 f9 90 a3 7d 56 46 a9
       -3.4216925e-15 -6.1174403e-16 -1.5718108e-17 -4.403985e-14
000270 7a 76 10 ab cd 24 86 ab 57 31 18 aa a2 eb b3 a7
       -5.1323496e-13 -9.531487e-13 -1.351743e-13 -4.9937954e-15
000280 49 2f f3 aa 2d de 93 ac e0 be 0e ad 55 1f 9e ab
       -4.3198282e-13 -4.2026578e-12 -8.114148e-12 -1.1235272e-12
000290 77 0a 4f a9 54 88 6d ab 94 d2 91 ac 7b 84 18 ad
       -4.597231e-14 -8.438851e-13 -4.1445267e-12 -8.669616e-12
0002a0 94 ac 99 ab e7 74 55 a9 39 cc 34 ab 76 46 ed ab
       -1.0919204e-12 -4.7396897e-14 -6.423226e-13 -1.685942e-12
0002b0 b7 50 01 ac 93 7b 8f aa b2 f9 17 a8 e0 db 95 aa
       -1.8376808e-12 -2.548765e-13 -8.436328e-15 -2.6620286e-13
0002c0 7e d6 13 ae e7 49 94 af 53 f1 7c af 11 24 18 ae
       -3.3614438e-11 -2.6973554e-10 -2.3005002e-10 -3.4592832e-11
0002d0 85 b1 aa ad 06 b1 12 b0 a8 6c 1f b1 51 a9 b9 b0
       -1.9405597e-11 -5.3366056e-10 -2.319931e-09 -1.3508644e-09
0002e0 64 d9 13 af c1 56 72 af 26 18 37 b1 3a 33 0b b2
       -1.3446805e-10 -2.2040593e-10 -2.6643732e-09 -8.102512e-09
0002f0 d5 37 4c b1 8e a1 9d af 6f 54 3f b0 35 f5 ae b1
       -2.9717644e-09 -2.8672925e-10 -6.960538e-10 -5.0919433e-09
000300 d6 76 10 b2 db ef 1d b1 a9 1b 93 af 94 26 a6 ae
       -8.408923e-09 -2.298285e-09 -2.6758798e-10 -7.555659e-11
000310 a1 a2 fd af 1e 82 44 b0 71 0a 63 af 87 6e 8b ad
       -4.6135987e-10 -7.148929e-10 -2.0649239e-10 -1.5851554e-11
000320 95 86 2c af 16 d2 67 af 88 e3 98 ad 2d 11 8e a9
       -1.5691122e-10 -2.1083965e-10 -1.7381444e-11 -6.309046e-14
000330 b1 0b 40 a0 11 44 3c b0 68 4d 1c b0 39 c5 e2 ad
       -1.6266901e-19 -6.849073e-10 -5.686247e-10 -2.578081e-11
000340 9b f8 e2 a9 9f f2 03 a2 6f 73 e3 af 1e 3c 67 af
       -1.0079542e-13 -1.7882253e-18 -4.137308e-10 -2.1030686e-10
000350 9e 20 c6 ac bb 3a 28 a9 10 1c 95 a1 d3 f5 13 ae
       -5.6311197e-12 -3.7354434e-14 -1.0104061e-18 -3.3642266e-11
000360 c9 78 83 ad b4 14 bb aa e7 76 06 a7 1d 3d 3f 9e
       -1.4946615e-11 -3.3232239e-13 -1.8660693e-15 -1.0124094e-20
000370 38 64 5f ab 80 78 d0 aa fe 07 d0 a7 c0 2b 5b a3
       -7.9364596e-13 -3.7031836e-13 -5.7740262e-15 -1.1881278e-17
000380 44 e9 16 98 88 55 c3 95 b2 77 89 a7 0d bf bf ac
       -1.9504815e-24 -7.889482e-26 -3.8154913e-15 -5.4497574e-12
000390 dd 72 f0 ad f2 4d 27 ae 0d 7b 33 9d 66 bf 33 ab
       -2.733585e-11 -3.8040633e-11 -2.3754069e-21 -6.3859194e-13
0003a0 ab 75 01 af a8 ac 04 b0 eb 31 20 b0 c7 be 19 a2
       -1.1774286e-10 -4.826668e-10 -5.82786e-10 -2.0836363e-18
0003b0 c8 ab de ac b0 3e 1d b0 55 1a 1c b1 f5 d4 15 b1
       -6.328691e-12 -5.720535e-10 -2.2715956e-09 -2.1803406e-09
0003c0 49 de de a4 5f 75 88 ad a4 e8 51 b0 9e 32 1e b1
       -9.665372e-17 -1.5513533e-11 -7.636436e-10 -2.3020799e-09
0003d0 14 ca 0e b1 9b 9c 2d a5 86 b9 26 ad 59 00 6e af
       -2.0778588e-09 -1.5058418e-16 -9.477202e-12 -2.1646097e-10
0003e0 bb fb fd af de 54 07 b0 83 51 63 ae 46 db fb b0
       -4.6199297e-10 -4.923332e-10 -5.168622e-11 -1.8324975e-09
0003f0 1c 8b 23 b2 f1 ce 2f b2 62 d7 7c b1 09 da 05 ae
       -9.5194785e-09 -1.0233394e-08 -3.6793257e-09 -3.0434353e-11

3.bias f4 [16]
000000 8f 91 0e a7 bd ba dd b1 75 d0 b4 a2 a4 0c b7 3c
       -1.9785366e-15 -6.453176e-09 -4.900981e-18 0.022344895
000010 33 0a ee bc a3 a1 2b 3c 33 b4 83 87 95 8e e1 3d
       -0.029057598 0.010475549 -1.98166e-34 0.110135235
000020 02 9a 19 a0 36 8a f7 bc 49 3a ed 3c 06 ec 44 3d
       -1.3010561e-19 -0.030217271 0.028958457 0.048076652
000030 5b 67 90 3d 82 3c 48 bc 43 cd a3 bd 19 c8 5d a0
       0.070509635 -0.012221457 -0.07998135 -1.8785635e-19

7.weight f4 [120, 256]
000000 3d f4 17 00 28 ef c2 80 28 da b7 88 18 06 13 84
       2.199833e-39 -1.790188e-38 -1.10652e-33 -1.7282565e-36
000010 bc 36 0b 80 03 d2 0e 07 ff 15 bf 0b 90 8e 51 8a
       -1.029825e-39 1.074461e-34 7.360362e-32 -1.0089797e-32
000020 90 ec 16 80 f5 8f 7c 87 16 60 d1 90 33 e6 3e 84
       -2.105244e-39 -1.9000678e-34 -8.258401e-29 -2.2440095e-36
000030 d2 31 a8 80 83 46 99 8c 8d 9a 7c 8f 1c 7f 0d 00
       -1.5446236e-38 -2.361582e-31 -1.2454325e-29 1.23946e-39
000040 c1 0d 06 00 f1 73 24 00 96 4d c9 84 10 5b 26 07
       5.55947e-40 3.34767e-39 -4.7326124e-36 1.2515213e-34
000050 c5 a8 0c 00 6c e3 8d 08 33 0f c3 85 2a bf 6b 00
       1.162569e-39 8.539595e-34 -1.8343295e-35 9.894975e-39
000060 01 74 1b 00 ed c6 ad 8b 9a 91 24 80 0a 0e b8 07
       2.521173e-39 -6.6936486e-32 -3.35831e-39 2.7693494e-34
000070 37 95 14 80 c6 19 fc 86 c9 04 24 80 db a8 58 06
       -1.890238e-39 -9.4829735e-35 -3.307794e-39 4.074914e-35
000080 69 36 00 00 38 b9 03 80 57 6e 06 00 0d e3 02 00
       1.9519e-41 -3.4195e-40 5.90595e-40 2.65121e-40
000090 a1 a1 03 80 49 6e 04 00 64 4a 05 00 39 00 00 80
       -3.33488e-40 4.06905e-40 4.85864e-40 -8e-44
0000a0 f9 7a 04 80 82 a3 06 00 39 92 06 00 23 14 02 80
       -4.11456e-40 6.09669e-40 6.03468e-40 -1.90895e-40
0000b0 18 23 04 00 02 9e 06 00 5d 8e 04 00 b5 1f 00 00
       3.79931e-40 6.07695e-40 4.18412e-40 1.1374e-41
0000c0 f1 03 a4 bd f9 0f 3e bd 31 ff 82 bd df f9 a7 3d
       -0.08008564 -0.04640195 -0.0639633 0.08201956
0000d0 de 7f fe bd b4 83 02 be 82 44 55 bc 9e b7 0b 3d
       -0.124267325 -0.12745553 -0.013016822 0.034110658
0000e0 5f 5e 91 bc 0b f5 46 bd c7 3c 0c bb 50 72 85 3d
       -0.017745195 -0.048573535 -0.002139853 0.06515944
0000f0 74 5a cd bc 0f 32 e5 bb 26 91 c6 3d e7 ba fa 3b
       -0.025067545 -0.006994493 0.096956536 0.007651675
000100 0a cb 48 be 58 94 09 be 2a 0f 50 3d e6 4b 84 3d
       -0.19608703 -0.13435495 0.05079571 0.06459789
000110 e4 fb b7 bc 90 71 6d bc 73 2f 25 3c 1f 7f 35 3c
       -0.022458978 -0.014492407 0.010082114 0.011077671
000120 4c 1f f6 bc af 6e 02 be a1 ac e8 bc 59 5f 0b be
       -0.03004422 -0.12737535 -0.028402628 -0.13610591
000130 eb 97 34 bd 12 b2 e1 bc 7e ec 16 be 2f ce 49 be
       -0.044090193 -0.02755073 -0.14738652 -0.19707559
000140 0b 58 c9 3c 69 8e 0b bd df c5 4c bc 56 71 0c bd
       0.024578115 -0.03407136 -0.012498348 -0.034287773
000150 68 2c 33 3b ca 7e 57 3d 26 ec a6 3d 08 54 84 bc
       0.00273397 0.05261115 0.081505105 -0.01615335
000160 ae 1a f4 3b 76 10 44 3d 91 be ef 3c 17 95 10 3e
       0.0074494695 0.04786726 0.029265674 0.14119373
000170 1e 62 24 3d eb 97 01 3e 07 31 ac 3c d4 88 20 bc
       0.040132634 0.12655608 0.021019472 -0.009798247
000180 d1 e9 14 80 eb d9 16 80 f4 fe 40 00 4e 75 3d 80
       -1.920587e-39 -2.098555e-39 5.968932e-39 -5.644046e-39
000190 b2 d1 3b 80 8c d4 03 00 67 9d 47 00 e2 f0 37 00
       -5.493519e-39 3.51754e-40 6.576786e-39 5.137365e-39
0001a0 ee a9 02 00 28 a0 38 00 48 47 00 00 be 5a 05 00
       2.4463e-40 5.200241e-39 2.5571e-41 4.9173e-40
0001b0 97 45 01 00 c0 b4 13 80 a7 03 16 00 4c 27 30 00
       1.168e-40 -1.809715e-39 2.021691e-39 4.422201e-39
0001c0 3e 7b 96 3d 4d f0 a2 3a a2 74 a0 3d 0a 1e 05 3c
       0.07347725 0.0012431234 0.07834746 0.008124838
0001d0 0c d6 dd 3d f2 87 cd bc 9c 25 96 3d d8 bb 4d 3d
       0.10831842 -0.025089238 0.07331392 0.05022797
0001e0 6d 14 02 bc 9e 3a b3 bc b6 7d f2 3c ca e3 20 3d
       -0.00793944 -0.021878537 0.02960096 0.039279737
0001f0 95 85 c2 bc 3e 18 90 3c 2b 66 64 3d 8d 8f 86 3c
       -0.023745338 0.017589685 0.055761497 0.016425872
000200 0d 20 00 00 8e bd 0a 00 f6 a9 24 81 76 4a 58 83
       1.1498e-41 9.86354e-40 -3.0243984e-38 -6.356217e-37
000210 f3 37 02 00 b5 ca 17 00 11 94 70 00 54 47 99 80
       2.03742e-40 2.184934e-39 1.0338692e-38 -1.4076419e-38
000220 1d ac 03 80 9c 17 71 80 1a 72 d1 81 7e e4 35 80
       -3.37249e-40 -1.038588e-38 -7.69382e-38 -4.949249e-39
000230 ac b3 03 80 8d e6 4b 80 02 d3 24 81 5a a5 0a 80
       -3.3996e-40 -6.970368e-39 -3.0273433e-38 -9.77672e-40
000240 0d b4 16 be fb 34 ad 3d 99 28 a7 3d 48 d1 09 3d
       -0.14717121 0.08457371 0.0816204 0.03364685
000250 d4 8b 47 bd 0b 73 30 3d 31 8d b1 3d db a5 2d bc
       -0.048717335 0.043078464 0.08669508 -0.010598625
000260 f7 16 aa 3d e4 f4 f0 3d 3a 19 7b 3d c1 94 47 bc
       0.083051614 0.11765459 0.061303355 -0.012181462
000270 d5 28 84 3d 87 3c 0d bc b0 5a e2 bc 4f 7e 36 bc
       0.064531006 -0.008620388 -0.027631134 -0.011138513
000280 86 06 8a bd 1c 84 83 bd 25 a5 8c bd a1 2c c4 bd
       -0.067395255 -0.06421682 -0.06867436 -0.09578825
000290 52 d3 ae bc 4f 33 a2 3d b5 c1 c0 3c c9 db 12 3d
       -0.021341 0.079199426 0.023529867 0.035854135
0002a0 e4 24 94 3d d4 db 20 3e f3 9a 2a 3d 74 5c 62 3d
       0.07233599 0.15708858 0.041651677 0.05526395
0002b0 0f 20 30 3d 53 b2 14 3e 9a 8d 7b 3d 7f c9 99 3d
       0.042999323 0.1452115 0.06141434 0.075091355
0002c0 71 dd 5c 3c 78 18 b0 3b 5c f2 bf bd 87 90 86 3d
       0.01348053 0.0053740107 -0.09372398 0.06570535
0002d0 11 ce 80 3d d1 96 1a 3d 8b 04 8c 3b 8a 41 3c 3c
       0.06289304 0.037741486 0.0042730025 0.011490235
0002e0 a0 fc 43 3d 98 87 ec 3c 2a 67 1d 3a 2a 17 d5 bc
       0.047848344 0.02887325 0.00060044474 -0.026012022
0002f0 9d 9e 75 3c d2 98 b0 3c a2 d9 3d bd 0d 0e 83 bd
       0.01499143 0.021557245 -0.04635013 -0.06399164
000300 ab 94 9d bd 77 2d 3e 3d 55 c9 a2 bd c8 17 42 be
       -0.07694372 0.046430077 -0.07948557 -0.18954384
000310 4e d0 bf 3d 16 bd 04 3d 8f 05 eb 3c 2c 6b 31 3d
       0.09365903 0.03240689 0.028689174 0.043315098
000320 5d 45 1d 3e ca 5a 56 3d d3 9d 5f 3e 90 53 c3 3d
       0.15358491 0.052332677 0.21837549 0.09537423
000330 3c df 3e 3c fa a6 5f bc e4 53 8f 3d c3 63 30 3e
       0.011649903 -0.01365065 0.06998423 0.17225556
000340 b6 9c 78 3b 6e 65 6e 3d e1 05 98 3d 60 15 4c 3d
       0.0037935204 0.0582022 0.07422996 0.049825072
000350 23 d6 b0 bc 4e 2d 0b 3d fe 8a f9 3d f4 fd 42 3e
       -0.021586483 0.033978753 0.12184714 0.19042188
000360 cd 33 16 3d 86 70 bf 3c 1b 74 df bc 03 b7 a4 3d
       0.036670495 0.023369085 -0.027277043 0.08042719
000370 eb 38 8d 3c 37 4c 12 3d 33 66 75 bc 9a 22 83 bc
       0.017239055 0.035717215 -0.0149779795 -0.01600771
000380 fa c9 49 bd 0d f4 1a 3d 74 82 cb 3d 27 68 d2 3d
       -0.049264885 0.0378304 0.09936991 0.10273772
000390 07 cc af bd bf bd 25 be cd c7 07 be 92 66 7c bd
       -0.08583837 -0.16185664 -0.13259812 -0.061621256
0003a0 b1 d6 01 3e 6f f6 d3 bd 33 8a 66 be ab ad 46 be
       0.12679555 -0.10349738 -0.22513656 -0.19402187
0003b0 a1 b0 e9 3d ff 42 1d be 08 2b 79 be 16 f2 3a be
       0.114106424 -0.15357588 -0.24332821 -0.18256411
0003c0 82 d0 09 80 67 fd 16 80 88 a2 70 07 bf 61 41 09
       -9.01318e-40 -2.111285e-39 1.8103357e-34 2.327749e-33
0003d0 4d e5 05 80 c3 ab 17 00 c3 b3 63 09 3b af 22 0c
       -5.41435e-40 2.173833e-39 2.7408655e-33 1.2532758e-31
0003e0 22 da 05 00 26 4e 35 00 95 60 f3 09 86 e7 24 81
       5.37429e-40 4.895316e-39 5.8590947e-33 -3.0288153e-38
0003f0 61 c7 16 00 61 45 21 0b 16 7e 32 07 4c 28 0a 80
       2.091905e-39 3.1059667e-32 1.3428285e-34 -9.32811e-40

7.bias f4 [120]
000000 f5 d3 6c 3c 02 33 08 00 aa 71 31 80 34 8e 06 00
       0.014454831 7.52982e-40 -4.540714e-39 6.02026e-40
000010 f1 71 33 80 8c e4 5e 3d 01 ef 52 3c 9b 6a 23 00
       -4.724485e-39 0.054417178 0.012874366 3.252485e-39
000020 c0 53 c4 bc 44 2f 17 00 45 c0 34 10 19 4c 04 80
       -0.023965716 2.129172e-39 3.564686e-29 -3.9464e-40
000030 0f 0a 03 00 e7 53 00 00 bc f8 38 00 33 4a 0d 80
       2.79115e-40 3.0098e-41 5.232017e-39 -1.220479e-39
000040 03 05 7d 80 78 45 cb 1a 6d 64 15 00 ad 77 00 00
       -1.1481235e-38 8.4071065e-23 1.964571e-39 4.2932e-41
000050 40 a0 19 00 89 66 05 80 4f cb 01 00 48 72 31 80
       2.353374e-39 -4.9596e-40 1.64769e-40 -4.540936e-39
000060 65 67 e5 3b ca 92 0a 80 a8 23 81 3c c9 37 3c 00
       0.007000851 -9.71013e-40 0.015764073 5.530142e-39
000070 f1 e1 03 80 b7 11 58 99 66 20 20 00 c0 02 03 00
       -3.56559e-40 -1.1170516e-23 2.950358e-39 2.76493e-40
000080 f0 d3 15 80 05 c8 02 80 a0 43 0c 00 35 05 a7 0a
       -2.004574e-39 -2.55424e-40 1.126285e-39 1.6083474e-32
000090 5b 5c fc a9 78 2c 79 3d 84 95 9f 00 3d cb 06 00
       -1.1207069e-13 0.060833424 1.465548e-38 6.23921e-40
0000a0 40 6e 39 00 a7 73 5a bc 19 1a c0 09 87 76 02 00
       5.274174e-39 -0.013333238 4.624686e-33 2.2619e-40
0000b0 cf 6d 8c 3c b6 ee 06 80 59 f7 5b 00 a5 d0 00 00
       0.017142205 -6.36646e-40 8.445762e-39 7.4848e-41
0000c0 6d 7d 00 00 ce 0b 10 00 34 48 60 9d f6 26 04 00
       4.4994e-41 1.473603e-39 -2.9683481e-21 3.81319e-40
0000d0 c8 7a aa 81 da 7e 75 80 a7 84 00 80 35 93 0a 80
       -6.262432e-38 -1.0790259e-38 -4.7587e-41 -9.71163e-40
0000e0 7d 24 08 00 0b 7c 10 80 ac d5 32 02 39 b4 fe 88
       7.47773e-40 -1.513866e-39 1.3138695e-37 -1.5329439e-33
0000f0 01 56 77 80 ba b9 41 07 6a 52 09 80 dd 45 13 80
       -1.0959276e-38 1.4574286e-34 -8.56084e-40 -1.769937e-39
000100 a2 8b 20 80 7a 45 03 80 e0 58 2e 00 21 86 0a 80
       -2.988827e-39 -3.0043e-40 4.256315e-39 -9.66471e-40
000110 43 9e 72 00 18 9c 0c 00 4e 28 83 0c 8a b3 a4 81
       1.052602e-38 1.158022e-39 2.0208003e-31 -6.050171e-38
000120 eb 6e 69 04 7e e2 19 80 0a aa 1e 80 df 48 02 80
       2.743995e-36 -2.377137e-39 -2.816063e-39 -2.09812e-40
000130 f0 59 16 80 f9 b8 05 80 74 ac 28 00 ba b4 29 00
       -2.052644e-39 -5.25533e-40 3.735284e-39 3.830088e-39
000140 aa 5a c0 87 0a 89 31 00 81 e7 ba 86 42 f4 12 80
       -2.8942237e-34 4.5491e-39 -7.030559e-35 -1.740662e-39
000150 54 fd 04 80 31 e2 06 91 c6 9c 00 00 84 a2 46 82
       -4.58219e-40 -1.0640437e-28 5.624e-41 -1.4593382e-37
000160 92 07 61 00 df 26 ee 00 f2 f7 00 80 7e ec 28 80
       8.910759e-39 2.1870792e-38 -8.8946e-41 -3.758257e-39
000170 81 3b 3b 00 69 cb 80 3c 9c c6 03 80 d5 bc 46 80
       5.43964e-39 0.015721994 -3.46754e-40 -6.496225e-39
000180 d8 a6 02 00 cb 0a 2d 00 7f 25 0b 00 28 11 0a 80
       2.43523e-40 4.136469e-39 1.023642e-39 -9.2451e-40
000190 a4 c1 d5 aa 59 95 00 80 2b 4d cd 87 6f f6 01 00
       -3.7970766e-13 -5.3576e-41 -3.0890327e-34 1.80239e-40
0001a0 c3 ba 96 8c a8 97 02 80 a3 4c 18 00 9d 57 83 00
       -2.3223562e-31 -2.38075e-40 2.231544e-39 1.206188e-38
0001b0 f0 8d 00 b0 e7 2b 13 80 b6 43 15 00 dd a1 00 80
       -4.6767834e-10 -1.760624e-39 1.952836e-39 -5.8066e-41
0001c0 1a d7 f7 95 cc cd 09 00 c4 e8 ba bc 99 e1 f9 11
       -1.00101876e-25 9.00345e-40 -0.02281607 3.9424308e-28
0001d0 e9 38 01 00 47 ab 94 06 84 88 08 00 94 b3 a9 01
       1.12251e-40 5.592308e-35 7.83657e-40 6.233848e-38

9.weight f4 [84, 120]
000000 e3 38 33 80 f4 a2 8a 81 92 d8 00 81 b4 25 3d 80
       -4.704017e-39 -5.092702e-38 -2.3665269e-38 -5.61549e-39
000010 f0 62 b7 00 25 b5 4f 80 57 8a 4e 80 d1 e4 0d 80
       1.6841388e-38 -7.319987e-39 -7.212796e-39 -1.275945e-39
000020 d0 60 53 80 63 63 05 80 3a a6 0d 80 1c cb a9 80
       -7.657076e-39 -4.94831e-40 -1.253492e-39 -1.5593061e-38
000030 44 0e 7e 81 f4 3c 59 00 bc 0a b0 00 21 a5 04 80
       -4.6662667e-38 8.195225e-39 1.6166898e-38 -4.26579e-40
000040 41 48 21 81 7d 4e 0c 81 26 03 97 80 ab 47 00 00
       -2.962287e-38 -2.5770252e-38 -1.386829e-38 2.571e-41
000050 2c 68 20 80 a2 99 08 81 f6 7f 04 80 f3 5c 14 80
       -2.976106e-39 -2.508948e-38 -4.13246e-40 -1.870054e-39
000060 41 a9 25 80 e4 ec 62 01 a6 05 2c 00 d0 70 0a 81
       -3.45863e-39 4.1679605e-38 4.042788e-39 -2.5427536e-38
000070 6b 68 29 01 f6 61 05 00 c3 f1 52 01 70 40 26 81
       3.1115314e-38 4.94319e-40 3.8744364e-38 -3.0535616e-38
000080 30 3b 54 00 80 83 35 00 12 8c 49 80 30 e6 1b 00
       7.735414e-39 4.914455e-39 -6.754239e-39 2.562134e-39
000090 8b 98 50 01 49 05 74 80 94 22 1b 00 4c 6c 19 80
       3.831301e-38 -1.0654814e-38 2.491963e-39 -2.334737e-39
0000a0 e0 8e 19 80 30 4b 46 80 c6 a8 90 00 98 31 5e 81
       -2.347141e-39 -6.455457e-39 1.3284856e-38 -4.0810542e-38
0000b0 14 ff 46 80 08 ab 5d 01 cf d8 16 00 22 4f 02 00
       -6.51999e-39 4.0713998e-38 2.098157e-39 2.12058e-40
0000c0 d4 cb 8d 80 b6 07 0f 81 4b f9 2a 81 08 33 98 80
       -1.3021925e-38 -2.6270484e-38 -3.1402928e-38 -1.3977302e-38
0000d0 80 93 ab 80 14 1c 7c 01 e8 2f 03 00 06 e6 0b 80
       -1.5756783e-38 4.6305235e-38 2.92692e-40 -1.092707e-39
0000e0 af 9b bb 00 f8 aa 08 81 62 1f 91 00 e4 40 27 80
       1.7229087e-38 -2.510192e-38 1.3327405e-38 -3.604863e-39
0000f0 c8 04 b1 80 95 54 38 80 3d 1d 1e 00 c4 9f 3e 00
       -1.6256598e-38 -5.17313e-39 2.765554e-39 5.751114e-39
000100 b3 32 3a 00 b1 a1 7c 01 83 74 25 80 ad 3c 09 00
       5.344646e-39 4.6401098e-38 -3.43971e-39 8.48286e-40
000110 28 cc 46 00 25 bb 0b 00 a8 2c 37 00 9d 60 1a 00
       6.501722e-39 1.077325e-39 5.066972e-39 2.422381e-39
000120 ee f4 2d 80 96 a7 99 80 52 5d 21 00 70 db 5a 80
       -4.220462e-39 -1.411095e-38 3.064048e-39 -8.343914e-39
000130 e4 f6 21 01 c4 1f db 00 67 33 45 80 10 a8 15 80
       2.9748165e-38 2.0123369e-38 -6.355089e-39 -1.988835e-39
000140 49 ed 4c 80 09 69 94 00 6c d0 1f 01 94 37 6e 00
       -7.06462e-39 1.3629333e-38 2.9353223e-38 1.0121842e-38
000150 ab 30 05 80 fe 8e 2a 81 4e a8 0f 00 48 19 13 81
       -4.76636e-40 -3.132666e-38 1.437909e-39 -2.7017774e-38
000160 00 03 7a 00 74 0c e9 80 b6 cd 6c 81 e6 15 5c 01
       1.1205007e-38 -2.1402138e-38 -4.3493945e-38 4.042333e-38
000170 3c 62 62 00 e4 87 4e 80 64 0f 38 80 a4 6b 68 00
       9.035118e-39 -7.211917e-39 -5.148309e-39 9.589506e-39
000180 91 0c 17 81 92 07 3e 80 fc 06 2b 01 3b 10 02 80
       -2.7743336e-38 -5.696516e-39 3.141275e-38 -1.89493e-40
000190 bc 6d 04 01 74 41 55 81 11 94 06 00 3b 4f 06 80
       2.4323302e-38 -3.9168882e-38 6.04129e-40 -5.79436e-40
0001a0 7d 79 02 80 bb 3c 9c 00 80 82 39 80 e0 a3 03 00
       -2.27253e-40 1.4348123e-38 -5.281438e-39 3.34294e-40
0001b0 3c b9 23 81 fc 96 9b 00 c2 44 a1 00 71 32 02 00
       -3.007127e-38 1.4288665e-38 1.481018e-38 2.01766e-40
0001c0 f3 70 00 80 e8 86 4b 00 8a f4 42 80 e1 8d 05 80
       -4.0519e-41 6.936057e-39 -6.148867e-39 -5.10074e-40
0001d0 1e ec 00 80 78 e4 34 01 70 cb 59 81 fc 2b 09 80
       -8.4703e-41 3.3224697e-38 -4.0002565e-38 -8.42298e-40
0001e0 4e 17 02 80 bf 6a 84 81 c4 e9 00 81 2c d6 56 01
       -1.92031e-40 -4.8642315e-38 -2.3677606e-38 3.9459253e-38
0001f0 52 a3 00 00 fb 75 12 80 4e e5 09 80 74 f8 73 00
       5.8588e-41 -1.695362e-39 -9.08778e-40 1.065021e-38
000200 8f 6d 00 00 34 08 d9 00 4c a3 ea 00 22 67 69 81
       3.9302e-41 1.9931245e-38 2.1548086e-38 -4.2869335e-38
000210 44 cc 03 80 79 74 6b 00 22 2d 3e 00 2c 57 19 00
       -3.48783e-40 9.86818e-39 5.709991e-39 2.327159e-39
000220 0b a0 74 00 bc 46 3b 80 f0 49 a3 80 7f a8 25 00
       1.071033e-38 -5.443669e-39 -1.499571e-38 3.458358e-39
000230 08 2f d6 80 07 22 08 80 a8 15 21 80 6c 46 33 80
       -1.9669668e-38 -7.4689e-40 -3.03834e-39 -4.708873e-39
000240 4d d7 05 00 ed f7 a0 00 5a 4e 0c 00 ba e9 4e 01
       5.36413e-40 1.4782618e-38 1.130133e-39 3.8003915e-38
000250 5c 7c 02 80 20 5e 3f 81 e4 b0 00 00 b0 65 de 80
       -2.28283e-40 -3.514869e-38 6.3456e-41 -2.0423959e-38
000260 70 01 07 80 7e 54 12 81 7e 5d 4a 00 68 d8 d5 80
       -6.43364e-40 -2.6876585e-38 6.829365e-39 -1.9638593e-38
000270 9c 33 02 00 e6 06 0b 80 38 3f 29 80 68 6b 2b 81
       2.02185e-40 -1.012665e-39 -3.787934e-39 -3.14848e-38
000280 6a 69 54 80 88 2c 0f 80 1e ad 1c 00 b5 6a 04 00
       -7.751997e-39 -1.393507e-39 2.633497e-39 4.05621e-40
000290 5d d8 24 80 b8 23 b6 00 8a 0a 66 80 58 e2 03 80
       -3.383694e-39 1.6726874e-38 -9.371001e-39 -3.56703e-40
0002a0 15 94 08 00 b0 70 7a 81 14 f1 8b 80 1c 84 85 01
       7.87806e-40 -4.5998597e-38 -1.2851617e-38 4.904605e-38
0002b0 50 cc a1 00 04 ac b5 80 58 a9 28 00 46 c1 53 00
       1.4858808e-38 -1.6683932e-38 3.734169e-39 7.69168e-39
0002c0 10 fc 52 80 e4 68 59 01 92 45 79 81 e0 ab 54 00
       -7.620934e-39 3.993186e-38 -4.578399e-38 7.775839e-39
0002d0 2c 9e 89 80 e9 eb 06 00 9e 67 01 80 30 0d 6c 80
       -1.2638204e-38 6.35642e-40 -1.29006e-40 -9.922964e-39
0002e0 b0 15 32 00 60 56 0d 80 08 9e 5c 80 bc de 01 00
       4.599555e-39 -1.224847e-39 -8.505557e-39 1.71738e-40
0002f0 89 8e 00 00 48 4a af 80 70 c2 3a 80 94 42 44 01
       5.1132e-41 -1.6097859e-38 -5.39621e-39 3.6047282e-38
000300 b0 ee 50 80 3c 8c 4f 00 00 9a 43 80 be fb 90 00
       -7.432465e-39 7.305311e-39 -6.208223e-39 1.331462e-38
000310 48 f2 2c 80 a0 01 0f 80 29 f0 1b 80 38 f5 f8 00
       -4.127676e-39 -1.378115e-39 -2.565712e-39 2.2863171e-38
000320 d7 86 01 80 f3 02 52 00 85 74 05 00 8a 5b 06 00
       -1.40207e-40 7.531569e-39 5.00977e-40 5.83851e-40
000330 87 dd 8e 00 a2 cd 4b 80 48 35 0d 01 d2 3a 15 01
       1.312011e-38 -6.96143e-39 2.5935837e-38 2.740918e-38
000340 0c 72 16 80 9a 32 50 80 57 cd 04 00 ae 81 25 01
       -2.061293e-39 -7.364992e-39 4.41004e-40 3.0398754e-38
000350 cc ee e3 00 4a 62 0a 80 10 a5 5b 80 0e b4 07 00
       2.0932322e-38 -9.53614e-40 -8.416243e-39 7.0744e-40
000360 db 87 3e 01 3d 30 75 80 f0 a7 2f 80 3e 5f 4d 00
       3.499496e-38 -1.0762058e-38 -4.376513e-39 7.1055e-39
000370 e4 5e 0c 00 3c a8 18 81 ca 14 70 80 a4 49 6b 01
       1.136066e-39 -2.8038693e-38 -1.0293033e-38 4.3215518e-38
000380 b0 07 75 00 e1 77 03 00 4c 9e 10 81 a0 44 72 00
       1.0747511e-38 3.18511e-40 -2.6562195e-38 1.0493865e-38
000390 70 dd 4c 00 a2 85 37 00 70 2f 77 80 24 6a 69 00
       7.058935e-39 5.098891e-39 -1.0945441e-38 9.680803e-39
0003a0 f8 b0 14 80 e0 08 5f 80 53 da 13 80 8c 86 02 00
       -1.900194e-39 -8.727556e-39 -1.823194e-39 2.31937e-40
0003b0 5b f3 93 80 50 e5 08 01 ac e8 4e 80 cc 90 0b 80
       -1.3587117e-38 2.514378e-38 -7.246636e-39 -1.062134e-39
0003c0 c2 07 05 80 34 db 08 00 80 e2 1d 81 5c 38 07 00
       -4.6196e-40 8.13319e-40 -2.8998852e-38 6.63066e-40
0003d0 90 8a 5e 00 a4 6b 27 80 55 a7 06 80 2f 23 08 00
       8.682243e-39 -3.620199e-39 -6.1104e-40 7.47305e-40
0003e0 c7 9b 12 80 91 da 4d 00 b0 14 04 80 9c 68 9e 80
       -1.708921e-39 7.14974e-39 -3.74763e-40 -1.4547535e-38
0003f0 80 aa 05 00 6c d6 1c 00 47 7d 09 80 1e 2f 34 80
       5.20341e-40 2.648314e-39 -8.7146e-40 -4.792348e-39

9.bias f4 [84]
000000 ee 63 33 00 b7 84 19 00 77 35 01 00 84 19 5d 3c
       4.719458e-39 2.343497e-39 1.11015e-40 0.013494853
000010 f0 c2 ba 3a 29 40 51 3c c4 ac 0e 80 6b 6e 04 00
       0.001424877 0.012771645 -1.347674e-39 4.06952e-40
000020 d8 65 0a 80 c8 8a aa 3c 0f be 0c 80 38 26 5d 01
       -9.5489e-40 0.02081813 -1.170206e-39 4.061871e-38
000030 06 68 12 80 a0 17 5a 02 d1 6a 01 80 c3 19 03 80
       -1.690356e-39 1.6022891e-37 -1.30154e-40 -2.84748e-40
000040 e4 fe 9b 00 b4 1d 57 3c ea a0 04 00 7c b7 01 80
       1.432594e-38 0.01312964 4.25067e-40 -1.57657e-40
000050 24 a7 ee 3b 8f 5a 04 80 36 04 8a 80 3f 55 5c 00
       0.0072831083 -3.99828e-40 -1.2674809e-38 8.479446e-39
000060 98 dd 08 80 c6 d3 2f 3d 9c 2c 32 80 96 d5 10 3d
       -8.14177e-40 0.042926572 -4.607778e-39 0.03535994
000070 a2 c4 83 01 78 24 0c 00 72 52 19 80 db 86 00 80
       4.8403954e-38 1.115108e-39 -2.325463e-39 -4.8377e-41
000080 79 1e 08 80 b0 4f 37 80 30 59 05 80 d2 11 00 bc
       -7.45615e-40 -5.079539e-39 -4.91172e-40 -0.007816749
000090 5b 44 1e 00 e2 2a 82 3c 25 34 b1 85 67 7a 36 80
       2.779586e-39 0.015889589 -1.6664155e-35 -5.003026e-39
0000a0 01 0e 00 80 87 6f 13 90 3b 2e 09 00 c3 70 3c 3d
       -5.024e-42 -2.9076556e-29 8.43104e-40 0.046005975
0000b0 1f 40 1b 80 f4 aa 78 0a 6d c7 2b 80 44 d0 01 00
       -2.502561e-39 1.1972918e-32 -4.020467e-39 1.66547e-40
0000c0 84 d4 46 00 e3 cd 0d 00 75 96 08 00 db c7 01 00
       6.504721e-39 1.26772e-39 7.88658e-40 1.6353e-40
0000d0 2a 03 02 80 48 d5 0f 85 75 ca 4e 00 5d a7 26 39
       -1.84806e-40 -6.763001e-36 7.235797e-39 0.00015893341
0000e0 1a 49 0e 80 37 4a 0d 00 4f 95 02 80 a8 c1 06 83
       -1.311921e-39 1.220485e-39 -2.37233e-40 -3.9601367e-37
0000f0 6f 85 4f 00 f5 c7 0c 80 55 c4 36 00 b4 84 07 00
       7.302871e-39 -1.173757e-39 5.029547e-39 6.90453e-40
000100 ee 14 16 80 d0 55 05 80 19 34 41 02 86 bb 15 80
       -2.027889e-39 -4.89961e-40 1.4194352e-37 -1.995816e-39
000110 7b f3 06 00 dd 82 0b 80 68 07 21 81 12 7d 97 80
       6.38357e-40 -1.057135e-39 -2.9576343e-38 -1.3912027e-38
000120 28 fd 04 80 aa 6e 1a 13 60 94 0b 80 f8 7e 26 00
       -4.58157e-40 1.9492094e-27 -1.063417e-39 3.535297e-39
000130 38 55 0d 00 97 15 04 00 ae 3e c4 0b d2 b7 10 80
       1.224432e-39 3.75087e-40 7.5590764e-32 -1.53531e-39
000140 ff f2 03 80 1b fe 54 3d 3f 58 03 80 fb 38 58 80
       -3.62677e-40 0.052000146 -3.07163e-40 -8.101964e-39

11.weight f4 [10, 84]
000000 a0 9c 59 00 4f 3a 12 80 f6 06 0c 00 b9 e7 55 3d
       8.229546e-39 -1.673956e-39 1.104523e-39 0.05222294
000010 44 83 43 bd e9 be 0a be 5f bd 06 80 0e f7 07 80
       -0.047732607 -0.13549389 -6.18947e-40 -7.31475e-40
000020 68 ac 05 00 65 1e 23 be 67 19 0c 00 e9 16 85 0b
       5.21025e-40 -0.15929563 1.111139e-39 5.126421e-32
000030 bf 6f 22 80 f6 3c 4c 04 25 19 0c 00 e8 81 0a 80
       -3.162494e-39 2.4008077e-36 1.111046e-39 -9.64957e-40
000040 b5 5d c6 83 45 ed b5 bd 12 7e 3c 80 b6 c5 00 80
       -1.1658908e-36 -0.08883146 -5.555355e-39 -7.0925e-41
000050 f0 bb 6b be 71 8d 04 00 1e b5 77 80 80 dd 05 80
       -0.23020911 4.18082e-40 -1.0993397e-38 -5.38637e-40
000060 bf f4 0e 80 28 cc 4f be f2 f2 3f 00 36 10 60 be
       -1.373495e-39 -0.20292723 5.872789e-39 -0.21881184
000070 24 a0 69 0c b1 b0 07 00 3f a0 1e 00 f5 bb 0a 80
       1.7997858e-31 7.06233e-40 2.81255e-39 -9.85781e-40
000080 8d 79 5e 80 56 84 01 81 0b e5 03 80 91 04 b4 bd
       -8.676141e-39 -2.3788504e-38 -3.57672e-40 -0.087899335
000090 c3 b6 13 00 19 fc 6e 3f 31 d2 db 0c 36 a5 0d 80
       1.810437e-39 0.9335342 3.3868797e-31 -1.253128e-39
0000a0 d0 b9 00 00 b2 db 37 91 05 ce 8a 80 03 bd b7 bd
       6.6657e-41 -1.4503853e-28 -1.2747204e-38 -0.08971598
0000b0 42 b1 10 80 39 c3 09 91 4c e2 2b 00 d0 00 0b 00
       -1.532956e-39 -1.0867552e-28 4.030106e-39 1.010482e-39
0000c0 10 14 4b 00 0f 77 92 2a 27 34 05 80 90 4c 00 80
       6.894859e-39 2.6017423e-13 -4.77886e-40 -2.7465e-41
0000d0 82 3b 00 80 aa b3 e0 0f 3e 89 26 80 ae 9b a4 3e
       -2.1347e-41 2.215731e-29 -3.538982e-39 0.32150024
0000e0 98 f4 05 00 d3 53 03 80 bd a7 00 00 e9 9e a9 84
       5.46921e-40 -3.05577e-40 6.0173e-41 -3.9877645e-36
0000f0 b9 e2 17 00 0d 88 2e 00 bd 57 0b 00 09 34 09 80
       2.193549e-39 4.273239e-39 1.041665e-39 -8.45186e-40
000100 01 ff 0f 80 86 f9 09 80 6d 28 fd 0d ca 6f 26 80
       -1.46901e-39 -9.16032e-40 1.5602061e-30 -3.529851e-39
000110 42 3a 54 00 1f 2a 0d 80 a1 8e 09 87 55 9b 21 00
       7.73508e-39 -1.208972e-39 -1.0348649e-34 3.086294e-39
000120 a1 35 3b 00 2d 83 1d 1d 60 4d 09 00 c3 bc f3 00
       5.437533e-39 2.0846593e-21 8.54276e-40 2.238374e-38
000130 ca ee 15 00 31 2e 51 80 5b a9 06 8d 07 d3 08 00
       2.014207e-39 -7.455246e-39 -4.149579e-31 8.10386e-40
000140 d8 9a 0b 80 37 ab 54 be 63 87 08 00 3c d2 e0 80
       -1.065738e-39 -0.20768438 7.83252e-40 -2.0646569e-38
000150 23 21 5a 00 6a 6d 20 00 29 ab 0d 80 f4 89 84 3f
       8.277082e-39 2.977986e-39 -1.255262e-39 1.03546
000160 a2 bd 5f be 44 35 d7 bd f5 bd 09 00 c3 53 06 80
       -0.21849683 -0.105082065 8.94663e-40 -5.81061e-40
000170 b1 dc 01 80 e6 d9 60 be 9b bb 28 80 ae ec 31 01
       -1.71005e-40 -0.21958122 -3.74072e-39 3.2679575e-38
000180 22 99 14 00 78 14 25 8e 3a 61 01 00 91 a3 04 00
       1.891644e-39 -2.0347676e-30 1.26714e-40 4.26019e-40
000190 77 6c 2c 08 98 90 99 bd 6f da 2e 00 33 09 02 80
       5.1886867e-34 -0.07498282 4.302792e-39 -1.86971e-40
0001a0 d9 57 71 bd 98 de 02 00 f5 53 bf 00 85 56 47 00
       -0.05892167 2.63523e-40 1.7570698e-38 6.551358e-39
0001b0 ee e3 05 80 13 0d 10 be d7 ce 55 00 84 15 23 be
       -5.40943e-40 -0.14067487 7.880217e-39 -0.15926176
0001c0 d3 d8 8b 1e ad f7 0e 00 8c 9a 1c 00 03 91 30 00
       1.4806874e-20 1.374546e-39 2.626835e-39 4.460124e-39
0001d0 64 27 05 01 60 04 b6 04 f6 a1 05 00 4f 21 30 be
       2.4456503e-38 4.2792012e-36 5.17278e-40 -0.17200206
0001e0 d2 b5 b4 13 31 4a 15 be 2d 6b 16 12 e2 bd 1b 80
       4.5617677e-27 -0.14579083 4.746376e-28 -2.547676e-39
0001f0 99 ff 0a 80 c9 9b cd 90 10 97 5b 00 ed 0d 75 be
       -1.010046e-39 -8.109827e-29 8.411221e-39 -0.23931094
000200 e9 f5 15 80 80 cb 18 9a 6b a4 10 80 21 87 00 00
       -2.016761e-39 -3.159725e-23 -1.52835e-39 4.8475e-41
000210 82 fa 1b 00 aa f1 3a 30 0f 53 00 00 d0 8b 03 80
       2.569424e-39 6.800983e-10 2.9796e-41 -3.25662e-40
000220 70 01 0c 00 50 6d 85 8c 19 84 4a 80 54 ce a2 bd
       1.102542e-39 -2.0557685e-31 -6.843214e-39 -0.0794951
000230 3d 34 0a 00 c5 42 01 80 c3 f5 03 80 12 c7 77 08
       9.37095e-40 -1.15788e-40 -3.63669e-40 7.4562865e-34
000240 bf 7b 11 00 f1 9d 2e 00 64 44 2d 00 dd 78 06 00
       1.605595e-39 4.281092e-39 4.157131e-39 5.9437e-40
000250 3c e7 12 80 b2 c1 13 80 3f 24 35 8d 53 cd 5d 00
       -1.73599e-39 -1.814359e-39 -5.581856e-31 8.614358e-39
000260 db c5 07 81 a6 c6 0c 00 f5 2d 84 88 da a3 9f 80
       -2.4937538e-38 1.173288e-39 -7.9552655e-34 -1.4660623e-38
000270 b9 bd 19 80 1a e6 40 1e 20 59 01 00 e1 1d 00 01
       -2.363947e-39 1.0211979e-20 1.23808e-40 2.3531324e-38
000280 d6 55 15 80 80 95 4d 80 6d e3 80 0c 31 e8 2e 95
       -1.959338e-39 -7.124964e-39 1.98584e-31 -3.5322187e-26
000290 31 34 10 80 f8 3f bc 3d 47 e3 01 80 41 9c 04 04
       -1.48809e-39 0.091918886 -1.73367e-40 1.5588274e-36
0002a0 94 3d 15 00 08 03 20 00 0f 1d 0c 00 56 25 ba bd
       1.950635e-39 2.939823e-39 1.11245e-39 -0.090891525
0002b0 1d df 9e 3f f0 30 04 be e9 e5 00 00 13 dc 07 80
       1.2411839 -0.12909293 8.2476e-41 -7.21796e-40
0002c0 a8 dc 06 00 9b 70 a3 bc f1 bd 24 00 d9 60 b7 04
       6.3017e-40 -0.019951155 3.374216e-39 4.3112034e-36
0002d0 60 88 0d 00 de b2 c0 24 33 2e 00 00 a1 1d 00 00
       1.242784e-39 8.356974e-17 1.6573e-41 1.0629e-41
0002e0 d1 80 7d 06 da ae 9b bd e9 08 5e 80 17 5c 0a 00
       4.767865e-35 -0.0760171 -8.635733e-39 9.5139e-40
0002f0 b4 e8 28 3c 92 bd 01 80 5d 2d 10 81 b6 6a 27 00
       0.010309387 -1.5984e-40 -2.648117e-38 3.619865e-39
000300 61 83 03 00 c0 d6 38 be 04 9d 52 80 4b c8 8a be
       3.22636e-40 -0.1805067 -7.586837e-39 -0.27105936
000310 c0 82 89 1a 23 90 05 00 23 b0 2a 80 c0 51 16 80
       5.687311e-23 5.10884e-40 -3.920277e-39 -2.049707e-39
000320 d5 ec af 81 60 01 00 81 f1 4d 03 80 03 95 14 bd
       -6.4624685e-38 -2.3510874e-38 -3.03467e-40 -0.03627492
000330 7e 0c 1d 80 7b 60 5a bd a7 49 bf 13 14 fc 04 80
       -2.667711e-39 -0.053314667 4.8287805e-27 -4.5777e-40
000340 dc 26 03 00 17 b8 4d 10 92 73 0c 01 cf 6a f7 bd
       2.89447e-40 4.057094e-29 2.5796857e-38 -0.12080919
000350 03 79 02 80 45 90 9b 9e 11 3b 2b 80 8d 44 03 80
       -2.27082e-40 -1.6470932e-20 -3.970115e-39 -3.00098e-40
000360 3e 72 16 00 89 0d aa a5 e0 60 00 80 fc a0 05 00
       2.061363e-39 -2.949947e-16 -3.4752e-41 5.16928e-40
000370 e8 54 01 80 e9 d6 4b 9f c0 a9 58 80 70 ca da bd
       -1.22294e-40 -4.316469e-20 -8.142418e-39 -0.10683143
000380 94 8e 04 00 dd 65 0b 80 e9 02 02 80 4e 8e 30 84
       4.1849e-40 -1.046732e-39 -1.84715e-40 -2.0754044e-36
000390 8f 25 1e 00 f6 70 28 80 33 37 66 80 77 f0 24 80
       2.768538e-39 -3.713943e-39 -9.387022e-39 -3.39234e-39
0003a0 f1 99 0e 00 38 18 07 00 a6 3f f8 13 1f 17 e7 11
       1.340921e-39 6.51537e-40 6.2666764e-27 3.6459623e-28
0003b0 c4 fb fc 01 4d 88 17 80 ce 1b 0b 13 b8 3c 7a 80
       9.2931446e-38 -2.161112e-39 1.7557975e-27 -1.1225712e-38
0003c0 93 db 50 80 55 fb f8 a2 03 37 05 80 93 8e 03 81
       -7.425608e-39 -6.7486643e-18 -4.78912e-40 -2.4163192e-38
0003d0 f8 d8 2b 00 a2 34 00 0b d1 8b aa 8d 9a e6 86 98
       4.02676e-39 2.46915e-32 -1.05107185e-30 -3.4871036e-24
0003e0 9b b1 04 00 8e de 51 be 37 51 07 80 88 50 b8 05
       4.31055e-40 -0.20495054 -6.71983e-40 1.733286e-35
0003f0 b1 62 12 80 70 5f 20 00 67 52 0a 00 65 f3 39 be
       -1.688443e-39 2.972972e-39 9.47915e-40 -0.18159254

11.bias f4 [10]
000000 63 73 fd 3b 49 95 14 bb de 97 a4 bc fb 69 a2 bc
       0.0077347024 -0.0022671989 -0.020091947 -0.019825926
000010 2a 4a 77 3c df 7c 71 3b 43 85 e7 bc 17 f0 1c 3c
       0.015093366 0.003684811 -0.028261786 0.009578726
000020 67 0a bc 3c af 4a 5d 3c
       0.022954179 0.0135065755

exp_avg f4 [6, 1, 5, 5]
000000 29 0d 19 3b 46 57 4a 3b 2a 99 5b 3b a7 11 38 3b
       0.0023353791 0.0030874773 0.003350804 0.0028086693
000010 ae 65 04 3b 17 31 27 3b c4 8f 65 3b 70 0e 66 3b
       0.0020202207 0.0025511438 0.0035028318 0.003510382
000020 33 94 38 3b af 5d 07 3b a0 7b 07 3b 13 18 3b 3b
       0.0028164505 0.0020655205 0.0020673051 0.0028548285
000030 df b7 50 3b 34 b6 3f 3b 6f 13 21 3b 84 ef c0 3a
       0.0031847877 0.0029252889 0.0024578234 0.0014719819
000040 ec 22 10 3b 90 02 2f 3b 51 c8 35 3b cc d2 37 3b
       0.0021993471 0.0026704408 0.0027737806 0.0028049229
000050 b5 8d a9 3a 2a 11 0b 3b ba c3 25 3b c0 ae 23 3b
       0.0012935909 0.0021219947 0.0025293664 0.0024975985
000060 da 1f 2d 3b 06 5d ea 36 84 b4 51 b9 9e a5 08 ba
       0.002641669 6.984573e-06 -0.0001999904 -0.0005212667
000070 53 8b f4 b9 c1 73 a5 b8 ee 8f 91 b9 d1 39 e0 b9
       -0.0004664311 -7.889374e-05 -0.0002776379 -0.00042767686
000080 34 4b 38 ba aa 07 09 ba c4 f9 48 b9 01 bc 61 b9
       -0.0007030249 -0.0005227277 -0.00019166531 -0.00021527709
000090 0e 63 0e b9 5d 4d 04 ba 40 83 e1 b9 bd 82 95 b8
       -0.00013579076 -0.00050469284 -0.00043013133 -7.1292256e-05
0000a0 e3 de 1b 3a a8 50 04 3a e4 2e b3 b8 1d 5a b2 b8
       0.00059459935 0.0005047419 -8.544119e-05 -8.504486e-05
0000b0 f9 04 2f 38 b5 92 c3 3a 8d 0c 91 3a b2 57 f5 39
       4.1727882e-05 0.0014921041 0.0011066362 0.0004679538
0000c0 42 c3 d0 39 0a 1b a2 39 5b 64 2b ba 47 1b 25 ba
       0.0003981833 0.00030919194 -0.00065380865 -0.0006298315
0000d0 e3 71 ff b9 32 7c 90 b9 d7 21 e5 b6 e6 57 53 ba
       -0.00048722242 -0.00027558353 -6.8286713e-06 -0.0008062109
0000e0 a6 d4 60 ba db ad 4c ba cb cd 01 ba 72 0a 8d b9
       -0.0008576609 -0.0007807889 -0.0004951625 -0.00026901398
0000f0 fe 5e 57 ba 10 26 5e ba b5 bd 43 ba b1 d7 e7 b9
       -0.0008215754 -0.00084742997 -0.0007466928 -0.00044220456
000100 76 3e ae b9 2b 3f 24 ba 09 64 0b ba d9 32 d2 b9
       -0.00033234403 -0.0006265516 -0.00053173356 -0.00040092206
000110 60 cd 7f b9 bc e6 61 b9 17 26 be b9 89 41 88 b9
       -0.00024395203 -0.00021543627 -0.00036268003 -0.0002598877
000120 fc f1 29 b9 ec 7f 83 b8 b1 f1 8a b8 35 67 e5 38
       -0.00016207242 -6.270394e-05 -6.625371e-05 0.00010938795
000130 fb 46 c5 b8 43 62 9e b9 0c 61 aa b9 03 78 9d b9
       -9.406913e-05 -0.0003020932 -0.00032497232 -0.0003003479
000140 78 0d 98 39 79 96 8b 39 34 f1 d5 b7 a0 8b 5d b9
       0.00029001734 0.00026624257 -2.5503898e-05 -0.00021128217
000150 39 b1 34 b9 a5 ac fb 39 67 03 ee 39 06 55 1d 38
       -0.00017232158 0.0004800308 0.00045397432 3.75109e-05
000160 32 4e 71 b9 5e f6 6f b9 c7 b8 40 3a bd 7d f2 39
       -0.00023012681 -0.00022884595 0.0007351753 0.0004625152
000170 96 50 9b b7 50 83 92 b9 c4 28 99 b9 6b c7 77 3a
       -1.8514966e-05 -0.00027945125 -0.00029212807 0.0009452018
000180 21 a4 13 3a cd de 9e 38 f7 6f 6a b9 24 a3 1c b9
       0.0005632062 7.575527e-05 -0.00022357689 -0.00014938094
000190 ce 7e a0 3a 7c 45 be 3a 83 fc c2 3a ea 36 b3 3a
       0.0012244822 0.0014516558 0.001487628 0.0013672982
0001a0 b0 db a2 3a b5 64 36 3a 32 63 63 3a ae 39 75 3a
       0.0012425091 0.00069577555 0.0008674144 0.0009354603
0001b0 c2 dc 7d 3a 81 0e 71 3a e5 4b 14 38 1d 5a be 38
       0.00096840796 0.00091955817 3.5356632e-05 9.076691e-05
0001c0 90 50 46 39 66 a5 a1 39 eb 3f 84 39 55 2c 9a b9
       0.00018912763 0.00030831544 0.00025224625 -0.000294062
0001d0 61 68 87 b9 ca 1f 33 b9 cc b0 1a b9 0c 48 b1 b9
       -0.00025826975 -0.00017082613 -0.00014752446 -0.0003381375
0001e0 54 8c 08 ba d5 ec 13 ba 7b ac d6 b9 b5 41 f2 b9
       -0.0005208899 -0.00056428957 -0.0004094577 -0.00046206792
0001f0 09 cb 43 ba a8 ad 2f ba f1 58 3a ba 9b 27 38 ba
       -0.0007468914 -0.0006701597 -0.000710859 -0.00070249446
000200 bb 54 3b ba 99 e3 33 ba f4 0e 4b ba da f8 4f ba
       -0.000714611 -0.0006862223 -0.00077460636 -0.0007933505
000210 dc b1 15 ba 4d b1 d4 b9 a9 a9 bc b9 49 69 ea b9
       -0.0005710402 -0.0004056789 -0.0003598456 -0.00044710402
000220 2a 6a f1 b9 f0 83 76 b9 2c 1b 58 b9 82 3e 1a b9
       -0.000460462 -0.00023509539 -0.00020609488 -0.0001470987
000230 02 72 fd 37 9d 6b 37 38 f7 6f 87 b7 c5 76 b7 b9
       3.021304e-05 4.3730823e-05 -1.6145392e-05 -0.0003499297
000240 bc 01 c0 b9 57 8b f7 39 88 1c 8e 39 aa 06 5e b7
       -0.00036622386 0.00047215328 0.00027105608 -1.3233783e-05
000250 a8 25 e3 b9 7f e8 f4 b9
       -0.0004332487 -0.0004671253

exp_avg_sq f4 [6, 1, 5, 5]
000000 9f 4a 20 38 18 f2 88 38 01 da b7 38 38 9f 99 38
       3.821647e-05 6.530079e-05 8.7667264e-05 7.325265e-05
000010 71 75 46 38 fd ef 24 38 3a 71 a0 38 0d ff e9 38
       4.7316254e-05 3.9324153e-05 7.6504846e-05 0.00011157813
000020 7c c5 b3 38 0e 92 5b 38 cf 7a 06 38 61 b2 8e 38
       8.5721695e-05 5.2349693e-05 3.2062464e-05 6.804313e-05
000030 c4 82 f0 38 8e de cd 38 18 59 8c 38 3e 31 c9 37
       0.00011468449 9.816616e-05 6.692315e-05 2.3983997e-05
000040 30 ee 5b 38 7f 4b c3 38 08 be c7 38 2f f7 a1 38
       5.24355e-05 9.312387e-05 9.5244555e-05 7.72312e-05
000050 50 0c b9 37 f5 07 44 38 9e 7f a0 38 dc 04 ae 38
       2.2059452e-05 4.6737452e-05 7.653165e-05 8.297872e-05
000060 c4 bf 94 38 c4 df f2 37 29 1d 2f 38 d1 a7 6f 38
       7.092909e-05 2.8952847e-05 4.175041e-05 5.713833e-05
000070 40 b2 79 38 2b 22 4e 38 49 b2 15 38 86 81 62 38
       5.9532234e-05 4.914605e-05 3.569041e-05 5.4003227e-05
000080 91 54 91 38 a5 0b 77 38 fd dc 30 38 4e 84 57 38
       6.9298905e-05 5.8900234e-05 4.216748e-05 5.1383213e-05
000090 8b 24 91 38 fe 53 89 38 59 96 34 38 09 be eb 37
       6.9209455e-05 6.548314e-05 4.3055366e-05 2.8102675e-05
0000a0 7c b8 72 38 42 ab 82 38 4d 62 44 38 45 fe f0 37
       5.786911e-05 6.230782e-05 4.682159e-05 2.8728633e-05
0000b0 74 55 a7 37 96 32 58 38 64 83 5c 38 15 4b 22 38
       1.9947744e-05 5.1545525e-05 5.2574454e-05 3.8693735e-05
0000c0 df 63 de 37 55 43 ac 37 79 07 e8 36 74 ab e5 36
       2.6510968e-05 2.0535352e-05 6.9150087e-06 6.8446916e-06
0000d0 15 c1 37 37 4e 18 b5 37 ef 63 0e 38 a3 fe a1 36
       1.0952605e-05 2.15882e-05 3.394851e-05 4.8278175e-06
0000e0 4a 4a ac 36 46 10 40 37 45 83 f2 37 2c 4e 3d 38
       5.134648e-06 1.1447881e-05 2.8909775e-05 4.5133915e-05
0000f0 d7 ac 8f 36 b6 b4 c4 36 b0 39 8b 37 59 d0 2c 38
       4.2818533e-06 5.8622927e-06 1.6596954e-05 4.1202034e-05
000100 df 45 6e 38 7e 5f bf 36 bf db 2d 37 b3 c4 e6 37
       5.6808694e-05 5.7033603e-06 1.0362767e-05 2.7509732e-05
000110 52 c7 66 38 82 86 86 38 60 a4 18 37 1b a6 9a 37
       5.5021905e-05 6.414672e-05 9.0981775e-06 1.843558e-05
000120 12 e3 24 38 e8 33 82 38 04 1f 87 38 4e 07 62 38
       3.9312123e-05 6.208551e-05 6.443079e-05 5.3889402e-05
000130 b1 ce 3b 38 b6 e9 d3 37 76 24 30 37 1d 21 c8 36
       4.477677e-05 2.526199e-05 1.0498907e-05 5.9643194e-06
000140 2f 7a 73 38 32 fd 2c 38 bb e7 8f 37 c4 0c b0 36
       5.8049507e-05 4.1243802e-05 1.7154836e-05 5.246695e-06
000150 6c 1e 86 36 62 76 7a 38 8c 1f 15 38 b4 37 45 37
       3.9970528e-06 5.9714897e-05 3.555375e-05 1.1755084e-05
000160 d6 1c 73 36 4a 30 6b 36 20 9e 77 38 58 48 04 38
       3.6226606e-06 3.5045837e-06 5.9036654e-05 3.1538628e-05
000170 0a 12 34 37 5b 0f 97 36 ee 44 90 36 4c 4b 6c 38
       1.0733036e-05 4.5019383e-06 4.299559e-06 5.633691e-05
000180 9e b0 fd 37 27 7b 59 37 39 67 e7 36 a9 83 e2 36
       3.0242194e-05 1.2962882e-05 6.896353e-06 6.750652e-06
000190 f6 97 9f 37 60 11 8a 37 b1 e2 6a 37 8e 56 4f 37
       1.902504e-05 1.6458973e-05 1.4000268e-05 1.2358314e-05
0001a0 46 6c 41 37 d5 f3 94 37 82 0d 77 37 8e b9 4b 37
       1.1528906e-05 1.7756518e-05 1.4725492e-05 1.2142946e-05
0001b0 13 b7 40 37 ab 0a 4b 37 ca 27 9f 37 36 b9 7c 37
       1.1486717e-05 1.2102227e-05 1.8972805e-05 1.5063493e-05
0001c0 33 38 4b 37 93 9f 55 37 0d 35 74 37 f1 da c6 37
       1.2112828e-05 1.2732943e-05 1.4555885e-05 2.3705392e-05
0001d0 69 4d ba 37 a8 9c ab 37 4f ae af 37 a9 6e bc 37
       2.2208975e-05 2.0457737e-05 2.0942794e-05 2.2462877e-05
0001e0 05 4e f7 37 88 15 04 38 c8 37 03 38 ae 23 02 38
       2.9481025e-05 3.1491305e-05 3.1284784e-05 3.1027645e-05
0001f0 54 31 05 38 df 96 fb 37 4b ec 02 38 f7 76 1b 38
       3.175561e-05 2.9991787e-05 3.121448e-05 3.7065674e-05
000200 94 bc 45 38 8e 30 6e 38 56 31 d0 37 1b 39 c9 37
       4.7144087e-05 5.6788842e-05 2.4818506e-05 2.3987659e-05
000210 e5 6b df 37 46 df 15 38 c9 89 42 38 57 f1 8c 37
       2.6633914e-05 3.5732308e-05 4.6381527e-05 1.6801683e-05
000220 20 9e 63 37 24 80 6a 37 d5 44 ba 37 12 73 0b 38
       1.3567071e-05 1.3977322e-05 2.220498e-05 3.324735e-05
000230 3d 32 2e 37 5d fe 03 37 ee a5 1f 37 61 80 95 37
       1.0382905e-05 7.867432e-06 9.515772e-06 1.7821965e-05
000240 2f bd eb 37 ed e2 1d 37 b6 ed 07 37 10 d8 42 37
       2.8102279e-05 9.4107645e-06 8.101973e-06 1.1613607e-05
000250 db a7 ae 37 5d 13 01 38
       2.082058e-05 3.077403e-05

exp_avg f4 [6]
000000 6a 14 14 3b 6f b7 bf b9 7a fb df b8 98 9d 34 3a
       0.0022595176 -0.00036567028 -0.0001068031 0.00068899384
000010 aa 7d 90 bb 91 6c 29 ba
       -0.0044095116 -0.0006463016

exp_avg_sq f4 [6]
000000 73 11 4d 38 fb 5c c0 37 70 e1 02 38 39 89 0e 38
       4.889206e-05 2.2931481e-05 3.120437e-05 3.3983237e-05
000010 a0 b0 a2 38 58 5a 1e 38
       7.757661e-05 3.7754275e-05
